output/20221201_182556/unet_epoch_1.pth (torch, 481507 bytes, 25 tensors)

weight f4 [16, 1, 3, 3]
0	0x3ea99589	0.331219
1	0x3e6e3c8c	0.23265284
2	0x3e5e393f	0.21701525
3	0xbe94679b	-0.28985295
4	0x3db3dc55	0.087822594
5	0x3e8cd709	0.2750781
6	0x3dd3ad90	0.10335839
7	0xbe2ee526	-0.170796
8	0x3e205308	0.15656674
9	0xbce3dae5	-0.027814338
10	0xbe9f576d	-0.31121388
11	0xbea476d1	-0.321219
12	0x3e65eb6e	0.2245309
13	0xbe1ac284	-0.15113264
14	0x3e493765	0.19650038
15	0x3e80a913	0.25128993
16	0xbc8af1d5	-0.016961018
17	0x3e21ce96	0.15801463
18	0x3e518a71	0.20462967
19	0x3de48b8f	0.11159431
20	0xbe53f5fd	-0.20699306
21	0x3e8b04d0	0.2715211
22	0xbe62bf82	-0.22143367
23	0xbe9fe250	-0.3122735
24	0xbdcdea93	-0.10054507
25	0xbe9f8a7b	-0.3116034
26	0x3defaffc	0.11703488
27	0xbe8de3ef	-0.27712962
28	0x3e3a1b0e	0.18174383
29	0x3e82b8ad	0.2553152
30	0xbda46eeb	-0.080289684
31	0xbe2d9644	-0.16951853
32	0xbd0b831b	-0.03406058
33	0x3e016c0b	0.12638871
34	0x3e3ce018	0.1844486
35	0x3d8e0785	0.06935028
36	0xbe9f5b33	-0.31124267
37	0x3dbc83e3	0.09204843
38	0x3c2ca2cd	0.010536862
39	0x3e31c009	0.17358412
40	0xbd9ccb0b	-0.07655915
41	0xbd2999b2	-0.04140634
42	0x3d3aff99	0.045653913
43	0xbe15024c	-0.14551657
44	0xbe8a4355	-0.27004495
45	0x3e070bf1	0.13188149
46	0x3e6aeede	0.22942683
47	0x3e306946	0.17227659
48	0x3d13ba82	0.03606654
49	0x3e931499	0.28726652
50	0xbe13f5c9	-0.14449228
51	0x3d12b497	0.035816755
52	0xbd7ac94f	-0.06122714
53	0xbe6b8414	-0.22999603
54	0xbe93c24c	-0.28859174
55	0x3e19f83c	0.150361
56	0x3e57787b	0.21042053
57	0x3e31be45	0.17357738
58	0xbe9a6736	-0.3015687
59	0x3e790096	0.2431663
60	0x3cafd3c1	0.021463277
61	0xbd944c22	-0.07241084
62	0x3dd2f779	0.10301108
63	0xbe52ba1c	-0.20578808
64	0xbd4431ab	-0.04789893
65	0x3e842fad	0.25817624
66	0x3e4debfe	0.20109555
67	0xbe7f8bf9	-0.24955739
68	0xbe3b6f74	-0.18304235
69	0x3e45ef51	0.19329573
70	0xbdd518c7	-0.104051165
71	0x3e2217fa	0.15829459
72	0x3e1c536c	0.15266198
73	0xbdc9f151	-0.098604806
74	0x3e2a9d7a	0.16661635
75	0x3e44cf3d	0.1921968
76	0xbce407ba	-0.027835716
77	0x3e87e881	0.26544574
78	0xbca3d0bb	-0.019996991
79	0xbe348015	-0.17626984
80	0x3e484cc4	0.19560534
81	0x3e00d301	0.12580492
82	0xbc351980	-0.011053443
83	0x3e7b0f18	0.24517477
84	0x3e180214	0.14844543
85	0x3dc149f1	0.09437931
86	0x3d8d2770	0.06892288
87	0xbe00d254	-0.12580234
88	0xbc05013f	-0.008117973
89	0xbe280b05	-0.16410454
90	0xbe71949e	-0.23591849
91	0x3e0c62a0	0.13709497
92	0x3e9cdc8e	0.3063702
93	0xbea37364	-0.31923974
94	0x3db289ea	0.08717711
95	0xbe936874	-0.2879063
96	0x3e5c1868	0.21493685
97	0x3e0071a8	0.12543356
98	0x3d01ee78	0.031721562
99	0x3e310513	0.17287092
100	0xbdded6ae	-0.10880791
101	0xbe2730ff	-0.16327284
102	0x3df26a0e	0.118366346
103	0x3e802085	0.2502481
104	0xbdb57116	-0.0885946
105	0x3e6b576a	0.22982565
106	0x3e0decd4	0.13859874
107	0xbeaa431a	-0.3325432
108	0x3e5488aa	0.20755258
109	0x3e93f30f	0.28896376
110	0xbdd72d93	-0.105067395
111	0x3e7e1388	0.24812138
112	0x3e72859f	0.23683785
113	0x3e61b1d3	0.22040491
114	0x3d90b122	0.070650354
115	0xbe520bac	-0.20512265
116	0x3aebe106	0.0017996139
117	0x3ea525e8	0.32255483
118	0xbe8b5310	-0.2721181
119	0xbe72af4c	-0.23699683
120	0x3e916447	0.28396818
121	0xbcf9f5fc	-0.030512802
122	0xbcb51d5e	-0.02210873
123	0x3e246bc8	0.1605674
124	0x3a6ed739	0.000911105
125	0x3cd54879	0.026035534
126	0xbdf32ed5	-0.11874167
127	0xbdc595c9	-0.0964771
128	0x3e4ac970	0.19803405
129	0x3dbcd95a	0.09221144
130	0x3e8d2f19	0.27574995
131	0x3e1b2ecb	0.15154569
132	0xbe069ff7	-0.13146959
133	0x3e9b10e3	0.3028632
134	0xbe894cfc	-0.26816547
135	0xbe9bcdb8	-0.30430388
136	0xbd53e8e4	-0.051735774
137	0x3e5cd2dc	0.21564811
138	0xbea2697c	-0.31721103
139	0xbe874e4d	-0.26426926
140	0xbe9762fd	-0.2956771
141	0x3e9866d8	0.29765964
142	0x3e2d60a0	0.16931391
143	0xbdd0f12a	-0.102022484

bias f4 [16]
0	0x3eac43eb	0.33645567
1	0xbe23f9bb	-0.16013233
2	0x3e762edd	0.24041314
3	0x3d6869a8	0.056741387
4	0xbdddf012	-0.108368054
5	0x3ea51f73	0.32250556
6	0x3e078206	0.13233194
7	0x3e21771d	0.15768094
8	0xbe766a8a	-0.24064079
9	0xbda92ad1	-0.0826012
10	0xbdd4b1b4	-0.10385457
11	0x3e89167d	0.2677497
12	0xba60a05d	-0.0008568818
13	0x3c5bbcd1	0.013411717
14	0x3e1b918a	0.15192237
15	0x3e400cf8	0.18754947

weight f4 [16, 16, 3, 3]
0	0xbd6b9389	-0.057513747
1	0xbd258d18	-0.04041776
2	0x3cec5ed9	0.02885382
3	0xbd6ebffb	-0.058288556
4	0x3d9297b3	0.071578406
5	0x3c9da0cd	0.019241715
6	0x3d8c740a	0.0685807
7	0x3d3c4099	0.045960043
8	0xbb7b5170	-0.00383481
9	0x3d8cd6f5	0.06876937
10	0x3d483ed4	0.048888043
11	0x3d71a65e	0.05899655
12	0xbdaeb163	-0.085299276
13	0x3d33f204	0.043931976
14	0xbd90c04d	-0.070679285
15	0x3ce305f7	0.027712805
16	0xbd9e07a9	-0.07716305
17	0xbcbf55c7	-0.023356332
18	0xbcd48eec	-0.025947057
19	0x3cd6a2ee	0.026200738
20	0xbdbce103	-0.09222605
21	0x3d986419	0.07440967
22	0xbb638544	-0.0034716884
23	0xbdb95879	-0.09050078
24	0xbdba026b	-0.090824924
25	0x3beef936	0.007292892
26	0xbdb7d28f	-0.08975708
27	0x3d933317	0.07187479
28	0xbd663605	-0.05620386
29	0x3d82ec9b	0.06392785
30	0xbc5937b6	-0.013257911
31	0xbdb96ba1	-0.09053732
32	0x3c96d366	0.01841135
33	0x3a98b742	0.0011651295
34	0xbdb6db30	-0.089285254
35	0xbd1e4116	-0.03863629
36	0xbd305bcf	-0.043056305
37	0x3d3d55cf	0.04622441
38	0x3d848f40	0.06472635
39	0xbc129d27	-0.008948601
40	0x3d89b4c9	0.06723935
41	0x3cbfcc04	0.023412712
42	0x3d0dab31	0.03458709
43	0x3d6a79eb	0.057245176
44	0xbc39b5bb	-0.011334832
45	0x3d90b28d	0.07065306
46	0xbd661b45	-0.05617835
47	0x3d809833	0.0627903
48	0x3d93e8f4	0.07222167
49	0xbcc073cb	-0.023492714
50	0xbc5852f4	-0.013203371
51	0x3b1a9e50	0.0023592897
52	0xbdaf38eb	-0.08555778
53	0xbc5ba876	-0.013406863
54	0xbd9e91c4	-0.07742646
55	0xbd11da9e	-0.03560888
56	0x3c9a40ea	0.018829782
57	0x3d003ee8	0.031309992
58	0xbdbafa3d	-0.091297604
59	0x3c2fc91c	0.010729101
60	0xbd9f5686	-0.07780175
61	0xbda21ea3	-0.07916
62	0x3cf75631	0.030192466
63	0x3c38a13c	0.01126891
64	0xbd3e5db3	-0.046476077
65	0x3d51ab96	0.051189028
66	0xbbfd167f	-0.007723629
67	0x3d8029f0	0.06257999
68	0xbc1f87d0	-0.00973697
69	0xbda8c54e	-0.08240758
70	0xbd4a3aa5	-0.049372334
71	0x3d8e31ab	0.06943067
72	0xb9ed659d	-0.0004527987
73	0x3d3a38f1	0.04546446
74	0xbc5136a6	-0.012769377
75	0x3d85d37b	0.06534477
76	0x3c554298	0.0130163655
77	0xbabd30f3	-0.0014434144
78	0xbc19c64a	-0.009385655
79	0xbda7e276	-0.08197491
80	0x3d762290	0.060091555
81	0x3d460cbc	0.04835199
82	0x3d6dba54	0.058039024
83	0xbd91b857	-0.07115238
84	0xbcfc5de0	-0.030806482
85	0xbd5f1c60	-0.05447042
86	0xbc61f751	-0.013791875
87	0xbd8d0b5a	-0.06886931
88	0x3d3a4698	0.04547748
89	0xbc345f2b	-0.011009018
90	0x3d895e56	0.06707446
91	0x3d13cec3	0.036085855
92	0xbc326c80	-0.010890126
93	0x3d82dd20	0.063898325
94	0x3cefaa0e	0.029255893
95	0xbaf419cd	-0.0018623412
96	0xba410bc5	-0.00073641195
97	0xbda60ed2	-0.081082955
98	0x3c7f30d8	0.01557561
99	0xbd707828	-0.05870834
100	0x3d7e673a	0.062110163
101	0xbc9f95aa	-0.019480545
102	0xbcbe03b4	-0.023195125
103	0xbbc43955	-0.00598828
104	0xbd927762	-0.07151677
105	0x3d4fd117	0.050736513
106	0xbda4d57e	-0.08048533
107	0x3d0a8deb	0.03382675
108	0xbd758be6	-0.05994787
109	0xbd9259f2	-0.07146062
110	0x3d889b81	0.06670285
111	0x3d83edea	0.06441863
112	0xbd78fe16	-0.06078919
113	0xbdbd86ee	-0.092542514
114	0xbd3ccd49	-0.046094213
115	0xbd568efd	-0.052382458
116	0xbd741f8c	-0.059600398
117	0x3c7ee12b	0.015556614
118	0xbd7aec53	-0.061260533
119	0xbd78de69	-0.06075898
120	0x3d7cb10a	0.061692275
121	0x3cca27fe	0.024677273
122	0x3bb28d96	0.0054490073
123	0x3d72e9a6	0.059304856
124	0xbd83464b	-0.06409892
125	0x3d7298fb	0.059227925
126	0xbda544d3	-0.08069768
127	0xbd81b069	-0.06332476
128	0xbc317046	-0.010829991
129	0xbd1452af	-0.036211666
130	0x3d868135	0.06567613
131	0xbcf70d8d	-0.030157829
132	0x3c0265f0	0.007958874
133	0x3bf4e2e9	0.007473339
134	0x3ce4289a	0.027851392
135	0xbd4e495a	-0.050362922
136	0xbd43f987	-0.04784539
137	0xbb8d97e5	-0.0043210858
138	0x3d8cacb1	0.06868876
139	0xbc4342e1	-0.011917801
140	0xbd80c923	-0.06288364
141	0x3d8fc6dd	0.07020352
142	0x3cd74209	0.026276605
143	0x3d6f1418	0.058368772
144	0x3d95d7dc	0.073165625
145	0x3cc54128	0.02407892
146	0xbd650fe6	-0.055923365
147	0xbceebba4	-0.029142208
148	0x3dad3eab	0.084592186
149	0x3d86ca1c	0.06581518
150	0x3d9256f6	0.07145493
151	0xbd1a9c39	-0.03774664
152	0x3d888ad1	0.06667102
153	0xbd0582ee	-0.032595567
154	0xbd301e70	-0.042997777
155	0x3cd417d7	0.025890274
156	0xbd92470e	-0.07142459
157	0x3c0dc447	0.008652753
158	0x3c3afe36	0.011413148
159	0x3d2fe770	0.042945325
160	0x3d699fb2	0.057037063
161	0xbd63325a	-0.05546794
162	0xbbc8bf61	-0.00612633
163	0xbb4407aa	-0.0029911795
164	0xbc2a8bcb	-0.010409306
165	0xbd026c9f	-0.03184187
166	0xbd8e7a71	-0.069569476
167	0xbd4c5d1a	-0.049893476
168	0xbcdf674c	-0.027270935
169	0x3da69c76	0.08135311
170	0xbd04cb63	-0.032420527
171	0x3d81588f	0.06315719
172	0x3cbda6d7	0.023150844
173	0x3c3b2f1a	0.011424804
174	0xbd35bc7b	-0.044369202
175	0x3d646691	0.055761877
176	0x3c8e0d3e	0.017340299
177	0xbd8734ac	-0.06601843
178	0xbd680c3f	-0.056652304
179	0xbd3b1426	-0.045673512
180	0xbd5587e5	-0.052131552
181	0x3d1a1494	0.03761728
182	0x3c617c99	0.013762617
183	0x3cf48f89	0.0298536
184	0x3d8d714d	0.06906376
185	0xbd528cfb	-0.05140398
186	0x3da79846	0.08183341
187	0xbd6c846c	-0.057743475
188	0xbcdc61b1	-0.026902052
189	0xbd921464	-0.071327955
190	0x3db6a2ed	0.089177944
191	0x3ca321dc	0.019913606
192	0xbcf9f436	-0.030511957
193	0xbc96ef0a	-0.01842453
194	0x3c30de4f	0.01079519
195	0xbca82e6a	-0.020529944
196	0x3cc78432	0.024355028
197	0xbd2e5d40	-0.0425694
198	0x3d0089a3	0.03138126
199	0xbc0fee08	-0.008784778
200	0xbd96d891	-0.073655255
201	0x3c17f0b3	0.009273696
202	0x3d6fba1f	0.05852711
203	0xbd51959d	-0.051168073
204	0x3d0d7e28	0.03454414
205	0xbd9bed08	-0.076135695
206	0xbc9b5d87	-0.018965496
207	0x3cf1f6c1	0.029536607
208	0x3d444fef	0.047927793
209	0xbd54fd15	-0.05199917
210	0x3d0d2c80	0.034466267
211	0x3db0766c	0.08616337
212	0x3cc9e793	0.024646556
213	0xbd04e215	-0.03244217
214	0x3d2ec86f	0.042671617
215	0xbd8077a5	-0.062728204
216	0xbd830576	-0.06397526
217	0xbc854319	-0.016267346
218	0xbd2a74eb	-0.041615408
219	0xbcbd0e37	-0.023078067
220	0x3db83838	0.08995098
221	0xbd1706f3	-0.03687186
222	0xbd01451e	-0.031560056
223	0xbc1760d3	-0.009239393
224	0x3daf4fda	0.08560152
225	0xbd89b676	-0.06724255
226	0x3d461ade	0.048365466
227	0xbd881cea	-0.0664614
228	0xbd1d4e24	-0.0384046
229	0xbd225ac3	-0.03963734
230	0x3da5b4d3	0.0809113
231	0x3d91558f	0.07096397
232	0x3ca17fc5	0.019714246
233	0x3b6b1cbf	0.0035875288
234	0x3d6c5c5a	0.05770526
235	0xbd9c9e45	-0.07647375
236	0x3a4459b8	0.0007490176
237	0x3d644a12	0.0557347
238	0xbc89f665	-0.016841123
239	0x3d106cc5	0.03525998
240	0x3d3ee9dc	0.046609744
241	0x3d7b20a8	0.06131044
242	0xbd1e963e	-0.0387175
243	0x3d08def7	0.03341576
244	0x3d6fd85c	0.058555946
245	0x3c41677f	0.011804461
246	0x3d7e8d1a	0.062146284
247	0x3d28023a	0.04101775
248	0xbd8cd574	-0.068766505
249	0xbd835d0c	-0.06414232
250	0xbd88fb0e	-0.0668851
251	0xbd0e0052	-0.034668274
252	0xbcb1aea3	-0.021689719
253	0xbd3d8428	-0.046268612
254	0x3c6715f6	0.014104357
255	0xbcd5cc54	-0.026098408

bias f4 [16]
0	0x3d8cdbbb	0.06877848
1	0xbcdfc5a0	-0.027315915
2	0xbd3c81bb	-0.046022158
3	0x3cb2d645	0.021830687
4	0x3dab5c11	0.0836717
5	0xbd7b6810	-0.06137854
6	0x3d9697a7	0.07353144
7	0x3c011357	0.007878146
8	0xbdb414ac	-0.08793005
9	0xbd0decd5	-0.03464969
10	0x3d6c198a	0.057641543
11	0xbcc830b9	-0.024437295
12	0x3d657b1c	0.05602561
13	0xbb8639d6	-0.00409625
14	0xbd99be3d	-0.07506988
15	0x3db851cb	0.08999976

weight f4 [32, 16, 3, 3]
0	0xbd9b5a27	-0.075855546
1	0xbb153aa0	-0.002277054
2	0x3d34121e	0.04396259
3	0x3d4e8422	0.05041898
4	0xbd10a163	-0.03531016
5	0xbd723c3b	-0.05913947
6	0x3d3a69b6	0.04551097
7	0x3cfaa020	0.030593932
8	0xbd25a680	-0.04044199
9	0x3d147dca	0.036252774
10	0xbd4a5673	-0.04939885
11	0xbd9316a6	-0.07182054
12	0x3d85d141	0.06534053
13	0x3bf90730	0.007599734
14	0x3d6c9552	0.05775959
15	0x3da9fe4d	0.08300457
16	0xbc321ba8	-0.010870852
17	0xbd9c940a	-0.07645424
18	0xbd68d490	-0.05684334
19	0xbc5539c0	-0.013014257
20	0xbd4bb8f0	-0.049736917
21	0xbcaba8f0	-0.02095458
22	0xbda5907a	-0.08084197
23	0xbb1cf120	-0.0023947433
24	0x3cd22610	0.025652915
25	0x3cb3fbb4	0.021970607
26	0x3cbc5e04	0.022994049
27	0xbd974988	-0.07387072
28	0x3d307302	0.04307843
29	0xbd3aa79b	-0.045569997
30	0x3a505200	0.0007946789
31	0x3d86d655	0.06583849
32	0xbd81909a	-0.06326409
33	0x3cacd9e4	0.021099992
34	0x3d7d888e	0.061897807
35	0xbd10b12b	-0.03532521
36	0xbd292ebb	-0.04130433
37	0xbc557f00	-0.013030767
38	0x3d8ffd85	0.07030777
39	0x3b978200	0.0046236515
40	0x3d59143a	0.052997805
41	0xbd08aeb3	-0.03336973
42	0xbd997e84	-0.07494834
43	0x3da26ff3	0.07931509
44	0xbc835580	-0.01603198
45	0xbd4007b3	-0.046882343
46	0x3d979cd1	0.07402957
47	0xbd918866	-0.07106094
48	0x3d5158c6	0.05111005
49	0xbc866984	-0.016407736
50	0xbb74efa0	-0.0037374273
51	0xbc945620	-0.018107474
52	0x3d80ced5	0.0628945
53	0x3d2679e2	0.04064358
54	0xbd7dcd66	-0.06196346
55	0xbd25f560	-0.04051721
56	0xbcfdd560	-0.030985534
57	0xbd2e6d8e	-0.04258495
58	0x3d9ed481	0.07755376
59	0xbda04eca	-0.07827528
60	0x3c98b510	0.018641025
61	0x3d516c42	0.051128633
62	0x3d649dba	0.055814482
63	0xbd543066	-0.05180397
64	0xbcf8653c	-0.03032171
65	0xbb8e4690	-0.004341908
66	0x3da5e54f	0.08100378
67	0x3cd824d4	0.026384749
68	0x3c0d54f8	0.008626215
69	0x3d11c996	0.035592638
70	0xbd0a87ab	-0.03382079
71	0xbd0bb8de	-0.03411185
72	0xbaaff640	-0.0013424829
73	0xbd1142fb	-0.03546427
74	0x3d72a4fa	0.059239365
75	0xbc7b4fc0	-0.015338838
76	0x3c6582a8	0.014008202
77	0xbda82b8c	-0.08211431
78	0xbda1aea4	-0.07894638
79	0xbd834ca4	-0.064111024
80	0x3da4e32d	0.08051143
81	0xbd201eb6	-0.03909179
82	0x3cd73c90	0.026273996
83	0x3da762f3	0.0817317
84	0x3d75a0ca	0.059967794
85	0x3b901970	0.0043975636
86	0xbd9b28b3	-0.07576122
87	0x3cfc81ac	0.030823551
88	0x3d95bb77	0.07311147
89	0x3d997501	0.0749302
90	0x3c170368	0.009217121
91	0xbd920b13	-0.071310185
92	0xbda261a0	-0.07928777
93	0x3d521fea	0.051299967
94	0x3d212e40	0.039350748
95	0xbbf777d0	-0.0075521246
96	0x3b09e0a0	0.0021038428
97	0xbd2727d0	-0.040809453
98	0xbb211ea0	-0.0024584904
99	0x3c007960	0.007841438
100	0xbd153116	-0.036423765
101	0xbc90845c	-0.017641239
102	0x3d35883e	0.044319384
103	0x3d6b5eae	0.05746334
104	0x3d10b6b0	0.035330474
105	0x3d1a2b62	0.03763903
106	0xbca3d1cc	-0.0199975
107	0x3c97f36c	0.01854869
108	0xbdaa8260	-0.08325648
109	0x3d1583e2	0.036502726
110	0xbd020503	-0.03174306
111	0x3ce7abc4	0.028280146
112	0xbb3ddd60	-0.002897106
113	0xbd4d0858	-0.050056785
114	0xbd2a04b6	-0.0415084
115	0x3d93138d	0.071814634
116	0x3bd7cdd0	0.006585814
117	0xbd6d798e	-0.05797725
118	0xbd93cd6a	-0.07216914
119	0x3c86f574	0.016474463
120	0x3d46d3e2	0.04854191
121	0xbd84277a	-0.06452842
122	0x3da5662f	0.080761306
123	0x3bf6af00	0.007528186
124	0xbd8cdc18	-0.06877917
125	0xbcaf63ac	-0.021409832
126	0xb9f34f00	-0.0004640743
127	0x3d863695	0.065533794
128	0x3d8d3ba1	0.06896139
129	0x3d8d7275	0.069065966
130	0x3c914f90	0.017738134
131	0x3d33efaa	0.043929733
132	0xbd4f1b0b	-0.0505629
133	0xbcf8dc56	-0.030378502
134	0xbd1c6803	-0.03818513
135	0x3d1628b6	0.03665992
136	0xbd2d621e	-0.0423299
137	0x3b96d2d0	0.0046027675
138	0xbd49c7b0	-0.049262702
139	0xbd7fa1ab	-0.062410038
140	0xbda2b3a3	-0.07944419
141	0xbb212860	-0.0024590716
142	0x3c2aafa8	0.010417856
143	0xbd4cd900	-0.050011635
144	0xbda28f4a	-0.079374865
145	0x3d1ee715	0.038794596
146	0x3cdf6003	0.027267462
147	0x3d2d66de	0.04233443
148	0xbd9be525	-0.07612065
149	0xbbd58b08	-0.006516818
150	0x3d4945ec	0.04913895
151	0x3dada634	0.08478966
152	0xbb833680	-0.0040042996
153	0xbda28f76	-0.07937519
154	0xbd152798	-0.036414713
155	0x3d68d101	0.056839947
156	0x3d10639c	0.035251245
157	0x3c44f7b9	0.012021952
158	0x3cefb4e8	0.029261068
159	0x3d6d7086	0.05796864
160	0x3d77004b	0.060303014
161	0xbd97269b	-0.0738041
162	0x3d9098a4	0.07060364
163	0xbd0f2feb	-0.034957808
164	0x3d267550	0.04063922
165	0xbd948155	-0.072512306
166	0x3d675c54	0.056484535
167	0xbca6e186	-0.02037121
168	0xbd1d8517	-0.038457002
169	0xbc803dbc	-0.015654437
170	0xbd421c8a	-0.0473905
171	0x3d310d80	0.043225765
172	0x3b205252	0.002446313
173	0x3da190af	0.07888924
174	0xbd14bb50	-0.036311448
175	0xbcc5267f	-0.024066208
176	0x3c1fd179	0.009754532
177	0x3d9863c9	0.074409075
178	0xbd99a073	-0.075013064
179	0xbcda5161	-0.026650133
180	0x3cced32b	0.025247177
181	0xbc95d358	-0.018289253
182	0x3cc21343	0.023690825
183	0xbd34bccf	-0.044125374
184	0xbd85f639	-0.06541104
185	0x3d904fe9	0.07046492
186	0x3da0c728	0.07850486
187	0xbcb23cb4	-0.021757461
188	0x3ced9f09	0.029006498
189	0xbda8801f	-0.08227562
190	0xbb2b9614	-0.0026181983
191	0x3cf8998c	0.030346654
192	0x3d902e0d	0.070400335
193	0x3d39a7b0	0.045325935
194	0xbda538aa	-0.080674484
195	0x3ce38b84	0.027776487
196	0xbdb082b8	-0.086186826
197	0x3d91f2f2	0.07126416
198	0x3d2fbd9d	0.04290544
199	0xbd92e996	-0.07173459
200	0xbc3d1ed4	-0.0115429945
201	0xbd9d501d	-0.07681296
202	0x3c4ca2ba	0.012489969
203	0x3cee31a1	0.0290764
204	0xbd724c2f	-0.059154686
205	0xbd28466e	-0.041082792
206	0x3cf81a40	0.030285954
207	0xbd944027	-0.072387986
208	0xbd7a9afa	-0.061182953
209	0x3cf69296	0.030099194
210	0xbd49df08	-0.049284965
211	0x3d7911e0	0.060808063
212	0x3d86f598	0.06589812
213	0xbc82fcd3	-0.015989697
214	0x3cb2ca4c	0.021824978
215	0xbc941b5e	-0.018079456
216	0x3d19ca14	0.037546232
217	0x3ab1fcaa	0.0013579328
218	0x3c523519	0.012830042
219	0xbb8c9cc7	-0.0042911503
220	0xbc40e0d5	-0.011772354
221	0xbd6b385b	-0.05742679
222	0x3d9e29c4	0.0772281
223	0xbce3ecb5	-0.027822832
224	0xbced5f10	-0.028975993
225	0xbda4245a	-0.08014746
226	0xbcd017a8	-0.025401905
227	0x3c2386fe	0.009980915
228	0x3d351927	0.04421344
229	0x3d541158	0.051774353
230	0xbb470188	-0.0030365903
231	0x3d377a9e	0.04479467
232	0xbd4af63a	-0.049551226
233	0xbd80e620	-0.06293893
234	0x3d20ad6a	0.03922788
235	0xbc3c5fac	-0.011497419
236	0x3d4ca4e3	0.049961936
237	0xbd37cea4	-0.044874802
238	0x3b10ab7d	0.0022074871
239	0xbd97eea0	-0.07418561
240	0x3d8d181c	0.06889364
241	0x3bfa8727	0.007645506
242	0x3d132332	0.035922237
243	0x3bbf4627	0.0058372202
244	0xbc5aadd8	-0.013347112
245	0x3d3a8d61	0.045544986
246	0x3d2d91ce	0.04237538
247	0xbc9fdae1	-0.01951355
248	0x3d8afe9b	0.067868434
249	0x3c822189	0.015885131
250	0xbd9cc8bb	-0.07655474
251	0x3d4bffef	0.049804624
252	0xbd52e575	-0.05148836
253	0xbd15d722	-0.03658212
254	0xbd85c1f0	-0.06531131
255	0x3c85cf2d	0.01633414

bias f4 [32]
0	0xbd76bd1e	-0.06023895
1	0xbc460d04	-0.012088064
2	0x3cf7bcc9	0.030241387
3	0xbd2f3dae	-0.04278343
4	0x3c9c4ba3	0.019079035
5	0xbb5c8492	-0.0033648354
6	0xbd253c1d	-0.04034053
7	0xbd50bb37	-0.050959792
8	0x3c9aefce	0.018913176
9	0x3d37791f	0.044793244
10	0xbcbb38a4	-0.022854157
11	0xbca13ec4	-0.01968325
12	0x3da076bd	0.078351475
13	0x3c83a968	0.01607199
14	0x3d798f7d	0.060927857
15	0x3d892e4d	0.06698284
16	0xbd87487b	-0.066056214
17	0xbcc45e9c	-0.023970895
18	0x3d8c9753	0.068648
19	0x3b8a1d85	0.004214945
20	0xbcee6eaf	-0.029105512
21	0x3c81f42b	0.015863499
22	0xbd37ed9e	-0.044904344
23	0x3d84c5ec	0.06483063
24	0xbd7bc5b4	-0.06146784
25	0x3d31fab0	0.043451965
26	0xbd97cd5e	-0.074122176
27	0x3ca91d82	0.020643953
28	0xbd9a8216	-0.07544343
29	0xbd0592cd	-0.032610703
30	0xbb835285	-0.00400764
31	0x3d15b97c	0.036553845

weight f4 [32, 32, 3, 3]
0	0xbd2b901c	-0.04188548
1	0xbd4e0f12	-0.05030734
2	0x3cadf5f2	0.02123544
3	0x3ab502a0	0.0013809986
4	0xbcf22329	-0.029557781
5	0x3b47b430	0.003047239
6	0x3bb59598	0.0055415146
7	0x3d124c83	0.0357175
8	0x3c72f564	0.0148290135
9	0xbc0ee5e3	-0.008721801
10	0xbc9afb32	-0.018918607
11	0xbc8536fe	-0.016261574
12	0x3ca3792b	0.019955238
13	0x3caf1557	0.02137248
14	0xbc59724a	-0.013271878
15	0xbd478306	-0.048708938
16	0xbb5e08fa	-0.0033879862
17	0xbc90d9f9	-0.017682062
18	0x3c17d3d4	0.009266812
19	0x3d148960	0.036263824
20	0xbd1ec1e8	-0.038759142
21	0x3d2e78cf	0.04259568
22	0xbcbdb9b8	-0.023159847
23	0xbcf62524	-0.030047007
24	0x3cff2e31	0.031149955
25	0xbceac6aa	-0.028659184
26	0xbd5b7865	-0.053581614
27	0xba0f3666	-0.0005463123
28	0x3cf98471	0.03045866
29	0xbd2011db	-0.03907953
30	0x3c99022a	0.01867779
31	0xbb8e9a69	-0.004351903
32	0x3c41a501	0.011819125
33	0xbc8993ac	-0.016794048
34	0xbd1488c5	-0.036263246
35	0x3d28e601	0.041234974
36	0x3d437d8a	0.047727145
37	0x3cefeb4f	0.029287009
38	0xbc7d7d85	-0.015471821
39	0xbb584139	-0.003299786
40	0xbc921a31	-0.017834755
41	0x3c010bfd	0.007876393
42	0x3caf07ba	0.021365989
43	0x3beda715	0.0072525837
44	0xbcd9eac8	-0.02660121
45	0xbc20e271	-0.009819613
46	0xba85eae4	-0.0010217098
47	0xbc836fc5	-0.016044507
48	0x3c7dfbd7	0.015501938
49	0x3d40d046	0.047073625
50	0xbd2390a6	-0.03993287
51	0x3cf9c6b9	0.030490266
52	0xbbd22ae9	-0.0064138067
53	0xbd083399	-0.033252332
54	0x3d69f5a0	0.057119012
55	0x3cf439dd	0.029812748
56	0xbb1a8bbc	-0.0023581823
57	0x3c736a54	0.014856894
58	0x3d297d3e	0.041379206
59	0xbc8df5bc	-0.01732909
60	0xbc6ac419	-0.01432898
61	0xbd28d43c	-0.041218027
62	0x3cba7d58	0.022764847
63	0x3d543367	0.051806834
64	0x3cd21454	0.025644459
65	0xbd72bc1f	-0.059261438
66	0xbd66f6c7	-0.05638769
67	0xbca6c7a9	-0.020358877
68	0xbcdf703a	-0.027275193
69	0xbd12e43f	-0.035862204
70	0xbd4db9c3	-0.050225984
71	0x3d275980	0.04085684
72	0x3d171bd8	0.03689179
73	0xbc762177	-0.015022627
74	0xba99e1aa	-0.0011740227
75	0x3d4de6b5	0.050268847
76	0xbb934f3b	-0.004495529
77	0x3d32e3c4	0.043674245
78	0x3c38d460	0.011281103
79	0xbd6219a4	-0.055200234
80	0xbd4e1530	-0.050313175
81	0x3d67aa34	0.056558803
82	0xbb0da0ef	-0.0021610816
83	0xbc9825ff	-0.018572805
84	0xbd5ede9e	-0.054411523
85	0xbd4ad5f4	-0.049520448
86	0xbbe59786	-0.0070065884
87	0xbd6fba9d	-0.058527578
88	0x3c3e544f	0.01161678
89	0xbcf2736d	-0.029596055
90	0xbd51076c	-0.05103247
91	0xbcff96c2	-0.031199817
92	0xbd3a02f8	-0.045412987
93	0x3ca97ce2	0.020689432
94	0x3d52461f	0.051336404
95	0x3cfb4d3a	0.030676473
96	0xbd633952	-0.055474587
97	0x3d22eff5	0.039779622
98	0xbd18f315	-0.037341196
99	0xbd422fd2	-0.047408886
100	0xbccf6c83	-0.025320297
101	0xbd0d818b	-0.03454737
102	0x3ce1cb30	0.027562708
103	0xbb921f74	-0.004459316
104	0x3bb526d9	0.0055283126
105	0xbd2e6afa	-0.04258249
106	0xbd32c7a4	-0.043647423
107	0xbd5f75ff	-0.05455589
108	0x3c302c59	0.010752761
109	0x3cb47025	0.02202613
110	0x3d29c51c	0.041447744
111	0xbd14bfae	-0.036315612
112	0xbbe048e5	-0.006844627
113	0xbd38abe6	-0.04508581
114	0xbc7a611d	-0.015281943
115	0xbc9cddbc	-0.0191487
116	0x3c9912f3	0.018685794
117	0xbd22852f	-0.039677795
118	0xbd5381f6	-0.051637612
119	0x3d681ae1	0.05666626
120	0x3cce4df9	0.025183665
121	0xbc1c5a39	-0.009542995
122	0x3cf825c5	0.030291447
123	0xbd20dec4	-0.039274946
124	0xbd564fdc	-0.052322254
125	0x3c876dad	0.01653179
126	0xbc69dbf3	-0.014273631
127	0xbd72d89c	-0.059288606
128	0x3d15f4a9	0.03661028
129	0x3c37bf2e	0.011215014
130	0x3c8d85fd	0.017275805
131	0x3b69d374	0.0035679014
132	0xbd67d663	-0.05660094
133	0xbd56829b	-0.05237065
134	0x3cb7e236	0.022446733
135	0x3c69864e	0.014253212
136	0x3d0adc11	0.033901278
137	0x3d40f983	0.047112953
138	0xbca81903	-0.020519739
139	0xbd319a16	-0.04335984
140	0xbbc35f91	-0.00596232
141	0xbd61ef08	-0.0551596
142	0xbd31788b	-0.04332785
143	0x3cd6c1ed	0.026215518
144	0xbcef47f4	-0.029209115
145	0x3cc0b7fe	0.023525234
146	0x3c71792c	0.014738362
147	0xbca148b0	-0.01968798
148	0xbb9af480	-0.0047288537
149	0x3d04c4eb	0.032414358
150	0xbcca7364	-0.024713226
151	0xbc419acc	-0.011816692
152	0x3d3e1427	0.046405938
153	0xbaffc1c2	-0.00195127
154	0xbcb88bf6	-0.022527676
155	0xbd283efb	-0.041075688
156	0x3d49b177	0.04924151
157	0x3c8e0283	0.017335182
158	0x3b638d2f	0.0034721603
159	0x3cba3510	0.02273038
160	0xbabc51eb	-0.0014367675
161	0xbd34e973	-0.044167947
162	0xbd3ce595	-0.046117384
163	0x3be0a2d3	0.0068553477
164	0xbd46bb32	-0.048518367
165	0x3c43796d	0.011930806
166	0x3d50e1ef	0.050996717
167	0xbcd6d9e9	-0.026226955
168	0x3d67992c	0.05654256
169	0xbd3aff20	-0.045653462
170	0x3c6c5d74	0.014426578
171	0x3d7373cf	0.059436616
172	0x3ca09c34	0.019605733
173	0xbd150cb5	-0.03638907
174	0xbd09f3a9	-0.033679638
175	0xbcff4d8e	-0.03116491
176	0x3c8adcea	0.016951043
177	0xbcc9a947	-0.02461685
178	0x3d51d310	0.051226676
179	0xbd4a65b0	-0.049413383
180	0xbc90e79a	-0.017688561
181	0xbc61713d	-0.013759908
182	0x3d3aec78	0.04563567
183	0xbd31fc0e	-0.04345327
184	0x3c4975b7	0.012296132
185	0xbd1234d2	-0.035694905
186	0x3bc8f678	0.006132897
187	0xbd20080f	-0.039070185
188	0x3c909f17	0.017653985
189	0xbca65715	-0.020305196
190	0x3c3b4195	0.01142921
191	0xbd09763a	-0.033560015
192	0x3bbb3194	0.0057126973
193	0x3d2e5522	0.042561658
194	0x3cec4000	0.028839111
195	0xbd81c4ed	-0.06336389
196	0xbd3f561d	-0.046712983
197	0xbd1f7adb	-0.038935523
198	0x3caa03cb	0.020753762
199	0xbd208722	-0.039191373
200	0xbc8ba74f	-0.017047552
201	0x3cd9e9e7	0.026600791
202	0xbd0d08d6	-0.034432255
203	0x3cc01285	0.02344633
204	0xbd7d173f	-0.061789747
205	0x3ca8b5bb	0.020594468
206	0x3d580ece	0.052748494
207	0x3ca57dd8	0.020201609
208	0xbbd4f85e	-0.0064993342
209	0x3d108e5e	0.035292022
210	0xbc805b2a	-0.01566847
211	0xbcc8c89e	-0.024509724
212	0xbd26f3fd	-0.04076003
213	0xbd3ef52a	-0.046620525
214	0x3c0b8f62	0.008518072
215	0xbd6dff7a	-0.05810497
216	0x3ce2cf6b	0.027686795
217	0xbd56abb9	-0.05240986
218	0xbd6bfafd	-0.057612408
219	0xbd508e64	-0.050917044
220	0x3b682851	0.003542442
221	0xbcab95dd	-0.020945484
222	0xbc22c7b8	-0.009935312
223	0xbc7abad3	-0.015303331
224	0xbd3d573d	-0.046225775
225	0x3cc3e7ae	0.023914184
226	0x3d54e233	0.051973533
227	0xbc6c6e7b	-0.0144306375
228	0xbd3e8423	-0.046512734
229	0xbd3c7453	-0.046009373
230	0xbc732484	-0.014840249
231	0x3d5465e0	0.051854968
232	0xbca3776f	-0.019954411
233	0x3d37118e	0.044694476
234	0xbc431283	-0.011906269
235	0x3c690f50	0.014224842
236	0x3d0a6172	0.033784337
237	0x3bfbe99e	0.0076877614
238	0xbd8149d2	-0.06312908
239	0xbcd5db5b	-0.026105573
240	0x3cb23c56	0.021757286
241	0xbd02c0d6	-0.031922184
242	0x3bac9711	0.005267032
243	0x3cdb5796	0.026775163
244	0x3d0b6b2d	0.034037758
245	0x3c132d89	0.008983024
246	0xbd147f64	-0.0362543
247	0x3cbe8195	0.023255149
248	0xbd7fb0ac	-0.062424347
249	0x3d02a7c6	0.031898282
250	0xbcf16e29	-0.029471474
251	0x3bba4271	0.00568419
252	0xbcb51eb9	-0.022109376
253	0xbbc58646	-0.0060279695
254	0xbb56215e	-0.0032673697
255	0x3ca829bb	0.020527711

bias f4 [32]
0	0x396f2a66	0.00022808611
1	0xbca39a38	-0.019970998
2	0x3d3b46b7	0.045721736
3	0x3ca80732	0.020511243
4	0x3cee390d	0.029079938
5	0xbd7399ef	-0.059472974
6	0xbb5d50dd	-0.0033770122
7	0x3d3c23a6	0.045932434
8	0x3b5c0984	0.0033575008
9	0xbd1d992a	-0.038476147
10	0x3d790bc5	0.06080224
11	0xbc80c91a	-0.015720893
12	0x3c4f11f4	0.012638558
13	0xbd32f820	-0.04369366
14	0xbd6b8803	-0.057502758
15	0x3d6c4bac	0.057689354
16	0xbd189335	-0.037249763
17	0xbd05e10d	-0.03268533
18	0xbd7eaba2	-0.0621754
19	0xbc2785e9	-0.010224798
20	0x3caa9217	0.020821614
21	0xbce577fc	-0.028011315
22	0x3d17b751	0.03704006
23	0xbd12c8d2	-0.03583605
24	0x3d1304eb	0.035893362
25	0x3d3c1b9c	0.045924768
26	0x3c18f107	0.009334809
27	0x3d6f310f	0.058396395
28	0xbcd13174	-0.025536276
29	0x3d1b83e2	0.03796757
30	0x3d175897	0.03694972
31	0xbd4ab456	-0.049488388

weight f4 [64, 32, 3, 3]
0	0x3d17a556	0.03702291
1	0x3d123f78	0.03570506
2	0xbd2a8f2a	-0.04164044
3	0x3d25a71a	0.040442564
4	0xbc959c83	-0.018263107
5	0xbd3c867f	-0.046026703
6	0xbd02c136	-0.03192254
7	0x3ce3d995	0.027813712
8	0xbb437aa0	-0.002982773
9	0xbd6ae555	-0.057347614
10	0x3ceb07b5	0.028690198
11	0x3c935885	0.017986545
12	0x3d5af5e4	0.053457156
13	0xbcbf5db9	-0.02336012
14	0x3b80b6a4	0.0039280225
15	0xbc64f80f	-0.013975157
16	0x3d1bcb27	0.038035538
17	0xbd73dd10	-0.059536994
18	0xbd28fdcf	-0.041257676
19	0x3bfcffbf	0.007720917
20	0xbc867120	-0.016411364
21	0x3cb25279	0.021767842
22	0x3d0c3de8	0.034238726
23	0xbcaf323d	-0.02138626
24	0xbcfdaad0	-0.030965239
25	0xbba35b7e	-0.004985272
26	0xbc2fb417	-0.010724089
27	0x3bfdc7a6	0.007744747
28	0xbd77adb9	-0.06046841
29	0x3b247a65	0.0025097367
30	0xbd17aae0	-0.037028193
31	0xbd127fc3	-0.035766374
32	0xbc0486e9	-0.008088806
33	0xbc9156f4	-0.017741658
34	0xbcb1fa23	-0.02172572
35	0xbb0f1119	-0.002183026
36	0x3d3056de	0.043051593
37	0x3d316c2d	0.043316055
38	0xbc7183f6	-0.014740935
39	0xbd1f960d	-0.03896146
40	0x3d318b91	0.04334599
41	0x3ba60d23	0.005067484
42	0x3c17ae78	0.009257905
43	0x3d24df5e	0.040252082
44	0x3bf5c40a	0.0075001763
45	0x3c6059c1	0.013693274
46	0xbd317226	-0.04332175
47	0xbd190023	-0.037353646
48	0x3cf61d27	0.030043198
49	0x3d2f28a5	0.04276337
50	0xbcbecb07	-0.02329017
51	0xbc8a150b	-0.016855737
52	0xbd6827b7	-0.0566785
53	0x3d2e97a4	0.042625085
54	0xbcf50266	-0.02990837
55	0xbc5315e9	-0.012883642
56	0x3ade0ec2	0.0016941654
57	0xbb70ad08	-0.0036724228
58	0xbb287658	-0.0025705304
59	0x3d406768	0.046973616
60	0xbc958b33	-0.018254852
61	0x3d185d5e	0.037198417
62	0xbd4b713b	-0.049668532
63	0xbb2a321c	-0.002596981
64	0x3d3050bd	0.043045748
65	0xbc4a0032	-0.012329148
66	0x3b8de592	0.0043303454
67	0x3a95c293	0.0011425785
68	0x3d4866db	0.048926216
69	0xbc8d5aed	-0.01725527
70	0x3ce6bc81	0.028166058
71	0xbcc15a97	-0.023602767
72	0xbd0acb14	-0.033885077
73	0x3d0a1e80	0.033720493
74	0xbd84c34e	-0.06482564
75	0x3c431bd0	0.0119084865
76	0x3c77b682	0.015119197
77	0xbd4c0174	-0.049806073
78	0xbb84739f	-0.0040421034
79	0x3d0a37f6	0.033744775
80	0xbd46b517	-0.048512544
81	0x3d650739	0.05591509
82	0xbb8f8165	-0.0043794387
83	0xbb61bba0	-0.0034444109
84	0x3d2e5f18	0.042571157
85	0xbbf70374	-0.0075382534
86	0x3b758aba	0.003746672
87	0xbd1c240d	-0.03812032
88	0xbb26189b	-0.0025344256
89	0xbc8d1cc3	-0.017225629
90	0x3d56282b	0.0522844
91	0x3d5aa404	0.053379074
92	0x3c432b7b	0.011912222
93	0xbc8a0e0e	-0.016852405
94	0xbca4a324	-0.020097323
95	0x3d6f3752	0.058402367
96	0xbc1d30e7	-0.009594179
97	0xbcca1268	-0.02466698
98	0xbd1a93d5	-0.03773864
99	0x3c7c8243	0.015411916
100	0x3cf8649f	0.030321417
101	0xbd72dd0d	-0.05929284
102	0x3c7a5042	0.015277924
103	0x3cf32b95	0.029683867
104	0xbcc4b5eb	-0.024012526
105	0x3c88b3fb	0.016687384
106	0x3cfc8703	0.030826097
107	0x3d37b827	0.044853356
108	0xbd46b73a	-0.048514582
109	0xbd6af82c	-0.05736558
110	0x3d31956c	0.04335539
111	0xbd215c91	-0.03939492
112	0xbd371023	-0.044693124
113	0x3d48132b	0.048846405
114	0x3c83199e	0.016003426
115	0xbce896f4	-0.028392293
116	0xbd49af85	-0.049239654
117	0xbcdd34af	-0.02700266
118	0xbb830e3f	-0.003999501
119	0xbd2e5f42	-0.042571314
120	0xbd70ee5d	-0.05882107
121	0xbd617733	-0.055045318
122	0xbd275758	-0.040854782
123	0xbca9a2a1	-0.02070743
124	0x3cbd66af	0.023120252
125	0xbc84e986	-0.016224634
126	0x3d3d6010	0.04623419
127	0x3d5b4601	0.053533558
128	0xbd2cb6b4	-0.042166427
129	0x3c3595f7	0.011083118
130	0xbd095309	-0.033526454
131	0x3d35f527	0.04442325
132	0x3ca97dff	0.020689962
133	0x3d0e988d	0.034813453
134	0xbca6575f	-0.020305334
135	0xbd17ddce	-0.037076764
136	0x3d2877de	0.04112994
137	0x3bdccbb1	0.006738149
138	0xbd5fc9ac	-0.05463569
139	0x3d69954a	0.05702714
140	0x3d469114	0.0484782
141	0x3d0d0e3b	0.0344374
142	0x3c38205a	0.011238182
143	0xbcf7fe57	-0.030272646
144	0x3cebad63	0.0287692
145	0x3d19ffcc	0.037597463
146	0xbd23f6cc	-0.040030286
147	0xbc58f895	-0.01324286
148	0xbd00408c	-0.031311557
149	0x3c6a59d8	0.014303647
150	0x3ba4ffe0	0.0050353855
151	0x3c8d9927	0.017284943
152	0xbd198671	-0.03748173
153	0x3c0cb578	0.008588187
154	0xbd55f576	-0.052236043
155	0xbc45ebb3	-0.012080121
156	0xb9ee75a2	-0.0004548254
157	0x3c3b8153	0.0114444075
158	0xbc87fd67	-0.016600324
159	0xb9bbfb9f	-0.00035854892
160	0xbcf8c8ed	-0.030369246
161	0x3d09c546	0.0336354
162	0x3cc23242	0.023705605
163	0x3b9872f8	0.004652377
164	0x3d55bea5	0.052183766
165	0xbc469120	-0.012119561
166	0x3d2169f2	0.039407678
167	0xbd547eb2	-0.05187864
168	0x3d409c86	0.047024272
169	0xbcbf4d5f	-0.023352323
170	0x3cbf2cb3	0.023336744
171	0xbd6a5dca	-0.05721835
172	0x3ccf15d6	0.025278967
173	0x3c82f6cc	0.015986823
174	0x3d1717de	0.036887996
175	0xbc11b184	-0.008892421
176	0x3d2869b2	0.041116424
177	0xbd5dd98f	-0.05416256
178	0x3d3ef459	0.046619747
179	0xbd1ee92d	-0.038796593
180	0xbd36de73	-0.044645738
181	0xbcbaa0ed	-0.022781814
182	0x3d4b6234	0.0496542
183	0x3cdbedf0	0.026846856
184	0x3d2eee52	0.04270775
185	0xbc7a1384	-0.015263442
186	0x3d628465	0.055302043
187	0xbd62ac69	-0.055340204
188	0xbb9567ce	-0.0045594936
189	0x3c7cea48	0.015436716
190	0xbd7b07f7	-0.061286893
191	0x3d258330	0.040408313
192	0xbd3bb7ea	-0.04582969
193	0x3d30a404	0.043125167
194	0x3d5a1408	0.05324176
195	0x3d17c82a	0.037056126
196	0x3d0204d2	0.03174288
197	0x3d0a3fcf	0.03375226
198	0x3b5d610b	0.0033779766
199	0xbc41c25a	-0.011826122
200	0xbc2b94cd	-0.010472489
201	0xbcf9664f	-0.030444292
202	0xbc37f64f	-0.011228158
203	0xbce5e549	-0.028063433
204	0x3c68c85e	0.0142079275
205	0xbcb6caa4	-0.022313423
206	0x3d232225	0.039827485
207	0x3c828a1e	0.015935
208	0x3d161faa	0.03665129
209	0xbd5d60f7	-0.05404755
210	0x3cf3f905	0.029781828
211	0x3c90f5e3	0.017695373
212	0xbd6c3b83	-0.057673942
213	0xbc980abe	-0.01855981
214	0x3b012f04	0.0019711861
215	0xbd45ce5e	-0.04829251
216	0xbd2aef8f	-0.041732367
217	0x3d1dd9d0	0.0385378
218	0xbd37c295	-0.044863302
219	0x3d463d5e	0.048398368
220	0x3d31a361	0.0433687
221	0x3d69f624	0.057119504
222	0x3d476374	0.04867883
223	0xbd54599d	-0.051843274
224	0xbc53b6a0	-0.012921959
225	0x3d61d094	0.055130556
226	0xbcd6ccc9	-0.026220696
227	0x3bb9fa7d	0.0056756125
228	0xbd4b39c4	-0.049615636
229	0x3c80f196	0.015740197
230	0xbd5e5418	-0.054279417
231	0xbd046dab	-0.03233115
232	0xbc2075a3	-0.009793672
233	0x3bade6bb	0.005307046
234	0x3d46e388	0.048556834
235	0x3c886a82	0.01665235
236	0x3cc9e2af	0.024644224
237	0x3c856c27	0.016286923
238	0xbc4cba20	-0.0124955475
239	0x3d0758e2	0.03304375
240	0xbc28999f	-0.010290532
241	0x3d33088c	0.043709323
242	0x3bd55f3b	0.0065115965
243	0x3c882ebf	0.016623853
244	0x3d0b5a55	0.034021694
245	0xbd0ee21e	-0.03488361
246	0xbd456811	-0.04819495
247	0xbc38f535	-0.011288931
248	0xbcf4c2b3	-0.029877996
249	0x3d2ff2ec	0.042956278
250	0xbc67ad96	-0.014140507
251	0x3d66cfe1	0.056350593
252	0xbd111664	-0.035421744
253	0x3c7eda19	0.015554928
254	0xbc75b1e7	-0.0149960285
255	0xbc877acd	-0.016538048

bias f4 [64]
0	0x3d156449	0.036472593
1	0xbd286fde	-0.04112231
2	0x3d85d559	0.065348335
3	0xbcdebe23	-0.027190274
4	0x3b379d0e	0.0028017196
5	0xbb1c8f56	-0.0023889146
6	0x3ce7a121	0.028275074
7	0xbd42718a	-0.04747156
8	0x3d19c5ff	0.03754234
9	0x3d5fa78b	0.05460314
10	0xbb8c5298	-0.004282307
11	0x3d49c0e7	0.04925623
12	0xbd52e71f	-0.051489946
13	0x3cf51e43	0.029921656
14	0x3d6a633e	0.05722355
15	0x3d767710	0.06017214
16	0xbd353886	-0.044243358
17	0x3d2f2dd7	0.042768326
18	0x3d06c2f0	0.03290075
19	0x3c6e5f82	0.014549138
20	0xbc5be42c	-0.0134211
21	0x3c1c218d	0.0095294835
22	0xbc4ff8b0	-0.012693569
23	0x3d22c76d	0.03974097
24	0xbd5207a5	-0.05127682
25	0xbb58ee91	-0.003310118
26	0xbd1327f5	-0.035926778
27	0xbc56ff9d	-0.013122466
28	0x3d7ef6bd	0.062247027
29	0xbd5b44fc	-0.053532586
30	0x3d475f36	0.048674785
31	0xbc134553	-0.008988696
32	0xbca7c5a6	-0.020479988
33	0x3c9584fb	0.018251887
34	0x3d85aae1	0.06526733
35	0x3d8b3d12	0.067987576
36	0x3c6c4541	0.014420808
37	0xbd1def1c	-0.03855811
38	0xbd29b552	-0.041432686
39	0x3cebb3f0	0.028772324
40	0x3c87cd97	0.016577525
41	0xbcc73982	-0.024319414
42	0x3b9c4c88	0.0047698654
43	0xbd70637f	-0.058688637
44	0xbca094b3	-0.019602155
45	0x3c0cc809	0.008592614
46	0x3d3efc64	0.046627417
47	0x3b623ce2	0.0034521152
48	0x3d199e6b	0.037504595
49	0x3d6b1e2f	0.057401832
50	0xbd497abd	-0.049189318
51	0x3c249da1	0.010047347
52	0x3d48c018	0.04901132
53	0xbc1caf1a	-0.009563232
54	0x3d3a5302	0.04548932
55	0x3c6cf871	0.01446353
56	0x3d62f714	0.055411413
57	0x3c6cc243	0.0144506125
58	0xbccbffe8	-0.024902299
59	0xbc450bf1	-0.012026773
60	0xbd4392f0	-0.047747552
61	0xbc8fc919	-0.017551946
62	0xbd514855	-0.05109437
63	0x3d20e3ae	0.039279632

weight f4 [64, 64, 3, 3]
0	0xbc933729	-0.017970638
1	0x3d0a8a8d	0.03382354
2	0x3cfb4d78	0.030676588
3	0xbb099ec2	-0.0020999168
4	0xbc18609b	-0.009300376
5	0xbca4e50c	-0.02012875
6	0x3be93fdd	0.007118209
7	0xbbec815d	-0.0072175697
8	0x3d08957c	0.033345684
9	0xbc247cfc	-0.010039564
10	0x3d195bcd	0.037441064
11	0x3d2635ef	0.04057878
12	0x3ac62320	0.0015116669
13	0x3b8b2e60	0.0042474717
14	0xbd11bfb7	-0.035583224
15	0x3b23edd0	0.0025013573
16	0xbc914df8	-0.017737374
17	0xbd00ce7a	-0.03144691
18	0xbd1e4534	-0.038640216
19	0xbd212cb6	-0.03934928
20	0xbc026cbf	-0.007960497
21	0xbd1a3fca	-0.03765849
22	0x3cc057f6	0.023479443
23	0xbbf4ce1f	-0.0074708606
24	0x3d0db125	0.034592766
25	0x3c5d4dd5	0.013507326
26	0xbc174673	-0.009233105
27	0xbccf0254	-0.025269665
28	0x3c6402de	0.013916699
29	0xbc01a9a2	-0.007913979
30	0xbcce8bde	-0.025213178
31	0x3d0f17f6	0.03493496
32	0xbd25db02	-0.040492065
33	0x3bf1de0b	0.007381206
34	0x3b8946c5	0.0041893446
35	0x3c811675	0.015757779
36	0xbc89f809	-0.016841905
37	0xbc987218	-0.018609092
38	0xbccba932	-0.024860952
39	0x3cdc6ea8	0.026908234
40	0x3d0234b7	0.031788554
41	0xbcbbf1a7	-0.022942377
42	0xbb1905bd	-0.0023349368
43	0xbd10208e	-0.035187297
44	0xbbd6a8de	-0.0065508923
45	0x3cc6c59e	0.024264153
46	0x3bea4527	0.007149357
47	0x3ca6c550	0.020357758
48	0x3ca8742e	0.020563211
49	0xbd21c22c	-0.039491817
50	0x3cf6d382	0.030130152
51	0xbc3d1b7e	-0.011542199
52	0xbc3a0a71	-0.0113550285
53	0xbbb34576	-0.005470927
54	0x3c5793e3	0.013157818
55	0xbcac3f72	-0.021026347
56	0x3d24d421	0.040241364
57	0xbd1ccd67	-0.038281824
58	0x3c1ede54	0.009696562
59	0x3d0efb2d	0.03490751
60	0xbc8181b7	-0.015808923
61	0x3b71210f	0.0036793386
62	0x3c48096e	0.012209279
63	0x3cd85897	0.02640943
64	0xbc8a2c81	-0.016866924
65	0xbc9d7bf2	-0.01922414
66	0x3cc89f6e	0.024490084
67	0xbcc6b4f7	-0.024256213
68	0xbd2cb431	-0.04216403
69	0x3c1d7dd0	0.009612516
70	0xbd19ac3e	-0.03751778
71	0x3d1174e0	0.03551185
72	0x3bd0c31c	0.006370915
73	0xbcfbf9c2	-0.030758742
74	0x3c877325	0.016534397
75	0x3cf0b93b	0.0293852
76	0x3baacc7f	0.005212366
77	0xbcdc581c	-0.026897483
78	0x3baa70c9	0.0052014333
79	0xbd1abc5a	-0.037777282
80	0xbc959185	-0.018257866
81	0x3d12f8fe	0.03588199
82	0xbd18062e	-0.03711527
83	0x3d17decd	0.037077714
84	0x3be34862	0.006936119
85	0xbd101941	-0.035180334
86	0x3c96782e	0.018367853
87	0x3cfa1bcf	0.030530838
88	0xbc9e04a3	-0.01928932
89	0xbc7f26b0	-0.015573189
90	0xbd0dd635	-0.034628112
91	0x3a1aaf60	0.00059007667
92	0xbcb14859	-0.021640943
93	0x3b8e6c45	0.004346403
94	0xbc8d60da	-0.017258096
95	0xbd19c38d	-0.037540007
96	0xbcf9d890	-0.030498773
97	0x3ca1f17a	0.019768465
98	0x3d188232	0.03723354
99	0x3ccdac18	0.025106475
100	0xbc412a0d	-0.011789811
101	0xbccb61e3	-0.02482695
102	0x3cad3a91	0.02114609
103	0xbcdf229b	-0.02723818
104	0x3cbb6401	0.022874834
105	0x3c83df58	0.01609771
106	0xba117565	-0.0005548804
107	0xbcf55720	-0.029948771
108	0xbc85d084	-0.01633478
109	0xbbd9a9c9	-0.0066425544
110	0x3d1f102c	0.038833782
111	0x3c9cf1ab	0.019158205
112	0x3cda73f4	0.026666619
113	0xbd1cbded	-0.038267065
114	0x3cda0b1f	0.026616631
115	0xbc96b30b	-0.018395921
116	0x3bf48c5f	0.0074630226
117	0xba31091d	-0.0006753372
118	0x3bf00c67	0.007325697
119	0x3c236973	0.0099738715
120	0xb92b71ec	-0.0001635027
121	0xbca39a38	-0.019970998
122	0x3d1864f5	0.037205655
123	0xbca36a69	-0.019948201
124	0xb9cf397e	-0.00039524952
125	0x3b0a0cf4	0.002106485
126	0x3c0423c5	0.008065169
127	0xbcd0f394	-0.025506772
128	0xbc08c335	-0.008347322
129	0x3c73e1da	0.01488539
130	0x3d055e50	0.032560647
131	0x3c86b4e7	0.016443683
132	0x3ae8ab15	0.0017751182
133	0x3ca137ff	0.019680021
134	0x3c41665b	0.011804189
135	0xbcebbb39	-0.028775798
136	0xbcd25608	-0.025675789
137	0xbd22cf5f	-0.039748546
138	0x3bcceeb9	0.006254044
139	0xbcc01b64	-0.02345056
140	0x3c81165a	0.015757728
141	0x3bf80fee	0.0075702583
142	0xbcf4659d	-0.02983361
143	0xbca09346	-0.019601475
144	0x3c115d97	0.008872411
145	0xbc20dd1f	-0.009818344
146	0xbca69e66	-0.020339202
147	0xbd0bacc1	-0.034100298
148	0xbbfe5901	-0.007762075
149	0xbd1a9d4d	-0.03774767
150	0xbbae2c2e	-0.005315325
151	0xbcfd7faa	-0.030944664
152	0xbd0e2fbb	-0.034713488
153	0xbc4c65e6	-0.012475466
154	0x3c72451a	0.014786983
155	0xbcca6544	-0.02470649
156	0xbcc48bdd	-0.023992473
157	0xbd08e087	-0.03341725
158	0x3bcb2c2e	0.006200335
159	0x3d1ab5a6	0.03777089
160	0x3d16c462	0.03680838
161	0xbca5aac5	-0.02022303
162	0xbbf959a0	-0.007609561
163	0x3c97bd18	0.018522784
164	0xbc7683b4	-0.015046049
165	0xbb1d76d3	-0.0024027124
166	0xbd168294	-0.036745623
167	0x3c8c3c39	0.01711856
168	0x3cc3d28b	0.023904106
169	0xbc604ed2	-0.013690667
170	0x3ca5de08	0.020247474
171	0x3d086cdf	0.033306953
172	0x3d0d93a9	0.034564648
173	0xbd0f37cd	-0.034965325
174	0xbcc0002c	-0.023437582
175	0xbc341022	-0.0109901745
176	0x3d1464ed	0.036229063
177	0xbc878bd4	-0.016546167
178	0x3b8f5f1d	0.004375352
179	0x3cf00082	0.029297117
180	0xbc84c31d	-0.016206319
181	0x3b60da2e	0.0034309733
182	0x3d1617c5	0.036643762
183	0xbd38cce2	-0.045117266
184	0xbcaa039a	-0.02075367
185	0xbd387681	-0.04503489
186	0xbd20f957	-0.03930029
187	0x3cf3624a	0.029709954
188	0xbd1221c5	-0.035676736
189	0x3d11b9d9	0.03557763
190	0x3d1109fe	0.03540992
191	0x3c968747	0.018375052
192	0x3ca680d7	0.020325107
193	0x3c9952d4	0.018716253
194	0xbbfcdd4d	-0.007716811
195	0xbca9421e	-0.02066141
196	0xbb951ad1	-0.004550316
197	0x3ca4ac90	0.020101815
198	0x3b25dca1	0.0025308507
199	0xbca8a991	-0.020588668
200	0xbce3f19f	-0.027825175
201	0x3c8b9428	0.01703842
202	0x3c8b6fbc	0.017021053
203	0xbb984878	-0.004647311
204	0x3d0d4395	0.03448828
205	0xbd05fd44	-0.032712236
206	0xbb8d361a	-0.004309428
207	0xbcdfefe2	-0.027336065
208	0x3cf88de2	0.030341092
209	0xbc6a4bbd	-0.014300284
210	0x3d1a4a2b	0.03766839
211	0x3c8acb29	0.016942577
212	0xbd124458	-0.03570971
213	0x3c8546bb	0.016269078
214	0xbc926f17	-0.017875237
215	0xbd0650a8	-0.032791764
216	0x3d10ed66	0.03538265
217	0xbd2f9304	-0.042864814
218	0xbd330d2b	-0.04371373
219	0xbcc15e0a	-0.023604412
220	0xbd10f05b	-0.03538547
221	0x3c5f6d33	0.013636875
222	0xbd370530	-0.04468268
223	0x3c0180f3	0.007904279
224	0xbcaae4b4	-0.020861007
225	0xbce08bff	-0.027410505
226	0xbc9b966e	-0.018992629
227	0x3c879048	0.01654829
228	0x3d1d7175	0.03843828
229	0xbc795f44	-0.015220467
230	0xbc91051e	-0.017702635
231	0x3d300fad	0.0429837
232	0xbd08b793	-0.033378195
233	0xbd1f39cd	-0.038873482
234	0x3a8eb732	0.0010888337
235	0x3d007121	0.031357888
236	0x3c64b0bf	0.013958155
237	0x3bd0d2ce	0.006372786
238	0xbb9fd24f	-0.0048773657
239	0xbd031bfe	-0.032009117
240	0xbce96b90	-0.028493673
241	0xbc7f9969	-0.015600541
242	0x3bf2d2e6	0.007410395
243	0xbd062cae	-0.032757454
244	0xbcaa235c	-0.020768814
245	0x3cd824fa	0.02638482
246	0xbc8530c7	-0.01625861
247	0xbc94da50	-0.018170506
248	0x3d2cb2ac	0.042162582
249	0xbc05712d	-0.008144659
250	0x3cafbee3	0.021453327
251	0xbace0391	-0.0015717616
252	0x3c585fca	0.013206432
253	0x3bc285b4	0.005936349
254	0xbb796fd3	-0.0038061037
255	0x3c1f78b6	0.00973337

bias f4 [64]
0	0x3b1aac16	0.0023601106
1	0xbd13dd0b	-0.036099475
2	0xbbffe9c1	-0.007809848
3	0x3c0dc096	0.008651873
4	0xbd29a51f	-0.041417237
5	0xbbacb814	-0.0052709673
6	0x3bdb5998	0.00669403
7	0x3c3200f1	0.010864482
8	0x3d184dec	0.037183687
9	0x3cbeb8ec	0.023281537
10	0xbd34ba49	-0.044122968
11	0x3cb90e22	0.022589747
12	0xbbfcb322	-0.007711784
13	0xbcad5a41	-0.0211612
14	0x3bfde5c2	0.0077483365
15	0x3c5f272b	0.013620178
16	0x3c309f63	0.010780188
17	0xbd33c67f	-0.043890473
18	0x3d2e16f8	0.042502373
19	0xbd0bb6b8	-0.0341098
20	0xbcc9a49f	-0.02461463
21	0xbd30f66c	-0.043203756
22	0x3c884e19	0.016638802
23	0x3cda9f1c	0.026687197
24	0x3b9cf308	0.004789714
25	0x3d30f777	0.04320475
26	0xbcd84109	-0.026398199
27	0xbc4bccbc	-0.012438949
28	0xbc66b015	-0.014080067
29	0xbc11458c	-0.008866679
30	0xbd47447d	-0.0486493
31	0xbd0c58aa	-0.034264244
32	0x3d1794a6	0.037006997
33	0xbce130c2	-0.02748907
34	0xba3bbe30	-0.0007161824
35	0xbc0259a7	-0.007955945
36	0x3c9d8ef2	0.0192332
37	0xbcb1eee6	-0.021720361
38	0x3b804967	0.0039150002
39	0xbc479a4c	-0.012182783
40	0x3d0843dc	0.03326784
41	0xbd1e9d9e	-0.038724534
42	0x3ca21d19	0.019789265
43	0x3cdad4bc	0.026712768
44	0xbbb9ad74	-0.005666429
45	0xbc9c0ee0	-0.019050062
46	0x3d1a49ba	0.037667967
47	0xbcb32555	-0.021868387
48	0xbc00ce75	-0.007861723
49	0x3c8b7854	0.01702515
50	0x3c049202	0.008091452
51	0x3d2fcfa8	0.042922646
52	0x3c9ec13c	0.01937925
53	0x3d09dad1	0.033655945
54	0x3ca45f41	0.020064952
55	0xbc548cc2	-0.012973012
56	0xbc924ccb	-0.017858883
57	0xba413d7a	-0.00073715264
58	0x3c95d0a4	0.018287964
59	0xbcdb24e4	-0.02675099
60	0xbc5a40eb	-0.013321142
61	0x3bc6b0db	0.0060635633
62	0xbcbcf1df	-0.023064552
63	0x3d047734	0.032340243
