output/unet_best.pth (torch, 481423 bytes, 25 tensors)

weight f4 [16, 1, 3, 3]
00000000: 21d4 72be 8c0d 8b3e fabc 4bbe 79f3 4a3e
00000010: cd78 843e 97a0 89be c88b aa3d f0e3 763e
00000020: 3026 22be 247f 5bbe 0be4 eb3d 4d47 133e
00000030: cff8 043d 3def f63c 96c4 053e 002f 3b3e
00000040: 4e4e 463e f039 a1be e8bd 633e 2a65 36be
00000050: 7ecc 473e af02 8fbe 662e bb3d aa2e 7cbd
00000060: 3a8e b0bd ee06 693e e7aa a73e b0cc 8ebe
00000070: b6fb 9f3e 30bb afbe 2845 b2bd f9ee a73e
00000080: 2c03 d4bc 981a e3be 24b0 5bbe b69e bebe
00000090: d021 84be b5ce 3b3e bfba 943d 9fe0 efbc
000000a0: 63f5 953c 00b2 853e 7a88 523d e700 adbd
000000b0: cb22 a73e 64f5 8dbd 467d 1abe d728 10be
000000c0: 0a8e d8bd c04b 8d3e fb4f 95be 2d29 643e
000000d0: c722 4f3e 68d0 a33e a0db 98be 03f8 713e
000000e0: a1dc 82be cd76 aebd f6dd 9bbe ca0e 66be
000000f0: d941 83be 2d40 cd3d 3dee 2c3e 932c 3c3d
00000100: ecaf a93e 9fb9 8c3e 1550 12bd fd57 303e
00000110: 1844 9dbc 03d3 503e cc00 65be b15a ff3c
00000120: d5dd 9fbe 84f9 7f3e a32d 11be 50b3 debc
00000130: 402a 3dbe 13aa 87be 64a4 c33c 35e7 e23d
00000140: 298a 46bd 77d4 c13d e748 8cbe 38b4 773e
00000150: 3560 b4bb 52c8 1f3e a7ae 2c3e 3308 79be
00000160: 7a64 bbbe ba0c d6be 1fe9 423e d679 453c
00000170: 0343 073e 9252 97b9 7f9b 7d3e e500 b8bd
00000180: 2e41 9b3e efe5 0ebd 4ced 043e 2444 4ebd
00000190: 23f1 833e 5edf 3fbe 6426 c2be 5268 b7be
000001a0: a3dd 83be 6f18 dfbd 427c ce3d c448 8c3e
000001b0: 365a e93d 2990 a9be bda0 363e 1ffe a33d
000001c0: d5f1 933e 15cc 923e c56b 2dbd 65b9 85be
000001d0: f349 a2bd 4c30 713e 2d40 893e 8a5d b63c
000001e0: 4820 e83d 854a 6b3e 84e5 8e3d 9344 7d3e
000001f0: 53c6 9ebe d459 56be f9cc 6ebb a381 8abe
00000200: efa1 a93e 4eb8 9f3e 595c ef3d f3de 7f3e
00000210: c932 a53e d54a 5bbe 44ff a3be ef09 b5be
00000220: 0265 5d3e 4f63 f1bd d5d6 34bc 446a 7a3d
00000230: 1f83 083e 9ecf 40bc e6cb eebc 7319 afbe
-0.23713733 0.27158773 -0.19896308 0.1981944 0.25873414 -0.26880333 0.083274424 0.24110389
-0.1583488 -0.21435219 0.11518105 0.14382668 0.032463845 0.030143375 0.13063273 0.18279648
0.19365808 -0.31489515 0.22240412 -0.17812029 0.19511601 -0.27931735 0.09139709 -0.06156794
-0.086208776 0.2275655 0.32747576 -0.2789054 0.31246728 -0.343225 -0.08704597 0.3279951
-0.025880419 -0.44356227 -0.21453911 -0.37230462 -0.25807047 0.18340571 0.072621815 -0.029281912
0.018305486 0.26112366 0.051399685 -0.08447438 0.32643732 -0.0693157 -0.1508685 -0.14078079
-0.10573967 0.27596855 -0.29162583 0.22281332 0.2022811 0.3199494 -0.2985506 0.23629765
-0.25558951 -0.08518753 -0.3044278 -0.22466579 -0.25636175 0.10022006 0.16887756 0.045940947
0.3314203 0.27485368 -0.035720903 0.17221065 -0.019197509 0.20392995 -0.22363585 0.031171175
-0.31223932 0.24997526 -0.14177565 -0.027185112 -0.18473148 -0.26496944 0.023882098 0.110792555
-0.048471604 0.094643526 -0.2739937 0.24189842 -0.005504633 0.1560376 0.168635 -0.24319534
-0.36600095 -0.41806585 0.19034241 0.012052974 0.13209157 -0.00028862484 0.24766348 -0.089845456
0.30323166 -0.03488725 0.12981147 -0.050357953 0.2576991 -0.18737552 -0.37919915 -0.35821778
-0.25755033 -0.10893332 0.10082294 0.27399266 0.113941595 -0.33117798 0.17834754 0.08007454
0.2889544 0.28671327 -0.042339105 -0.26118007 -0.07924261 0.2355358 0.26806775 0.0222614
0.11334282 0.22977646 0.069773704 0.2473319 -0.31010684 -0.20932704 -0.0036438091 -0.2705203
0.33131358 0.311953 0.11687536 0.24987392 0.32265308 -0.21415265 -0.3203069 -0.3535914
0.21620563 -0.1178652 -0.011037548 0.0611365 0.13331269 -0.01176825 -0.02914996 -0.34199104

bias f4 [16]
00000000: c2ab 24be b264 4d3e d648 79be 516a 24be
00000010: 1f7e 4ebe b70e 9d3e e477 a53e 436d 99be
00000020: 674d be3e 9945 8dbe 91f7 79bd fc25 55be
00000030: fc95 833b e12c ef3d d459 6e3e fc92 1f3e
-0.16081145 0.20057943 -0.24344191 -0.16056181 -0.20165299 0.3067529 0.32318032 -0.29966173
0.37168428 -0.2759216 -0.061027113 -0.20815271 0.0040156823 0.11678482 0.23276454 0.15583414

weight f4 [16, 16, 3, 3]
00000000: 4938 e43d 0444 f33d 45da 0b3d a2ab ab3d
00000010: e7ce 113e 9e86 0a3d 1942 213d cc01 2f3d
00000020: 8271 7d3c 8698 e0bc 2b30 1a3d d307 ba3b
00000030: 1d29 62bd e8e2 50bd f955 a13c 3dde c3bd
00000040: bc5e c2bd a037 a3bc 8e29 793d f3ca ec3c
00000050: 54a8 9d3c 4493 8bbd f69e 4f3d 511b a4bd
00000060: 2d7c 86bd 75aa 4cbd b0ff b7bd 2806 07be
00000070: 4c43 90bc 93cf 12bc b31e ffbc 690f a6bd
00000080: 071d 8bbc df51 14be 5118 44bb 2c72 ffbd
00000090: e13b 923c 0580 29bd 5d18 2fbd dab2 49bd
000000a0: 13ab 2f3d 2266 21bd dc31 a4bd 1b78 f9bb
000000b0: 488a adbd 524a 8b3c 80ea 203d 3156 3e3d
000000c0: 517d a2bd 3e3f 433c d2ea 2cbd 014c 073d
000000d0: ff34 5e3d bbca d0ba 6bbd 0cbd d910 f8bd
000000e0: 8fa1 1bbd 77cf 7fbd 669f f43c ce83 98ba
000000f0: ecc7 b03c e33d 7dbd 8310 f8bd f48b 8cbd
00000100: 4da0 47bd e3df bbbd df87 ddbb aea5 abbc
00000110: 9b23 b2bd 0a3b 313d 1dec a0bd c5d6 c6bd
00000120: d29f 84bd e8f4 94bc 67f8 dbbd 8cbc 58bd
00000130: 5465 acbd 799b 603d d5f5 cbbd a145 3abc
00000140: 6122 293d 3fc6 cabc f4d7 4c3d 98fd 1b3d
00000150: 6fa3 0f3d ed48 b5bb 1286 7739 e55d 8cbc
00000160: 3d8f 84bc 3b71 a6bd 021e d0bc b8de aebd
00000170: 8620 8dbd fa5f 433c 4f3f 9cbd c690 11bd
00000180: 70b7 37bd f780 573d e3ad a1bd 4019 c2bd
00000190: 1322 9abd 9cae 343d 328a 7cbd c1f4 e33c
000001a0: f6a9 acbd 7d50 523d e7a4 5c3d 15d5 87bc
000001b0: f7da a2bd a22e 8cbd 11b6 73bc 7a80 84bd
000001c0: 9f2d 413d a75b a5bc 6042 8b3d 8e18 00bd
000001d0: ea51 57bb 3452 8abb 4330 36bc 05bf 95bd
000001e0: 7e1b 6e3d 6684 5c3d 08b7 26bd 10da 073d
000001f0: bd04 edbc f09d ed3c c884 ebbc 25de f43c
00000200: 9bd6 6f3d a668 193d 0ba4 babd 98d6 ae3b
00000210: 4188 09bd 5f22 a43c 8b3c 113d 6db6 fabd
00000220: 09cf 11bd 285b 063c 4ba6 1d3d 092e 493b
00000230: bf78 b8bd 3b37 88bd 2dc7 e23b 63be 04bd
00000240: 8c10 20bd 22c1 ec3b d91c 4b3e 15eb f33c
00000250: 6125 953d f5f5 ae3d 2e7d 26bd f215 dd3d
00000260: c827 153e 5ab1 8fbd 554f 8a3d cbd0 4c3d
00000270: 3d35 203d 1bcd 7a3d ecbd b8bd f62e 773c
00000280: d3c0 643d f856 7dbd cad0 4bbd c689 023d
00000290: a64e 93bd 007a 693d 0f71 a4bd 485e 05bc
000002a0: 8e30 9aba 6b2c 803d d730 743d b110 5abd
000002b0: b4a1 c5bd b84d c8bc f407 0bbe a056 fabd
000002c0: cbbf 87bd 57c2 45bd 87e8 69bd ca6b 0cbc
000002d0: 90b1 6d3b f70a 763d 6702 75bd b82a 1ebd
000002e0: f50a 973b 075e 8e3c 9671 783c e4c8 123d
000002f0: 169b acbd f38c 903c d4f6 c3bc 5423 91bd
00000300: 5fd9 2fbc dfdd 94bd f904 5b3c 3c28 be3c
00000310: a48d 723d fea3 aabc 9dfd b0bd 9e06 86bd
00000320: 14f2 15be 7ddc 7bbd 184a ccbd 9155 bfbc
00000330: 764c 4fbd 539e 54bd 6e06 50bd 6b63 1d3c
00000340: 5c79 54bd 683a 993c 7927 203c bb34 a1bd
00000350: ed36 6e3d 2a05 94bd 1d85 e03b 4b7e 833d
00000360: 713c c2bd a763 c0bb af3b dabd 568b c13c
00000370: b194 95bd 1d6f 8d3c b824 dcbd adc2 1b3b
00000380: 8ee9 b1bd ba5a b4ba 5cee 9eba f8de 34bd
00000390: 4cf4 81bd c907 c7bd a7dc e8bd db5d bbbb
000003a0: f3fc b4bc cb55 e43c 9778 9c3d ec17 3f3d
000003b0: e717 063d c26a a6bd 38c6 683d 649b 5a3c
000003c0: 128b 56bd 670e ec3c a6ed 05bd 5c62 9fbd
000003d0: c023 743d ccf6 b43c 30e0 b4bd ae5d 6dbd
000003e0: 3a65 dfbc 0943 423d ec89 b6bd 2f3e 2dbd
000003f0: 4950 3ebd 69ac 7bbd d4a7 86b8 70ba 06bd
0.11143548 0.11878207 0.034143705 0.08382346 0.14239083 0.033819787 0.039369676 0.042726323
0.015468957 -0.027416479 0.037643593 0.0056772023 -0.05521499 -0.050997645 0.019694315 -0.09563873
-0.094907254 -0.019923985 0.060830645 0.028905367 0.019245304 -0.06815198 0.050688706 -0.08013023
-0.065666534 -0.049967248 -0.089843154 -0.13185942 -0.017610215 -0.008960622 -0.031142568 -0.08108408
-0.016981615 -0.14484356 -0.002992172 -0.124729484 0.017850818 -0.041381855 -0.042747844 -0.04924283
0.04288776 -0.039404042 -0.080173224 -0.0076131946 -0.08473641 0.017003212 0.039286137 0.046468917
-0.079340585 0.011916934 -0.04221613 0.033031467 0.05424976 -0.0015929559 -0.03436033 -0.121125884
-0.03799587 -0.062453713 0.029861163 -0.001163596 0.021579705 -0.061826598 -0.12112524 -0.068626314
-0.04873686 -0.091735624 -0.006760582 -0.020953026 -0.086981975 0.043269195 -0.07857535 -0.09708933
-0.06475796 -0.018183187 -0.10740738 -0.052914187 -0.08417764 0.05483577 -0.09958998 -0.01136914
0.041292552 -0.024752734 0.050010636 0.038083643 0.03506797 -0.005532375 0.000236057 -0.017134616
-0.016181583 -0.08127066 -0.025404934 -0.08538574 -0.06890969 0.011924738 -0.07629263 -0.035538457
-0.044852674 0.052613225 -0.078944944 -0.09477472 -0.075260304 0.044111833 -0.06165523 0.027826669
-0.08430855 0.05134629 0.0538682 -0.016581098 -0.079519205 -0.06844832 -0.014874951 -0.064698175
0.04716265 -0.020185305 0.067997694 -0.031273417 -0.003285522 -0.004221225 -0.011119905 -0.07311825
0.058131687 0.053837202 -0.040701896 0.033166945 -0.028932923 0.029005975 -0.028749838 0.029891083
0.058554273 0.037453316 -0.0911332 0.00533564 -0.033577207 0.02003592 0.03545813 -0.12241826
-0.035597835 0.008200444 0.038488667 0.0030697605 -0.090074055 -0.066511594 0.0069207163 -0.03240813
-0.03907828 0.0072251717 0.19835223 0.029775182 0.0728252 0.08543006 -0.040646724 0.10795201
0.14565957 -0.07016249 0.06753413 0.050003808 0.039113272 0.06123076 -0.090206 0.01508688
0.055847954 -0.061850518 -0.049759664 0.031869672 -0.071927354 0.057001114 -0.08029377 -0.008140154
-0.0011763738 0.06258472 0.05961689 -0.053238574 -0.09649983 -0.024451122 -0.13577253 -0.12223554
-0.066283785 -0.04828104 -0.05710652 -0.008570621 0.0036269166 0.06006905 -0.059816744 -0.03861496
0.0046094605 0.01737882 0.0151638 0.035836115 -0.08428018 0.017645335 -0.023921408 -0.070868164
-0.010732978 -0.07268881 0.013367885 0.023212545 0.05921711 -0.02083015 -0.08642123 -0.06544231
-0.14643127 -0.06148957 -0.0997507 -0.02335623 -0.05061003 -0.051908802 -0.05078738 0.009606223
-0.05187355 0.018704608 0.009775036 -0.07871386 0.05815785 -0.072275475 0.006851806 0.06420573
-0.094841845 -0.0058712545 -0.10655915 0.02362601 -0.07303751 0.017264897 -0.10749191 0.002376716
-0.08687125 -0.0013759949 -0.001212548 -0.044157952 -0.06345424 -0.09718282 -0.11370211 -0.0057179756
-0.022093272 0.02787294 0.07640188 0.046653673 0.03273764 -0.08125831 0.05682966 0.013342712
-0.05237872 0.028815461 -0.032697342 -0.077824324 0.059604406 0.022090338 -0.08831823 -0.057950668
-0.027269948 0.04742721 -0.08913025 -0.04229563 -0.046463285 -0.06144372 -6.420878e-05 -0.032892644

bias f4 [16]
00000000: 0c27 6d3d 100c 0abc 1af9 0a3d fc40 b53d
00000010: a944 92bc 7e9d 6dbd e84a 7d3c 47a9 ba3d
00000020: 565a 4f3d af73 bf3d dd6f a43c 6a82 d3bd
00000030: fce3 9dbb c847 903d b907 853d ff52 dfbc
0.057898566 -0.0084257275 0.033928968 0.088502854 -0.017855005 -0.058011524 0.015459754 0.09114318
0.05062326 0.09348237 0.020072872 -0.10327609 -0.0048184376 0.07044941 0.064956136 -0.027261255

weight f4 [32, 16, 3, 3]
00000000: 565c 46bc a188 f83c b325 8abd 20fd 15bd
00000010: c285 2bbc b63e 283d a484 99bd 9459 103c
00000020: 534a 89bd b9a1 6b3d db3e 44bb 8d52 c4bc
00000030: 7315 94bd e3c3 643d 85a8 d43c 905d e6bc
00000040: 0a79 393b 8e56 aa3c 26bd ea3c cac0 793c
00000050: e1a5 9fbd 9733 a03d c99f 5dbc 742a 3c3d
00000060: 4aaa 943d d4cd 48bd 9063 f5bc 2eb4 61bd
00000070: e1c1 153d 7e45 34bd a41e 4d3d d9c0 eebb
00000080: 67ce a13c faf7 44bd 48b5 19bc 2afb 5a3d
00000090: 6668 13bd 7e5a 8dbd 4413 273d 7099 353d
000000a0: 015b 273d a9ea d43c b312 663c 07c6 733d
000000b0: ca3a b0bb 28f5 053d 2876 c93b aa52 303c
000000c0: 11ac f83c 7935 13bd 0250 1c3c 3650 14bd
000000d0: b1f5 313c def2 ffbc f736 bd3c 37b3 613d
000000e0: 60a4 08bd a156 643d 9f2a e6bb 4ce4 ff3c
000000f0: 0c71 a23d a902 e33c 7762 fe3a 80a0 b2bc
00000100: 8184 313c 1241 27bc 3788 9f3d 5e83 243c
00000110: 3ff9 903d 593e 34bc 33bc 683d 25a0 8b3c
00000120: bf05 403d 03f1 3dbd 9526 483d 115f 23bd
00000130: 399b dfbc 5549 38bd ffec 633d a2e6 ab3c
00000140: e289 f13c a5f5 a53d cb57 27bd 80f7 23bc
00000150: 018d 83bc 8b87 23bd 1ece 223d c5e4 70bd
00000160: 69d1 b33c ecc2 103d ded3 c13c c62f 9a3d
00000170: 8146 083d 66db 5b3d 495c 493d 4715 96bc
00000180: 1189 ebbc 8e74 f5bc 4d2e a4bb bebe 943b
00000190: 1d84 7ebd 590d 39ba 84e1 9e3d 298e b9bc
000001a0: 402b 20bd 992c cdbc 652d f03c 2653 7cbc
000001b0: 0d8a a3bc e02a 133d 1916 443d 778e a8bd
000001c0: 053e aa3c 100d 1bbd 8ce8 0ebd d899 7b3d
000001d0: 1a42 3abd 249a 82bd 1934 593c 3960 81bd
000001e0: e80e 03bd 6c7d 50bc b061 12bd d799 903d
000001f0: 83a3 d73c 8a75 653d c857 8bbc 43eb b43c
00000200: d511 803d 53ae 843c 9bfc 613b 4aed b53c
00000210: 079f 4abd 7708 f7bc 9c7a 453d 3edf 72bd
00000220: 679d 583d 4f42 883b 8f14 933c 844a 02bc
00000230: 3604 fc3b 4143 94bd ec05 943d 33e7 67bd
00000240: be52 4c3c d974 87bd 081c a63c 2c04 91bd
00000250: 8879 93bd 38f1 b7bc 800b 093d 2682 5bbd
00000260: 894f 3f3d 7a6a 44bd 78e7 13bd 0c66 04bd
00000270: 03fa 87bd 1a39 76bd 3f1c 993d 8942 a63c
00000280: f86e 37bd 4b43 2e3d 298a 103d c6dd eaba
00000290: 8e66 a93a 9a5f 5f3d 1d53 edbc d17d 78bd
000002a0: c13b 43bd 3175 c73c 7f1f cbbb 2ea5 c3bd
000002b0: 4ae6 8dbc cc0f e3bc f882 71bd 715d c5bd
000002c0: d57c b9bd b013 28bd 78d4 81bc 9eff 34bd
000002d0: c6f7 173d 33e6 bdbc 7413 363b 8edd 4dbd
000002e0: f07f d2bb 5a0c 663d 44d3 783c 881c 443d
000002f0: c7c8 453d acf9 333d 3a59 99bc 84a8 edbc
00000300: 3916 63bd 2453 2b3c d9ee 263d 1197 7fbd
00000310: 7614 643d 3448 63bd fe07 45bd 71ee 113c
00000320: 9ad1 8abd 5104 f3bc 8c17 4e3b 19f8 eebc
00000330: 0b1a 833d 31e5 44bd 08c8 a33d 6062 60bd
00000340: 9acd 203b 1014 08bd 4869 483d 38eb a33c
00000350: df96 aebd bcda 453d dc3c 6b3d 33fe f9bc
00000360: e1a7 293d 801a 943d 3bd1 573d 0984 b83c
00000370: 43da 6b3d 316f 91bd 8395 2c3d 1506 a9bd
00000380: 0f30 69bd 7b1b 4c3d cb5b a7bd ccfa 09bd
00000390: 2519 28bd 460f 853d 727a a13d 72fc 22bd
000003a0: 7bf5 673d 7436 b2bc 0d05 40bd f0c4 073d
000003b0: f59c 99bd 9e19 8fbd 0827 533d 68bb 7bbd
000003c0: ef51 9abd efca a23b 1d97 9c3c f391 423d
000003d0: e2db e8bb 08ce 883d ed3f 0d3a d27c e6bc
000003e0: cf41 3ebd db35 b0bc 1222 9f3d 52b4 50bd
000003f0: d829 933b 7774 08bd f409 c5bc 8d80 193d
-0.012106976 0.030338587 -0.06745472 -0.036618352 -0.010468902 0.04107543 -0.07496002 0.00881042
-0.06703629 0.057527278 -0.0029944691 -0.023965145 -0.072306536 0.055850875 0.025959263 -0.028120786
0.0028300905 0.020793226 0.028654646 0.015243718 -0.07795311 0.0782234 -0.013526865 0.045938924
0.072590426 -0.049024418 -0.029954702 -0.055103473 0.03656185 -0.044011585 0.05007805 -0.007286173
0.01975174 -0.04808805 -0.0093816 0.053462185 -0.035988234 -0.06902026 0.040789858 0.044335783
0.040858272 0.025990801 0.014042544 0.059515025 -0.005378102 0.032704502 0.0061481185 0.010761896
0.030355485 -0.035939667 0.00954056 -0.036209308 0.0108618 -0.031243738 0.023097498 0.055102553
-0.033359885 0.05574668 -0.007024124 0.03123679 0.07931718 0.02771123 0.0019408007 -0.021805048
0.010834814 -0.010208385 0.07789653 0.010041086 0.0707879 -0.011001193 0.056820106 0.017044136
0.04688048 -0.046372425 0.04886492 -0.039885584 -0.027295696 -0.04499181 0.05564594 0.020983998
0.029484693 0.081034936 -0.04085521 -0.010007739 -0.016058447 -0.039924186 0.03974735 -0.05881192
0.02195044 0.035342142 0.023660596 0.07528643 0.033270363 0.05367603 0.049160276 -0.018320693
-0.028751882 -0.029962804 -0.0050104023 0.00453934 -0.06213771 -0.0007059179 0.077578574 -0.022650795
-0.039103746 -0.02504568 0.02931852 -0.0154006835 -0.019963289 0.03592956 0.047872636 -0.08230298
0.020781526 -0.037854254 -0.034889743 0.061426014 -0.045473196 -0.06377056 0.01325705 -0.06317181
-0.031996638 -0.012725215 -0.035737693 0.070605926 0.026323086 0.056020297 -0.01700963 0.022084838
0.06253401 0.016196406 0.003448284 0.022207875 -0.049468067 -0.030155404 0.048212633 -0.05929493
0.052884486 0.004158295 0.017954139 -0.007952336 0.0076909317 -0.0723939 0.07227692 -0.056616973
0.012470899 -0.06614084 0.020277038 -0.07080874 -0.072009146 -0.02245389 0.033458233 -0.053590916
0.04670671 -0.047953106 -0.036109418 -0.032323882 -0.06639483 -0.06011305 0.07476091 0.020295398
-0.044783562 0.042544644 0.03528801 -0.0017918877 0.001292424 0.054534532 -0.028970296 -0.060666863
-0.047664408 0.024347873 -0.006198823 -0.0955299 -0.017321724 -0.027717493 -0.058962792 -0.09636963
-0.09057013 -0.0410344 -0.015848383 -0.044189088 0.03710153 -0.023181057 0.002778259 -0.05026012
-0.0064239427 0.056164123 0.015187088 0.047878772 0.04828718 0.043939278 -0.018719304 -0.029011019
-0.055441115 0.010456834 0.040755127 -0.062399928 0.055683576 -0.05548878 -0.048103325 0.0089069465
-0.067782596 -0.029665144 0.003144714 -0.029171037 0.06401452 -0.048070136 0.07997137 -0.054781318
0.002453661 -0.033222258 0.04892853 0.020009622 -0.0852487 0.048304304 0.057431087 -0.03051672
0.041419867 0.07231617 0.052689772 0.022523897 0.057581197 -0.07101286 0.042134773 -0.08253113
-0.056930598 0.049830895 -0.08171805 -0.033686444 -0.041039605 0.06497054 0.07884683 -0.03979153
0.056630593 -0.02175448 -0.046879817 0.0331468 -0.0750064 -0.06987308 0.051550895 -0.06145802
-0.07535159 0.004968039 0.019115025 0.04750247 -0.00710629 0.06679922 0.0005388249 -0.02813569
-0.04644948 -0.021510055 0.0777017 -0.050953217 0.004491072 -0.033314195 -0.024052598 0.03747611

bias f4 [32]
00000000: f9c5 95bd 3e61 69bd 2fc2 243c 4db8 a13d
00000010: 4fe2 7e3c 2ed7 8a3d 0ff4 7b3d 0866 8a3d
00000020: 2f18 5fbd c952 1cbb 82d9 903d 38c9 a6bc
00000030: f470 2bbd 68fc 853d 93aa 51bd aa62 583c
00000040: 0c68 5b3d 5f7d a1bd 2293 923b 729e b7bd
00000050: 1dae 5f3d 8a26 04bd 8da8 91bd bb5d 03bd
00000060: 7d62 53bd 115e 603c a6a9 373d 1cc5 0c3c
00000070: ecba 2b3d bd48 253d 21f7 96bd bf56 8ebd
-0.07313151 -0.056977503 0.010056063 0.07896481 0.015556886 0.067793235 0.06151205 0.06757742
-0.054466423 -0.0023853055 0.07072736 -0.02035962 -0.041855767 0.06542283 -0.051188063 0.013207117
0.053566024 -0.07885241 0.004473106 -0.08965768 0.054609407 -0.032263316 -0.07112227 -0.03207181
-0.051607598 0.013694302 0.044839524 0.008591916 0.04192631 0.04035257 -0.07371355 -0.06950139

weight f4 [32, 32, 3, 3]
00000000: e271 233d bf83 46bd cf70 193d 2f95 6a3a
00000010: ce78 a0bc 3048 06bd e471 573d af81 c4bc
00000020: 053c 153d 563e 733d 85ec 2c3d 4125 2b3d
00000030: 50aa 1ebd 6f6b fbbc ae2c 94bc a451 25bc
00000040: a606 10bd 3abd 363c 0890 383d 33a7 00bc
00000050: e952 3bbd 8a90 0c3c fa81 a9bc 8bcc 3a3c
00000060: b103 a2bc 325d ff3c 226c 90bc 678e 153c
00000070: fef2 1dbc 9232 753c db48 85bd b47d c4bc
00000080: 9df9 843c 2d93 003c a136 59bd 6bfd 253c
00000090: 76f1 2ebd 75fb 29bd 9d7c 5e3d 3c76 56bd
000000a0: 74f6 9fbc 0892 933b dc3f 08bd 18c2 53bd
000000b0: e462 13bd 479f f7bb a174 06bc 1cae eabb
000000c0: e2f8 0b3d 36cc b9bc 3182 2ebd 29c6 85bd
000000d0: fcaf 2ebb ce43 93bc d962 f63c e1b8 37bc
000000e0: 3cda 78bc d276 383d d97d 83bd fba2 10bd
000000f0: dae5 8cbc 7d6c 293d 9b71 66bd 3055 45bd
00000100: e330 ea3c f5af 4d3d 215b 9a3c ea52 533c
00000110: bfb6 51bd fab3 9d3c 2c0f cb3c e3ff a33c
00000120: 67df 773d 970c 73bb 71c2 babc 6ed5 8f3c
00000130: 8651 3bbd b172 103c fcec c33c d142 49bd
00000140: feb8 55bc d36a 7ebd 00e5 47bd 45b9 86bd
00000150: a49c e13c 4081 77bd 7ce0 033d 9f83 3b3d
00000160: 75e0 68bd f6f5 183d cb73 ad3c 265c a43c
00000170: 74e6 60bc 959a 3cbd 7318 26bd bab4 89bd
00000180: dd74 5abd 258d eebc 4cea 63bd 1283 6db8
00000190: 7eba 96bb 7c97 19bd b4f2 8ebb 0332 bb3c
000001a0: 0d42 1a3d 2f17 67bd 06b3 c238 1755 5bbd
000001b0: f0b5 10bc 4599 b73a 01f4 56bc f7d6 86bc
000001c0: c468 073d e54d 183d e318 4d3d aeea 873c
000001d0: 1afc 90bb c23a d4bb caf3 2f3d 32d9 acbc
000001e0: 5676 b33c e504 073d b194 94bc 2e4b 033d
000001f0: 6212 1bbd 3c5b 033d 3378 f03c 7b40 153c
00000200: d83b 09bd ee02 25bd 5e40 8b3c d6c9 3abd
00000210: 8211 9bbc 3cac 43bc 8ea4 5fbc d3c4 d0bc
00000220: e1e3 e4bc a7b3 38bd c4ac 04bd 49b2 293d
00000230: 7d8d efbc d6f4 083d 1266 c33c 810c 49bd
00000240: 2d58 b839 6c69 4fbc b9cc f03c e697 58bd
00000250: 76cc 613d f3d7 533d e024 e3bc a34b 71bd
00000260: e53e 46bc 5f52 553d 7e24 b23c 049b ceba
00000270: 1d03 123d e3f3 283d 4a2e f73c 6376 88bc
00000280: 5a4d c03c 1d89 3e3d 691b feba f914 f8bb
00000290: c729 29bd 134c 073c 0a41 dc3c 6a80 2abb
000002a0: 55b3 013d cff3 c13c 6f01 2dba 73e9 42bd
000002b0: 1bcc e9ba 5592 6b3d 2a4a 9b3c fc71 483d
000002c0: a610 3a3d d8c7 2c3c 47df 6bbd ab66 4e3d
000002d0: 2284 72bb 43ac fe3b 3fe8 983b fdae 9e3c
000002e0: ec54 6c3c 3e28 ad3b 858f a53c a90f 26bc
000002f0: 063c a4bc 7db3 af3a 05fd 79bd a2f2 73bd
00000300: f085 27bc 6e9b a43c bbf0 9abc 9101 fc3c
00000310: 5eec 543b 2a95 c6bc 3f51 92bc eda8 3cbd
00000320: 12be 1bbd b69b b63c f64f 433d e1af 86bb
00000330: 01f7 f33c 7009 a838 79cc 4dbc 6c08 f43c
00000340: 0c38 adbc 3a17 e2bc 8d11 42bc 5aeb 393d
00000350: 67f9 33bd f8ed 69bd 253a dc3c fa15 cbbc
00000360: 3081 53bd f3ce 09bc 2b6c 1f3d 738c f93c
00000370: 0d19 293c fb1b 10bd 578c 6abc 0c27 0f3d
00000380: a00e 903c 44d9 ea3c 6f26 1a3d fbf3 963b
00000390: a197 d2bb 8b41 d63c ee22 1fbd 1be6 41bd
000003a0: d433 6abd 4dc8 3fbb 8750 c4bb 453d 08bd
000003b0: c742 ef3c 6c9e 083c 595a e9bc b3d0 7ebd
000003c0: db43 113d be57 03bc f58c c2bb 8de9 073c
000003d0: 62c7 9a3a 4fe0 77bc af38 cbbc e0d5 28bc
000003e0: 6f8e 7cbc d170 4fbd f870 12bc e6d1 0b3d
000003f0: 795c 28bc d973 d13c a7ec 013d de49 373d
0.03990353 -0.048465487 0.0374611 0.00089486217 -0.019588854 -0.032783687 0.05259885 -0.02398762
0.036434192 0.05938562 0.04221775 0.041783575 -0.03873664 -0.030690877 -0.018087711 -0.010090265
-0.03516259 0.011153514 0.045059234 -0.007852363 -0.045733366 0.008579383 -0.02069186 0.011401306
-0.01977715 0.031172369 -0.017629687 0.00912819 -0.009640453 0.01496567 -0.06508037 -0.023985721
0.016232306 0.007847589 -0.053030614 0.01013122 -0.042710744 -0.041499574 0.05431806 -0.05235885
-0.019526698 0.0045034923 -0.033264026 -0.051698774 -0.03598298 -0.007556829 -0.008206517 -0.0071618687
0.0341729 -0.022680383 -0.04260463 -0.06531937 -0.0026655188 -0.017976668 0.030076431 -0.011213512
-0.01518875 0.04503519 -0.06420488 -0.03531168 -0.017199446 0.041363228 -0.056260686 -0.048176944
0.028587764 0.050216634 0.018842282 0.012898186 -0.05119967 0.019250859 0.024787508 0.020019477
0.060515787 -0.0037086362 -0.022797795 0.017557826 -0.045732044 0.008816407 0.023916714 -0.049135987
-0.013044594 -0.062113594 -0.048802376 -0.06578306 0.027540512 -0.060425997 0.032196507 0.04577982
-0.056854684 0.03734394 0.021173378 0.020063471 -0.013726819 -0.04604586 -0.04055066 -0.06723924
-0.053334106 -0.029120037 -0.055643365 -5.6627272e-05 -0.0045998683 -0.037497982 -0.0043624286 0.022850996
0.037660647 -0.056418594 9.2839866e-05 -0.053547945 -0.00883244 0.001400747 -0.0131196985 -0.016459925
0.033058897 0.03718366 0.050072562 0.016591396 -0.004424584 -0.006476731 0.042957105 -0.02109966
0.021907013 0.032963652 -0.018137308 0.03205412 -0.037859328 0.03206943 0.02935419 0.009109612
-0.033504337 -0.040285997 0.016998466 -0.045602642 -0.018929247 -0.011942919 -0.013650073 -0.025484478
-0.027940692 -0.045093205 -0.032391325 0.04142979 -0.029242272 0.03343662 0.023852382 -0.04908419
0.0003516091 -0.012659412 0.029394494 -0.052879237 0.05512663 0.051719617 -0.027727544 -0.058910023
-0.012099956 0.05208051 0.021745916 -0.0015762751 0.0356475 0.041248213 0.03017344 -0.016658014
0.023474384 0.04651748 -0.0019386831 -0.0075708595 -0.041299608 0.008257884 0.026886482 -0.0026016482
0.031665165 0.023675827 -0.000659964 -0.047585916 -0.0017837317 0.0575126 0.018956263 0.04893683
0.045426033 0.010545693 -0.05758598 0.05039088 -0.0037005027 0.007772 0.0046663578 0.01937055
0.014424544 0.0052843383 0.020210037 -0.01013557 -0.020048153 0.0013404932 -0.061032314 -0.059557565
-0.010224804 0.020093646 -0.018913617 0.030762466 0.0032489519 -0.024241049 -0.017861007 -0.046059538
-0.038023062 0.022291046 0.04768368 -0.004110322 0.029780867 8.012622e-05 -0.012560957 0.029789172
-0.02114489 -0.027598966 -0.011845005 0.045390464 -0.04393902 -0.05711171 0.026883194 -0.024790753
-0.051636875 -0.008411157 0.038921516 0.03046248 0.010320914 -0.035182934 -0.014315686 0.034949347
0.017585099 0.028668053 0.03763431 0.0046067215 -0.006426767 0.0261543 -0.03885167 -0.047338586
-0.057178333 -0.0029263676 -0.005991045 -0.033261556 0.029206647 0.008338552 -0.028485464 -0.06221075
0.035465103 -0.008016525 -0.0059372135 0.008295429 0.0011808688 -0.015129163 -0.024807302 -0.010304898
-0.015414818 -0.0506447 -0.008938067 0.03413572 -0.010275953 0.025567936 0.03171983 0.04474818

bias f4 [32]
00000000: c791 6b3c f002 d4bc f0a9 73bd bab6 573d
00000010: 8f48 76bd d9b0 5a3d f8ca 12bd 43d2 983d
00000020: c46e fb3b eca9 5ebd e1bd 2f3b 7e43 893a
00000030: 8570 0e3d 9700 263c ee69 58bc ecb9 04bc
00000040: 12dd e1bc c258 e93c d3fe 7e3d f630 c43c
00000050: 51e0 1fbc 1ff4 523d 5f1e 2c3d af5b 6d3d
00000060: 7108 2abd f0f2 e0bc cdf0 e1bc 1e2a 933d
00000070: 99a1 503d f80e 12bd f2f8 87bd 5477 21bd
0.014378018 -0.025880307 -0.059488237 0.052664496 -0.06012779 0.05339131 -0.035838097 0.07461979
0.0076731164 -0.05436127 0.0026816058 0.0010472385 0.034775276 0.010131977 -0.013208849 -0.008100968
-0.027571235 0.028484706 0.062254738 0.023949128 -0.009758071 0.051502343 0.04202115 0.057948764
-0.041511957 -0.027459592 -0.027580643 0.071857676 0.05093536 -0.035658807 -0.066392794 -0.03942044

weight f4 [64, 32, 3, 3]
00000000: 152c 57bd 4884 723d 48e9 a7bc dba1 29bc
00000010: b254 433d 72dd edbb 9c7e 67bc a906 bfbb
00000020: b2c4 3ebd ec90 573d e93d 2b3c ffd9 983c
00000030: 3013 eebc 92d0 a4bb 4bd4 983d 4601 f3bb
00000040: c043 92bb 2917 813d 066a 633d d833 05bd
00000050: c306 19bb f3b6 16bc 2ad2 a2bb a7c2 993c
00000060: fad8 1abc 7670 21ba be29 28bb fd10 87bc
00000070: 8a79 ecbb a97c 5abd 5ce4 70bc 221a a3bc
00000080: 6141 01bc 0e1a 553d 6511 6fbd e822 2d3d
00000090: 835e dabc b3f0 46bd 7475 13bd 10fb 87bc
000000a0: 11e1 8f3c 8f23 4d3d 20c5 edbc 2cf7 97bb
000000b0: b1e2 1cbd 021d 9dbc 588f 3dbc fd27 d23c
000000c0: 6a2c 1bbd 4ef6 773c 50c8 2b3c 30b4 f33b
000000d0: ef5b 3b3d 1090 0a3d 26ab e23c 9595 7d3c
000000e0: 7140 aa3c a282 26bd 052f 393c 5f71 4ebb
000000f0: 0c0b 39bd ce33 a1bc d886 293d 32d0 663c
00000100: 5fa6 913c 9dfd 1f3d 0ac4 733c 5174 caba
00000110: 81b7 bb3c eae0 f8bc 39f1 9b3c 9437 e33c
00000120: b1da 9f3c f642 873c b4de 453d da0e 63bc
00000130: 1600 653d bb37 91bc d7a8 203d 8e37 233d
00000140: 7c29 6ebc 0b49 a7bc 7a0c 85bc 41fb 07bd
00000150: b574 2dbc aeba 703d b02f 733c 3a4b 11bc
00000160: 92db e1bc 0b51 51bd c27a 86bc 0562 7a3d
00000170: 46a4 51bd 881d c83c 32c7 223d 56d6 c8bc
00000180: 5e0d 20bd b3e8 13bd e6b4 79bb 220a c13c
00000190: f785 8fbd f1fc 673c 0f03 81bd 3a69 4cbd
000001a0: 607a b63c 4c19 26bd ce42 26bd fa13 77bc
000001b0: 06b0 1ebd ed26 283d c144 b5bc 9e9c 4fbd
000001c0: 7ab0 313d 9866 513d a09c a4bc 78fa 48bd
000001d0: e23f 563d 2987 4f3d eb39 15bd 2dce 0d3d
000001e0: 3ef9 103d e00d 803b 0bea 0dbd 6ad9 f5bc
000001f0: 46f5 1d3d 20ab 49bc 1b42 d4bb cafb 453d
00000200: 81e6 71bd fe5d 283d dcaa 6bbc 2604 153c
00000210: deae 173c 8bf3 8bbc a99b 37bd c7b1 5ebd
00000220: c45a 2d3d 4882 86bd ee34 ac3c b639 ce3c
00000230: 9edf 1ebd 323d 32bd 0dcd 41bd 2b1e 9cbc
00000240: 0e2e b03b 0b78 a6ba 330f 3b3c 46d9 163d
00000250: 4826 2fbd c5de 6cbd a9cb b33c 46c1 4c3d
00000260: 8e46 05bd bfb4 9abb 2ffc 9cbb e7b8 e6bc
00000270: 517d 4ebd d294 1abd b38f 04bd 984d 43bd
00000280: 81c3 833b 122c 43bd e8ae 1c3d f7c7 163d
00000290: 3495 60bd 96d7 c7bb 1935 07bd 98a3 3c3d
000002a0: 6f29 4e3c 677e 83bc 5652 0fbd 87f8 cbbc
000002b0: ab9a 7ebd d48f 4b3c 64d8 43bd 897d 0c3d
000002c0: d6f5 2bbd cbe8 643c 3c53 16bd c638 a0bd
000002d0: d208 2d3d eda4 82bb 359f bb3c 0afd 3ebd
000002e0: ef26 6e3c 93f2 03bc 3ead 4d3d 8a2c 37bd
000002f0: a2ec 4dbb 84af 97bc 45a2 07bc b229 1ebd
00000300: d109 0c3d 0a2b 1b3d e18e bf3c 0f42 bbbc
00000310: c572 78bd 04da d0bc cb3f 06bd 4554 693c
00000320: 8ddb 95ba 03c8 2bbc b2cd e53b 3a1d 9dbb
00000330: 1a17 153d 901e 973c f735 21bd 2456 42bd
00000340: d12c 0b3d 21e0 43bd 8d37 043d 8295 973c
00000350: 03cd 81bd cffa 9cbc 2173 ea3c 2c3a 853c
00000360: 2c1e 9dbb e9b7 5bbc 90b0 59bd fb92 013d
00000370: 610a 643d f82f 213d 8fc0 b6bc b6a5 20bd
00000380: b313 2abc 6c8d 22bb bbd9 363d 9952 853d
00000390: 5d7a 32bc ead4 693c 480f 4d3c 09c5 bdbc
000003a0: 6baa 0f3c 88b8 333d d16e 5c3d 0373 063d
000003b0: e8a0 b7bc 5662 503d 6199 1eba f5c6 ac3c
000003c0: 7437 103c e29f 223d e451 0d3d 4cba 6bbd
000003d0: a3bc 57bd 9926 6bbd 9ed8 7d3c 83bd 10bb
000003e0: 28fa ae3c 04fb c1bb 4b0c e43c 8491 3abd
000003f0: ab42 aabb 0b4b d83c 6596 8a3a afc4 453c
-0.052532274 0.059208184 -0.02049698 -0.010353531 0.047688194 -0.0072590644 -0.014129307 -0.0058296514
-0.046574302 0.052628443 0.010451772 0.018658636 -0.029061884 -0.0050297463 0.07462367 -0.0074159233
-0.004463643 0.063032456 0.055521034 -0.032520145 -0.0023349978 -0.009198892 -0.004968901 0.018769575
-0.009451145 -0.00061584206 -0.0025659646 -0.016487593 -0.007216637 -0.05334154 -0.014702883 -0.019909922
-0.007889123 0.0520268 -0.058366198 0.042269617 -0.026656395 -0.048569392 -0.036000684 -0.016599208
0.017563375 0.05008274 -0.02902466 -0.0046376195 -0.038302127 -0.019178871 -0.01156982 0.025653834
-0.037884153 0.015134407 0.01048477 0.0074372515 0.04574197 0.033828795 0.0276695 0.015477558
0.020782681 -0.040651925 0.011302714 -0.003150068 -0.04517655 -0.019678023 0.041388363 0.014087724
0.017779527 0.039060224 0.014878282 -0.0015446042 0.02291465 -0.030380685 0.019035922 0.027736463
0.01951346 0.016511422 0.04830809 -0.013858521 0.055908285 -0.01772677 0.03922352 0.039847903
-0.014536258 -0.020420572 -0.0162413 -0.0331986 -0.010586907 0.05877178 0.014842913 -0.008868033
-0.02757052 -0.05110268 -0.016415957 0.061128635 -0.051182054 0.024428144 0.03974075 -0.024516266
-0.039075248 -0.03611059 -0.0038102209 0.023564402 -0.07007974 0.014159427 -0.062994115 -0.04990504
0.02227515 -0.04055147 -0.040591054 -0.015080446 -0.038742088 0.041052748 -0.022127511 -0.05068647
0.04338119 0.05112323 -0.020094216 -0.04906699 0.052307017 0.05066601 -0.036432188 0.034620453
0.035393946 0.003907904 -0.03464703 -0.030010898 0.03856399 -0.012308866 -0.006477607 0.048335828
-0.059057716 0.041105263 -0.014383998 0.009095227 0.009258 -0.017083904 -0.044826183 -0.05436876
0.04232289 -0.06567818 0.021021333 0.025174003 -0.038787477 -0.04351539 -0.047314692 -0.019057354
0.005376584 -0.001270057 0.011417198 0.0368283 -0.042761117 -0.057829637 0.021947699 0.049989007
-0.03253799 -0.0047212536 -0.004790805 -0.02816434 -0.05041248 -0.037739582 -0.032363605 -0.04768142
0.0040211086 -0.04764945 0.03825274 0.036811795 -0.05482979 -0.006098698 -0.033009622 0.046054453
0.012583121 -0.016051484 -0.03499063 -0.02489878 -0.06215922 0.012424428 -0.047813788 0.034299407
-0.041982494 0.013971518 -0.036700472 -0.07823329 0.04224474 -0.003986946 0.022903064 -0.046628036
0.01453565 -0.00805344 0.050214045 -0.04472021 -0.0031421562 -0.01851631 -0.008278434 -0.038613982
0.03418905 0.037882842 0.02338356 -0.022858648 -0.060656328 -0.025494583 -0.03277568 0.014241283
-0.0011433229 -0.010484698 0.007013046 -0.004794744 0.036398984 0.01844719 -0.039358106 -0.04744543
0.033978287 -0.047821168 0.03227954 0.018503908 -0.06337931 -0.019162564 0.02861935 0.01626309
-0.0047948565 -0.013410547 -0.0531469 0.031634312 0.05567396 0.039352387 -0.022308616 -0.039220534
-0.010380673 -0.0024803532 0.044641238 0.06509895 -0.0108934315 0.014271954 0.01251585 -0.023165243
0.008768658 0.043877155 0.05381662 0.032824527 -0.022415593 0.05087503 -0.0006050077 0.021090964
0.008802284 0.039703257 0.034501925 -0.057550713 -0.052670132 -0.057409856 0.01549354 -0.0022085614
0.021359518 -0.005919816 0.027837893 -0.04554893 -0.0051959357 0.02640297 0.0010573386 0.012070819

bias f4 [64]
00000000: de0c 9e3a 6849 56bd a308 80bc 1bcc f43c
00000010: f9de eb3c 974f 533d 2a3f 23bd 5972 7dbb
00000020: d4ae ac3c ec33 8c3d 846f 36bd 1705 0fbd
00000030: d2e7 153b b623 1f3d 0e02 7a3c 23c8 68bd
00000040: af22 0cbd 6eaa 34bd 3ad4 8dbc 5bc8 443b
00000050: bc6b 21bd 573a 693d 4e68 903d abbb 5e3d
00000060: 9eee 4dbd 5c0f 3abd 36e8 ecbc 1fdc 85ba
00000070: 20be 51bd 3b6a 013c f491 433d 5af8 0f3d
00000080: 46a4 1d3d 576f 3f3d 485c 1fbd a1d1 833b
00000090: a5b0 243d 1676 9fbc 0bd2 39bd ef1c d63c
000000a0: 85c7 54bd fa66 06bd 062c 073d d287 0fbd
000000b0: e6b4 8e3c 8989 11bc 0e66 1b3d c949 bb3a
000000c0: 395a bdbc 38e5 72bd 3241 1abd 40bd 653d
000000d0: e814 4bbd ef82 4b3c 53d0 873b b09b 663d
000000e0: 3e60 483d ce0b 823d 6a06 88bd b1c0 0fbd
000000f0: e05c 45bc 9775 fc3b fe3f 3e3c 6ed6 9c3b
0.0012058278 -0.0523161 -0.015629118 0.029882481 0.028792845 0.051589575 -0.03985516 -0.0038672893
0.021079458 0.06845841 -0.044539943 -0.034916963 0.0022873771 0.038852416 0.015259279 -0.05683149
-0.034212764 -0.044107847 -0.017313112 0.0030026648 -0.039409384 0.056940403 0.070511445 0.054378193
-0.05027639 -0.045424804 -0.02891932 -0.0010212696 -0.051206708 0.0078988625 0.047746614 0.035148956
0.03848674 0.04673704 -0.038906366 0.0040227924 0.040207524 -0.019465487 -0.04536633 0.026136843
-0.05194809 -0.03281305 0.03300097 -0.035041638 0.017420243 -0.008882889 0.037939124 0.0014288957
-0.02311431 -0.05930063 -0.03765983 0.056088686 -0.049580485 0.012421354 0.004144707 0.05630082
0.04891991 0.06349908 -0.066418484 -0.035095874 -0.012046069 0.0077044475 0.011611937 0.004786304

weight f4 [64, 64, 3, 3]
00000000: 22e7 22bc e180 ad3c 5d23 e239 0e7d 653b
00000010: 8bb2 0bbd 4750 f03c b042 84bc 908d b5bc
00000020: c8c6 f2bb 3143 533d 4ec1 063d f9f2 06bc
00000030: c7dd 483d c46d 0e3d 56eb d73c d161 c33c
00000040: 44ed f73c f3ef 603d a69f 01bb 2ea0 09bd
00000050: cbe3 06bd 78b6 07bd 94c6 c2ba afbb e8bb
00000060: 694a 49bd fa98 e93c 5747 42bd 5330 dd3b
00000070: 6fe7 f2bc 7247 0fbb 963e cb3c d2a5 a8bc
00000080: 6c26 223d 5c10 41bc 9736 08bd 2547 15bd
00000090: 4788 d93c c92f 1fbd fa09 063d baf0 3dbc
000000a0: bc89 0cbd 64fd efbc 03f5 15bd 7479 d93c
000000b0: 036e 0dbd 5aba d6bc 9660 9e3c 39b9 8a3c
000000c0: 48c2 bf3c 1e02 3f3c dff9 29bb ef4d 07bd
000000d0: 9c22 133d 73f9 a13c 9f14 51bc 3b33 29bd
000000e0: 932b c63b 9d06 99bc f294 2dbd f01d 0dbd
000000f0: 2a8f e6bc 0ad4 d33c 9448 ea3c a936 37bc
00000100: 256b 293d 46c4 f23c 8263 16bc 9966 cd3c
00000110: 401f 093d 69d0 d43c b420 89bc 0d44 ea3c
00000120: f27d fc3c 877d b7bc 121f a0bc 935a c0bb
00000130: bf13 56bb 447d e93c a142 66bc 9dbe 02bd
00000140: 30ae 25bd 485f 02bd 88db 2fbd c31f b03c
00000150: 804f a5bc bfa4 acbc b90e b1bc 6530 553c
00000160: a1dc 8ebc 72e7 2cbd f3bd 48bc c17e 63bc
00000170: e14a 723c 4469 d6bc c04b dc3b 0098 0bbd
00000180: 96a6 dd3c 60f1 a13c 3cd5 22bd 615d b5bc
00000190: 97bb b8bc 27ba a23c f033 6bbc 400a b93c
000001a0: 2be6 febc aedc 52bd 87eb bf3c f6d2 563c
000001b0: bd4e 1d3d 5e83 15bb 6583 fdbc 2e84 5cbc
000001c0: 229e 0e3d 26a4 cebc 3dc4 ba3c c2bb 96bc
000001d0: 15e0 fabc dd53 f4bc 968d b7bc a57d ac3b
000001e0: 8628 0e3c e525 d43c 2ec1 7abc 3630 053d
000001f0: e05c 323c 0453 ae3c 44e9 0fbd 7144 16bd
00000200: 6a7e c7bc 7d18 0e3d 8d79 57bc 419c 78bc
00000210: 9bca edbb 0cb3 04bd 6fa6 253b 39fb 40bc
00000220: 15ad 27bd 3245 f4bc 6ce0 6fbd 122a 79bd
00000230: e8a2 5bbd 1dc2 063c f1a8 813a f4f8 393c
00000240: db80 723c 426e e7bc 0c50 c0ba 95b1 0fbd
00000250: b9b5 e43b ff66 053d d3c2 0a3d 2990 1bbd
00000260: c66e abbc b134 ef3c 8566 b0bc a3cb dfbc
00000270: 0413 94bc c4ae 443b d04e 80bc b3d9 41bc
00000280: 34bb d23b c67c 2dbc 1eac 0fbc 95f1 603c
00000290: 33be 0e3d 3940 393c 799b 5ebc dc1e 483c
000002a0: 611f 713c 11eb 92bb 3028 043d 70f3 8e3c
000002b0: b405 3a3b 457a f5bc 04b3 76bc 9e4c 66bc
000002c0: 21d8 f53c 5ee3 4ebc 94b3 7b3c af37 913c
000002d0: 3ac9 6abb 59e9 76bc b965 82bc 30b3 dbbc
000002e0: 1f92 0cbd ed83 ddbc d836 dfbc b15f 24bd
000002f0: 5d54 2dbd 432e 933c fd7e 7f3c 2419 cc3c
00000300: 42df 62bb c206 44bc 61cb 0bbd 5631 e6bc
00000310: ef1f 4dbc 3dc9 f1bc d90c 0f3d e3f3 203d
00000320: 7074 98bc 7104 153d 0048 03bd b471 d13c
00000330: 2315 63bc 3afa e2bc ac83 0cbc 53c7 ee38
00000340: da46 52bc 4056 02bd 795c 993c 1c02 28bd
00000350: 4592 9dbc 0f5b 0bbd 42d2 02bd 1ede 683c
00000360: 98b2 d53c 5193 1abd a7a0 93bc cdd2 023d
00000370: cb25 e03c 93b5 95bc 8fdb 27bb 281a cbbc
00000380: aa87 fb3c 8080 eabc dc25 6e3c 29bc d83c
00000390: 5a57 94bc 4829 de3c 2fca e938 9a42 35bd
000003a0: 7f35 593c 3a6e 00bb 8852 c63b f688 78bc
000003b0: 7961 093d c729 0cbd 6e04 18bd a77e 063d
000003c0: 56fc 4dbc 750c 0b3d 5786 0d3d 121b 9e3c
000003d0: c597 cabc 75b3 c0bc c311 ee3c 8b25 18bd
000003e0: b010 693c bb6b 88bc bec6 18bd 029b 4e3c
000003f0: 4a3d 01bd ca81 4f3c 3819 e13c af99 8abc
-0.009942802 0.021179618 0.00043132427 0.0035017165 -0.03410582 0.029335154 -0.01614508 -0.022162229
-0.0074089505 0.05157775 0.032899193 -0.00823664 0.04903963 0.03477265 0.026357334 0.023850353
0.030264504 0.054916333 -0.0019778996 -0.033600025 -0.032932084 -0.033133 -0.0014860206 -0.0071024518
-0.04914323 0.028515328 -0.047431316 0.0067501455 -0.029651372 -0.0021862653 0.024810117 -0.020586882
0.039587423 -0.011783686 -0.033255186 -0.0364448 0.02655424 -0.03886393 0.03272436 -0.011593038
-0.03431104 -0.02929563 -0.036610615 0.026547171 -0.034528743 -0.026211906 0.019333165 0.016934024
0.02340807 0.01165822 -0.0025936288 -0.033033308 0.035921678 0.019772267 -0.012761264 -0.041308623
0.006047675 -0.018679911 -0.042378373 -0.03445238 -0.028144438 0.025857944 0.028599061 -0.011182466
0.041361947 0.029634606 -0.009178998 0.025073336 0.033477068 0.025978284 -0.016739227 0.028596902
0.030821774 -0.022398723 -0.019546065 -0.0058701723 -0.0032665578 0.028502114 -0.0140539715 -0.031920064
-0.04044932 -0.03182915 -0.04293397 0.02149952 -0.02017951 -0.02107465 -0.021613466 0.013012026
-0.017439188 -0.04221291 -0.012252319 -0.013885201 0.01478836 -0.026173241 0.0067228973 -0.034080505
0.027056973 0.019768417 -0.039754137 -0.022139253 -0.022550387 0.019864155 -0.014355645 0.022587895
-0.031115612 -0.051479988 0.023427738 0.01311182 0.03840517 -0.0022813897 -0.030946443 -0.0134592485
0.034818776 -0.025224756 0.022798652 -0.018400077 -0.030624429 -0.029825145 -0.02240638 0.0052640014
0.008676654 0.025896976 -0.015304847 0.03251668 0.010886401 0.02127982 -0.03513457 -0.036686365
-0.024352271 0.034691323 -0.013151539 -0.015173973 -0.0072568185 -0.032397315 0.0025276204 -0.011778646
-0.04093655 -0.029818151 -0.058563635 -0.060831137 -0.053622156 0.008224991 0.0009892267 0.011350859
0.014801229 -0.028250817 -0.0014672293 -0.035081465 0.006979671 0.032568928 0.033877205 -0.03797928
-0.020926844 0.02919993 -0.02153326 -0.027318781 -0.018075474 0.0030011395 -0.01566258 -0.011831689
0.0064310078 -0.01058883 -0.008769063 0.013729473 0.034849357 0.011306816 -0.013586872 0.012214389
0.014716954 -0.0044835885 0.03226489 0.017450064 0.0028384747 -0.02996553 -0.015057329 -0.014056353
0.030010285 -0.012627451 0.015362639 0.017726747 -0.0035825507 -0.015070283 -0.015917646 -0.026818842
-0.03431904 -0.027040446 -0.027247831 -0.04013032 -0.042316783 0.017966395 0.015594241 0.024914332
-0.0034617935 -0.011964502 -0.034129504 -0.028099697 -0.012519821 -0.029514903 0.03492436 0.03929509
-0.01861021 0.03638119 -0.032051086 0.025566913 -0.01386002 -0.027707208 -0.008576315 0.000113858514
-0.012834275 -0.031820536 0.018720852 -0.041017637 -0.019234786 -0.034022387 -0.0319388 0.014213113
0.026086137 -0.037738148 -0.018020941 0.031939317 0.027361771 -0.018275058 -0.0025613045 -0.024792746
0.030704338 -0.028625727 0.014535394 0.02645691 -0.018108059 0.027119294 0.000111479654 -0.04425297
0.013257383 -0.001959695 0.006052319 -0.015169373 0.033540223 -0.03421953 -0.0371136 0.03283563
-0.012572369 0.033947427 0.034551945 0.019300018 -0.024730572 -0.023523072 0.029061204 -0.03714518
0.01422517 -0.016652932 -0.03729891 0.012610199 -0.03155259 0.0126652215 0.027477846 -0.016918985

bias f4 [64]
00000000: 8528 edbc 9abe 5f3d c9c2 47bc dd17 04bd
00000010: 794a 93bb 26b8 04bc da3a f5ba c5d3 4ebc
00000020: 2481 cbbb ff33 debc 1518 993b 7c4e 61bd
00000030: 6c83 4f3d 01d6 103c 73f1 c7bc e507 aebc
00000040: 34a9 1d3d 858d 273d 1db4 b03c 2e27 88bc
00000050: 6a37 8fbc f6d9 1dbd 9e4b cbbc 8581 283c
00000060: 012b 7bbc db52 cabc f474 09bd 813e 853c
00000070: e602 b8bc 932f 3c3c 2048 51bc cc9d c7bc
00000080: 9f98 093d 5642 36bd da28 55b7 49e8 b9bc
00000090: c39e 093d 8906 8e3b f96f 78b9 04de 09bd
000000a0: 1bfb 70bc 478a df3c db7f bc3b f08c 85bc
000000b0: d497 62bb d514 633d 65a0 8cbb da7b 47bd
000000c0: 136b 01bd a6b5 1abd 0902 873c 51a9 57bd
000000d0: 4f4c 02bd 829c 4b3d 8579 3b3d 1f60 0abd
000000e0: 0ee8 463d 56f2 1d3c dcca 9b3c 3b28 a0bc
000000f0: 1af6 043d 4dc2 ddbb 44b2 023c dfc6 dbbc
-0.028949985 0.05462513 -0.0121924365 -0.03224932 -0.004494962 -0.008100545 -0.0018709556 -0.012623732
-0.006210463 -0.027124403 0.0046720603 -0.05500649 0.050662443 0.008840085 -0.024407124 -0.021243999
0.038491443 0.040906448 0.02157026 -0.016620245 -0.017482478 -0.038537942 -0.02481633 0.010284786
-0.015330077 -0.024697712 -0.0335588 0.016265156 -0.02246232 0.011485952 -0.012773544 -0.024367236
0.033592816 -0.044496857 -1.2705301e-05 -0.02269377 0.033598673 0.004334275 -0.00023692836 -0.033658996
-0.014708306 0.027287615 0.0057525462 -0.016302556 -0.003457536 0.05543979 -0.0042915815 -0.0487021
-0.031596255 -0.03777089 0.016480463 -0.052651707 -0.031811055 0.049709804 0.045770187 -0.033783074
0.04856115 0.009640297 0.01901763 -0.019550433 0.032461263 -0.006767547 0.007977072 -0.026828228

weight f4 [64, 32, 2, 2]
00000000: 61d6 2bbd 6928 40bd feff 5a3b 291e 8ebd
00000010: eefa 4fbd 5ed0 bd3c 8e72 7f3d 1991 9cbd
00000020: c2e3 35bd 1725 293d 921f c13d 947f 4e39
00000030: af5f 8dbd ddfc 5f3c 57e8 023d 6cc0 a1bd
00000040: 91b2 583d 9daf 843a 497d 4fbd be46 86bd
00000050: 3748 903d 62f1 68bd 1220 723d 6ebe 09bd
00000060: 3ab5 93bd a111 8cbd 94b4 0bbd f6a9 f8bc
00000070: 9c0e aabd d9b0 02bd 5883 60bb 85a9 64bd
00000080: ef5d b23c 575e f23c 6126 fbbc bdf7 d33c
00000090: f410 203d e98e adbc 4f81 1b3d 3e2e 7a3d
000000a0: d3f8 8d3d f45e b23d 77ac 293d db2d 4a3c
000000b0: d981 e9bc 19db 103c 185a 2dbc 130b 6e3d
000000c0: 1025 20bc d2ef 813d 0ae4 eabc 1641 5aba
000000d0: be1b 1dbd 0eba 02bc f1f9 183d e9a8 bbbd
000000e0: c8be 7b3d 6701 fdb8 dc70 673d c023 5b3d
000000f0: 2b09 3cbd 023d 5bbd 9d3c 9dbd f173 12bd
00000100: 80e0 5ebd 69df 3c3d a7ee 5dbd 10c4 39bd
00000110: e8b2 ac3d 389e 283c 9b7d 6f3b 567a 9b3c
00000120: 6767 08bd 33cf e6bb 53f5 85bc 90fa bb3a
00000130: 3b17 1dbd ecbb 653d ffae 5fbd 6cff 823d
00000140: 6614 043c 2214 bc3d 29d7 edbc a268 a3bc
00000150: c319 d33a 9e5e a6bd d1df 0fbb 543b 9a3d
00000160: 2374 1ebd e39e a1bc f14d cf3a 5a9e 973d
00000170: 2299 503d 0a8b 22bd b748 6dbd 5a2e c8bd
00000180: bf69 85bd 3d1f 9dbd 27ec 5dbc a819 49bd
00000190: 31b3 e1bc 11b9 753d e410 e6bc 3f87 723d
000001a0: 38f5 eebc 6a35 8e3d 422f 9fbd fe57 3dbd
000001b0: 37db 35bc b673 073c 5db5 55bd 29d7 2fbd
000001c0: 97ce 903d 2e35 76bc 1f15 ba3d 7b6b f8bc
000001d0: 129b d0bc 23d1 66bd 39b3 ec3c 2688 3fbd
000001e0: 24a4 88bd 87a9 1bbd b98d d0bc b3d2 6b3b
000001f0: 1828 c8bc fa63 9fbd 8cc8 0bbc bb30 b7bd
00000200: 455d 72bd f646 27bd b5bf 5e3d 5b1c 67bd
00000210: 0077 17bc aede 5f3d c68e 9bbd eb30 ad3d
00000220: 2c2b 8ebd 8bf9 8fbc 2c16 87bd 877e 6bbc
00000230: 8ebc 15bd 9c07 103b f976 3d3d 7435 13bb
00000240: b356 a8bd 1f72 e0bc d528 2b3d 3db8 cf3b
00000250: 29b8 35bd 9185 17bc 0b02 b03d 95d5 a43d
00000260: e2aa 63bd 8a49 6d3d 6e43 843d be1f afbc
00000270: 5e84 aa3d e912 34bd fc6e 8ebd fc64 07bd
00000280: d57f afbd 7588 7cbd 9106 073d 5b42 26bd
00000290: faca 4ebd b94b 503d 6d8c 7bbd 685a 9f3d
000002a0: 91d5 ac3b 529d 32bd e33c a0bd 99ac acbd
000002b0: f6a4 42bd fc8d 9abd 9c4b d2bc 0114 d0bc
000002c0: e1ba 5c3c dfd1 1ebd 8c12 a93d d728 e5bc
000002d0: 6479 373d a920 7fbd 7e64 3dbd c126 8c3d
000002e0: 4f82 213d 8775 89bd b539 853d 61cc 39bd
000002f0: b7e1 cf3b b874 e63c c3ec 97bd 1c8a 813d
00000300: 684c a33d 1d82 70bd 55bf 54bd c272 e1bc
00000310: 48d0 38bd 425a f63c cbbb 113d 01e0 823d
00000320: e4ea 41bd 2270 e73c 3517 8bbd ecba a8bd
00000330: 7359 dbbc 8169 5c3d 772b 2ebd 8579 e83c
00000340: 828c 35bd 2ab9 b3bc c4b9 98bd f7b3 893d
00000350: cd23 463d d156 90bc 2825 923d 248d aebd
00000360: f88a c6bc 7558 f63c 4d8a 83bd 6cfd b63d
00000370: d47c 863c eb20 e63c 01bc b33d 48f5 82bd
00000380: fcf3 853d 787f 503c dee2 993d 9495 ce3c
00000390: 9708 e03c a132 8f3c 9548 a93d d92e 7bbc
000003a0: f5bd aabd 3ddb 483d 2b05 c2bb 1ed5 923d
000003b0: 34db b03c 7ec0 77bd 1d8a ae3d 482f af3d
000003c0: 7389 69bd 8753 583c 0900 57bd b03f aa3d
000003d0: 4379 dc3b 76b5 73bd 232d 013d e862 a63d
000003e0: 44ea aabd 8041 5e3d 6103 a7bd e8c8 b5bb
000003f0: 01c9 9dbd 1f7e efbc 17fa e93c 9162 f03c
-0.041952495 -0.046913538 0.0033416743 -0.06939346 -0.050776415 0.023170646 0.062365107 -0.07644863
-0.04440666 0.041295137 0.0942985 0.00019693217 -0.06903016 0.013671127 0.031959858 -0.0789803
0.05290467 0.0010123138 -0.05065659 -0.06556462 0.07045024 -0.056870826 0.059112616 -0.033628874
-0.072123006 -0.068393 -0.03410776 -0.030354481 -0.08303568 -0.031906936 -0.0034257974 -0.05582573
0.021773307 0.029586 -0.030657949 0.025874967 0.039078668 -0.021186309 0.037965115 0.061079256
0.06932225 0.08709517 0.04142424 0.012340034 -0.028504299 0.008841299 -0.010580562 0.05811603
-0.009774461 0.0634457 -0.02867319 -0.00083257386 -0.038356535 -0.007978929 0.037347738 -0.091630764
0.06146124 -0.00012064241 0.056504115 0.05350089 -0.04590718 -0.05352498 -0.07677577 -0.0357551
-0.05441332 0.046111498 -0.054182675 -0.045352995 0.08432561 0.010291629 0.0036543373 0.018979233
-0.033301737 -0.007043743 -0.016352331 0.0014341641 -0.038352232 0.05608742 -0.05461025 0.06396374
0.008061504 0.091835275 -0.02903326 -0.019947354 0.00161057 -0.081235155 -0.0021953473 0.07530847
-0.038684975 -0.019729083 0.0015816075 0.0740325 0.05092729 -0.03968338 -0.057930674 -0.09774466
-0.0651431 -0.07671974 -0.013545073 -0.049096733 -0.027551265 0.059990946 -0.028084226 0.059211012
-0.029169664 0.06943782 -0.077726856 -0.046226494 -0.011099628 0.008267334 -0.052174915 -0.042929802
0.07070654 -0.015027327 0.0908606 -0.030324688 -0.025464568 -0.056351792 0.028894054 -0.0467607
-0.06671932 -0.03800347 -0.025458204 0.003598374 -0.02443318 -0.07782741 -0.008531701 -0.089448415
-0.05917098 -0.040839158 0.054382045 -0.056423526 -0.00924468 0.054655723 -0.07595591 0.08456596
-0.06941828 -0.017575046 -0.06596026 -0.014373428 -0.036556773 0.0021977192 0.04625604 -0.002246228
-0.082196616 -0.027398167 0.041786987 0.0063391016 -0.044365082 -0.009248153 0.0859414 0.0804855
-0.05558289 0.05793146 0.06458174 -0.02137744 0.08326028 -0.043963347 -0.06954762 -0.03305529
-0.08569304 -0.061653573 0.032965247 -0.040590625 -0.050486542 0.050853465 -0.061413217 0.077809155
0.0052744825 -0.043607064 -0.07824113 -0.08431358 -0.0475206 -0.075466126 -0.025670819 -0.025400164
0.01347229 -0.038774367 0.08255491 -0.027973576 0.0447935 -0.062287007 -0.046238415 0.06843329
0.039430913 -0.0671187 0.06505147 -0.045360927 0.006344046 0.028131828 -0.074182056 0.063251704
0.07973558 -0.058717836 -0.05194028 -0.027520541 -0.045120507 0.030072335 0.035579484 0.063903816
-0.04734315 0.028251711 -0.06791536 -0.082387775 -0.026776051 0.053811554 -0.04252192 0.028378258
-0.04432345 -0.021938879 -0.07457307 0.06723779 0.048373986 -0.017619522 0.07135993 -0.08523014
-0.024236187 0.030071476 -0.06422863 0.08935055 0.016416945 0.028091868 0.08776093 -0.0639444
0.06540677 0.012725703 0.075139746 0.025217809 0.027347846 0.017480196 0.08265797 -0.015330994
-0.08337013 0.049037207 -0.005921026 0.07169555 0.0215889 -0.06048631 0.08522437 0.0855394
-0.057015847 0.013203508 -0.052490268 0.08312929 0.0067283227 -0.059499227 0.031537186 0.081243336
-0.08345464 0.054261684 -0.08154941 -0.0055476315 -0.07704354 -0.029234944 0.028561635 0.029343875

bias f4 [32]
00000000: 98ca 1fbd eb05 cf3d 13da a4bc 35ef 3cbd
00000010: 69bb a73c 3567 08bd 3d94 243c 4a0f 3aba
00000020: 931e 5cbd 9a24 883d cea4 8d3d 9254 aebd
00000030: a3e1 7d3c bb73 893d 3a0b c3bd a40e 16b9
00000040: 9fec b83d d75e debc 7ff0 833c a860 aebd
00000050: 04a2 773c 9939 923d fe04 be3d 47e1 3cbc
00000060: 91b4 64bd 8f0d 3c3d 07b6 723d 246b b63d
00000070: 529d dc3c f05c afbd b737 96bd 3fa5 7a3d
-0.039011568 0.10108551 -0.020123517 -0.046126563 0.020475106 -0.03330155 0.010045108 -0.0007097615
-0.053740095 0.06647606 0.069161996 -0.08512224 0.0154956905 0.06711527 -0.09523626 -0.00014310569
0.09029507 -0.027144833 0.016105888 -0.085145295 0.015114311 0.07139892 0.09278296 -0.01152832
-0.055836264 0.045911368 0.059255626 0.08907154 0.026930485 -0.08562648 -0.073348455 0.061192747
