output/20221201_195248/unet_epoch_1.pth (torch, 481507 bytes, 25 tensors)

weight f4 [16, 1, 3, 3]
0.25477433 0.07011247 -0.27977866 0.115814224 -0.033648383 0.011559245 0.16028783 -0.025416475
-0.21247195 -0.28604132 -0.08680283 -0.12409495 0.08454966 -0.2376098 0.18092139 0.2916118
0.00072322704 0.1618379 0.053689532 0.05440179 0.04230111 0.15784743 -0.10634927 -0.2211346
-0.2606504 0.036453668 -0.1815555 0.26602238 0.17299794 -0.05325979 0.14262278 0.086264715
-0.26525232 0.067767486 -0.27186626 0.014671087 -0.067897975 0.22596022 0.14410874 0.04631702
0.03778238 0.017252443 0.23112938 -0.2191417 -0.29934588 -0.18140694 0.059633967 -0.13289547
0.28874096 0.08003559 -0.04399983 -0.27535334 -0.044793673 0.2737362 0.299981 0.17868315
-0.19843084 -0.17617899 0.17824022 0.31841424 -0.14510073 0.32733878 -0.23072658 0.33004192
-0.042305596 -0.014312133 -0.17608663 0.27347496 0.2787887 -0.26170596 0.10686663 -0.28945726
0.19835472 0.1619189 0.051687755 0.22929887 -0.09729794 0.0037191918 0.2397983 0.2578287
0.00808774 -0.11365138 -0.18350433 -0.20105818 -0.20773053 0.23722114 0.26281205 0.19630326
-0.19969788 0.23164545 0.25338766 0.24459028 -0.095643565 0.31955117 -0.24272063 -0.20641391
-0.0012801313 0.029126968 -0.083218314 -0.0012157662 -0.10614073 -0.12592663 0.16506568 -0.30458298
-0.16941094 -0.24288192 -0.31880936 0.28457922 0.054102708 0.02178819 0.0744903 -0.13455325
0.021333862 -0.31833297 -0.27532473 -0.15220723 0.25815713 0.09753224 0.31317693 -0.28122318
-0.16183631 -0.1259995 -0.13277698 -0.2792121 -0.05140329 0.14557822 -0.19173615 -0.10264425
0.24308805 0.09469295 -0.11771898 0.17001258 -0.1308918 0.13151501 -0.104068 0.33750078
0.021260176 0.17565538 0.0026212886 0.020613857 -0.041191224 0.30995116 -0.044120297 0.33482078
00000000: c871 823e 2097 8f3d 263f 8fbe 0230 ed3d
00000010: e3d2 09bd fd62 3d3c 7e22 243e 3636 d0bc
00000020: 3f92 59be 0274 92be afc5 b1bd 7e25 febd
00000030: 5f28 ad3d fc4f 73be 7543 393e 244e 953e
00000040: f296 3d3a d6b8 253e 8ee9 5b3d 69d4 5e3d
00000050: ee43 2d3d c2a2 213e a5cd d9bd 1c71 62be
00000060: f873 85be 7150 153d afe9 39be 1634 883e
00000070: 5f26 313e f026 5abd b50b 123e 8eab b03d
00000080: 27cf 87be aec9 8a3d 0e32 8bbe 005f 703c
00000090: 180e 8bbd 1e62 673e 3e91 133e eab6 3d3d
000000a0: b2c1 1a3d ff54 8d3c 2ead 6c3e af66 60be
000000b0: dd43 99be bec2 39be bf42 743d c015 08be
000000c0: dbd5 933e b3e9 a33d 2a39 34bd 1dfb 8cbe
000000d0: 9279 37bd 2727 8c3e 1c97 993e b7f8 363e
000000e0: 7431 4bbe 4468 34be 9b84 363e 3107 a33e
000000f0: 4995 14be f398 a73e 9743 6cbe 41fb a83e
00000100: a248 2dbd 707d 6abc 0e50 34be e904 8c3e
00000110: 64bd 8e3e 53fe 85be e4dc da3d be33 94be
00000120: 801d 4b3e 11ce 253e 8ab6 533d 53cd 6a3e
00000130: 2444 c7bd afbd 733b b08d 753e 2002 843e
00000140: 7182 043c 0ec2 e8bd 8fe8 3bbe 32e2 4dbe
00000150: 50b7 54be 19ea 723e 4d8f 863e b903 493e
00000160: 9a7d 4cbe 7734 6d3e 07bc 813e e075 7a3e
00000170: c6e0 c3bd 369c a33e c28b 78be 2b5e 53be
00000180: 14ca a7ba ae9b ee3c 5d6e aabd 585a 9fba
00000190: 5060 d9bd e9f2 00be fa06 293e 4df2 9bbe
000001a0: 107a 2dbe 0ab6 78be fb3a a3be 5eb4 913e
000001b0: cd9a 5d3d 257d b23c 5f8e 983d 54c8 09be
000001c0: 5ac4 ae3c 8afc a2be 5df7 8cbe 36dc 1bbe
000001d0: 2c2d 843e fcbe c73d ba58 a03e 7cfc 8fbe
000001e0: 6bb8 25be 0306 01be b0f6 07be e3f4 8ebe
000001f0: 428c 52bd 7512 153e 7b56 44be 2637 d2bd
00000200: 13ec 783e 61ee c13d a616 f1bd c717 2e3e
00000210: 8008 06be dfab 063e 9b21 d5bd e7cc ac3e
00000220: d229 ae3c 01df 333e edc9 2b3b 64de a83c
00000230: 21b8 28bd ebb1 9e3e 7cb7 34bd a16d ab3e

bias f4 [16]
-0.09998294 -0.06161791 -0.31097144 -0.1149563 -0.0032117437 0.32771513 -0.14952053 0.32277894
-0.27015376 -0.09901453 -0.054524034 -0.08492896 -0.2875691 -0.11456693 0.08018415 -0.22981559
00000000: dbc3 ccbd 1063 7cbd a637 9fbe 356e ebbd
00000010: 1e7c 52bb 47ca a73e e91b 19be 4843 a53e
00000020: 9851 8abe 21c8 cabd 9854 5fbd 3cef adbd
00000030: 423c 93be 11a2 eabd 9637 a43d c754 6bbe

weight f4 [16, 16, 3, 3]
0.09115 -0.01877606 0.08999195 0.060408104 -0.027022459 -0.008124391 0.009841751 -0.032797217
-0.017471924 0.046062425 0.05733891 0.035221633 0.003574402 0.016923128 0.0034363398 -0.033147845
-0.011742385 0.0892276 0.0075546554 -0.07216036 0.003773594 0.02226297 0.06897823 -0.02534791
0.033737466 0.06935087 -0.041875485 0.009324152 -0.027576748 0.072930306 0.032803185 -0.045224495
0.08301009 -0.04386919 0.035883643 0.059337758 0.072859816 -0.014602376 -0.050378397 0.064093046
-0.05727479 0.027394742 0.07209924 -0.013102971 0.04395311 0.024663433 0.06830317 0.0499531
0.0387467 0.05730501 0.054854866 0.061225682 0.07092366 0.06884383 -0.025899878 0.028370209
0.078809686 -0.053329844 0.07917523 0.018951437 0.015459054 0.011145057 -0.053802475 0.08446283
-0.021113772 -0.017394658 0.063418485 0.050302897 0.05121724 0.0031526417 -0.058432855 0.05717046
0.02848342 0.001151776 -0.03276718 -0.014744314 0.016713139 0.0706414 0.004907172 0.06763557
0.05420982 0.023399455 -0.06911766 0.015456421 -0.060504388 -0.03262267 -0.039487004 0.0824614
0.07447714 0.09185305 0.069115944 -0.021217125 -0.043759614 0.06430927 0.015680712 0.08421115
-0.024206309 0.050271813 -0.0069683287 -0.0440517 0.037541833 -0.046508193 0.05381217 -0.031505466
0.07667419 0.06329741 0.051590223 -0.054151155 -0.030253872 -0.037529424 0.0034189306 0.033852167
0.07398532 -0.047004458 -0.008000907 0.048749775 0.08442086 0.072993934 0.0035585894 0.025576139
0.029492052 -0.036927953 0.063472025 -0.013417001 -0.05522445 0.059684206 0.042431023 -0.015907478
0.015889267 0.036376398 -0.0166312 -0.05740956 0.044102717 -0.015415973 0.037058007 -0.047312636
0.0156644 0.051814586 -0.03728292 -0.016701384 -0.058633275 0.07643732 -0.009374178 0.09137752
-0.024333753 0.061464157 0.05289522 -0.063598156 0.07199226 0.025091587 0.016013322 0.021850755
0.07564545 -0.06486563 -0.070495754 0.023594365 -0.06759315 0.060364593 0.04840018 -0.049047995
-0.015073444 0.043758962 -0.03864429 0.047171816 -0.054138638 -0.08241608 0.011884765 0.011357034
-0.03588194 -0.00038301077 -0.004194334 -0.04017524 0.05515097 0.061939016 -0.04627928 0.067996584
-0.06980057 -0.009913435 -0.059169155 -0.05606479 -0.03903296 -0.03192816 -0.027192166 -0.048427362
0.08206304 -0.045532137 -0.07746358 0.069058314 0.060405355 -0.04907019 0.07845981 -0.065641835
-0.015136691 0.059783757 0.071314864 -0.06332896 -0.04419661 -0.020455128 0.014117463 0.07093403
-0.051628485 -0.022441855 -0.02783622 0.08746157 0.034022793 -0.03017975 0.08344388 0.0355094
-0.0589243 0.053106192 -0.04497479 0.048889253 -0.07542731 -0.012606215 -0.058618486 0.08127007
0.028230973 0.04549151 -0.053942017 0.052141126 0.006409673 -0.05357817 -0.033832934 0.05458667
-0.010582529 -0.05818608 0.008153478 0.009635715 0.0103739165 -0.05513397 -0.019995093 -0.061694145
-0.08038123 -0.059871014 -0.06115394 -5.8796286e-05 0.02608087 0.075790785 -0.07830236 0.03681995
0.060320172 -0.030783525 -0.038956378 0.0005132723 0.014584668 -0.006645096 0.052216448 -0.02982689
0.0527183 -0.056430392 0.014327601 0.06449595 0.008653766 -0.07459413 0.069590904 -0.019787014
00000000: daac ba3d 40d0 99bc b34d b83d 7d6e 773d
00000010: 345e ddbc 2a1c 05bc 4c3f 213c 6056 06bd
00000020: 4821 8fbc f4ab 3c3d 34dc 6a3d 8f44 103d
00000030: 8440 6a3b 5fa2 8a3c 3734 613b 09c6 07bd
00000040: 2263 40bc f6bc b63d 0b8d f73b d0c8 93bd
00000050: 674e 773b d560 b63c 7544 8d3d 6ca6 cfbc
00000060: 4c30 0a3d d407 8e3d a185 2bbd 54c4 183c
00000070: a2e8 e1bc 7c5c 953d a25c 063d 523d 39bd
00000080: 3201 aa3d 2eb0 33bd bafa 123d 260c 733d
00000090: 8737 953d ce3e 6fbc 9459 4ebd 3743 833d
000000a0: f898 6abd f06a e03c c4a8 933d d8ad 56bc
000000b0: 2d08 343d f80a ca3c 88e2 8b3d 9f9b 4c3d
000000c0: dcb4 1e3d a8b8 6a3d 7faf 603d c8c7 7a3d
000000d0: 6d40 913d fefd 8c3d fb2b d4bc a468 e83c
000000e0: f966 a13d 6570 5abd 9f26 a23d 0b40 9b3c
000000f0: f947 7d3c c299 363c fc5f 5cbd d9fa ac3d
00000100: caf6 acbc 3e7f 8ebc 8de1 813d 690a 4e3d
00000110: 2bc9 513d 8d9c 4e3b 4a57 6fbd 922b 6a3d
00000120: 1056 e93c 31f7 963a e136 06bd 2392 71bc
00000130: fee9 883c 70ac 903d 58cc a03b 8584 8a3d
00000140: 1e0b 5e3d 37b0 bf3c 8f8d 8dbd ee3c 7d3c
00000150: 73d3 77bd 599f 05bd 20bd 21bd 86e1 a83d
00000160: 7987 983d 741d bc3d a98c 8d3d 89cf adbc
00000170: 483d 33bd 94b4 833d d674 803c e576 ac3d
00000180: 4f4c c6bc d1e9 4d3d 9456 e4bb 8e6f 34bd
00000190: 77c5 193d 607f 3ebd 266a 5c3d e00b 01bd
000001a0: 5c07 9d3d 13a2 813d 4550 533d 9acd 5dbd
000001b0: f8d6 f7bc 74b8 19bd 2310 603b 92a8 0a3d
000001c0: 9e85 973d bf87 40bd 3c16 03bc d8ad 473d
000001d0: d8e4 ac3d d87d 953d 3937 693b 0d85 d13c
000001e0: 5199 f13c c441 17bd 9ffd 813d fbd2 5bbc
000001f0: 0833 62bd 6d77 743d 27cc 2d3d 6650 82bc
00000200: 352a 823c 6bff 143d 283e 88bc 4926 6bbd
00000210: 0da5 343d 4793 7cbc 23ca 173d e5ca 41bd
00000220: a152 803c 883b 543d fab5 18bd 57d1 88bc
00000230: 7229 70bd 2b8b 9c3d 2796 19bc 2324 bb3d
00000240: 9457 c7bc d7c1 7b3d a9a8 583d c03f 82bd
00000250: ae70 933d df8c cd3c 5f2e 833c 5b00 b33c
00000260: 00ec 9a3d 45d8 84bd 1460 90bd f848 c13c
00000270: 476e 8abd dd40 773d 443f 463d 8de6 48bd
00000280: 9bf6 76bc 993c 333d 7a49 1ebd 3c37 413d
00000290: 7ac0 5dbd c3c9 a8bd 51b8 423c da12 3a3c
000002a0: f1f8 12bd d6ce c8b9 a070 89bb cb8e 24bd
000002b0: fce5 613d c4b3 7d3d 588f 3dbd cb41 8b3d
000002c0: 9af3 8ebd f66b 22bc 5b5b 72bd 31a4 65bd
000002d0: 06e1 1fbd 1ac7 02bd 1bc2 debc c55b 46bd
000002e0: ab10 a83d e87f 3abd 3aa5 9ebd 726e 8d3d
000002f0: 9b6b 773d d3fd 48bd 89af a03d 3a6f 86bd
00000300: e2ff 77bc d0df 743d 870d 923d 9db2 81bd
00000310: 8107 35bd 8391 a7bc ee4c 673c dc45 913d
00000320: 6478 53bd fbd7 b7bc c908 e4bc 0d1f b33d
00000330: 7c5b 0b3d 863b f7bc a0e4 aa3d 4e72 113d
00000340: 9b5a 71bd e185 593d 7c37 38bd 1940 483d
00000350: a279 9abd 4c8a 4ebc f019 70bd ec70 a63d
00000360: a444 e73c 4e55 3a3d 4ef2 5cbd ef91 553d
00000370: 3c08 d23b c874 5bbd 6794 0abd 4696 5f3d
00000380: 5862 2dbc 8754 6ebd 2a96 053c 1edf 1d3c
00000390: 5cf7 293c 28d4 61bd c0cc a3bc 00b3 7cbd
000003a0: ea9e a4bd 4f3b 75bd 8e7c 7abd 089c 76b8
000003b0: 8ca7 d53c 3338 9b3d fd5c a0bd 84d0 163d
000003c0: 4912 773d bb2d fcbc b990 1fbd 1f8d 063a
000003d0: 88f4 6e3c 1bbf d9bb eae0 553d 8657 f4bc
000003e0: 25ef 573d 8e23 67bd 50be 6a3c 7416 843d
000003f0: 86c8 0d3c cfc4 98bd ad85 8e3d 6018 a2bc

bias f4 [16]
0.088058226 0.07759527 -0.009008908 -0.070862524 0.018868547 -0.055394184 0.026940485 0.026358673
-0.09483682 -0.02302306 0.01916481 -0.029592214 0.02390063 0.04878828 -0.059657533 -0.015572096
00000000: df57 b43d 45ea 9e3d 199a 13bc 5f20 91bd
00000010: 3692 9a3c 03e5 62bd 4bb2 dc3c 25ee d73c
00000020: cf39 c2bd db9a bcbc 85ff 9c3c 5f6b f2bc
00000030: 41cb c33c 38d6 473d 755b 74bd 1b22 7fbc

weight f4 [32, 16, 3, 3]
0.0314108 0.036682803 -0.074993044 0.07742403 -0.0008058166 0.012662705 -0.033337936 0.08585074
-0.022448236 0.07739512 0.03763563 0.020538077 -0.004208144 -0.025235375 -0.015314083 0.04045263
0.04448102 -0.0060076327 -0.0067285523 -0.041969243 -0.0773138 -0.0119466195 0.009394011 -0.045705963
0.07504272 -0.00598305 -0.040550224 -0.0826303 -0.01118521 -0.021651987 -0.040940233 0.032072943
-0.05894932 -0.07346106 -0.08950803 -0.007916197 -0.079200126 0.07083896 -0.013547234 -0.048294574
0.05776579 0.071655214 0.07867458 0.018173736 0.03787877 -0.0080983285 0.058102407 0.07417246
-0.015003593 -0.06513841 -0.081757516 -0.076084666 -0.033271693 0.055543765 0.037244648 0.0012402289
0.041449655 -0.04390776 0.026135787 -0.037406914 -0.034673277 0.06940501 0.061270207 0.044052925
0.005093714 0.04963754 0.054685988 0.04766829 0.054402694 -0.023790952 -0.07119347 0.04059415
0.035025258 0.0057236245 0.00076868664 -0.041451916 0.048802678 -0.07506582 0.02079654 -0.011577937
0.019989027 -0.04499277 -0.07525543 -0.0101241125 -0.030879823 0.06082914 0.07231746 -0.021051953
0.058057256 -0.024301099 0.08066222 0.002373776 0.054359235 0.079650775 0.021460364 0.035870876
-0.050396208 -0.008205019 0.002021253 0.008705733 0.021336598 0.048206538 -0.041312873 0.064125784
-0.07360397 0.035330456 -0.06809487 -0.0088435 0.035992216 -0.06541618 -0.07406065 0.030961324
-0.037728325 0.03855534 0.08570245 0.01621424 0.015099314 0.0152024375 0.058436513 -0.021281727
0.026872355 -0.071752004 0.043780494 0.016442936 0.07266085 -0.0023144288 -0.026990337 -0.0070434534
0.015422726 -0.074180625 -0.088257596 0.06023199 0.06878952 0.029879788 -0.022533547 0.034460057
-0.036339812 0.07104015 -0.0032882986 0.03965075 -0.06688257 0.06272242 -0.004402551 0.022531293
-0.030245418 0.02176009 0.066919856 0.007723623 -0.021168334 -0.08395574 0.06033667 -0.065327026
0.051931538 -0.030695792 0.02505739 -0.08288671 -0.012757607 -0.029877063 -0.009802553 0.07621397
-0.0022847396 -0.035585787 0.04571351 -0.044182647 -0.0075687626 0.031517822 -0.011451333 0.07233302
-0.039082028 0.04669163 -0.003976646 -0.02873917 0.07320633 0.0852677 -0.039848536 0.010232111
0.084560536 -0.06338937 -0.019291384 0.05644522 -0.008582423 0.013840534 -0.03463373 -0.02137856
0.06651255 0.05701805 0.011206269 -0.024192574 0.041255318 0.054146625 -0.064647175 0.07284454
-0.04811727 0.052512188 -0.06796811 0.08007757 0.02939701 0.00044097746 -0.0035029538 0.07994394
0.028896676 -0.012377583 0.007397648 -0.04483748 -0.058359455 0.080528274 0.06444147 -0.05071164
0.081724145 -0.004532959 -0.0051308195 -0.052546013 -0.044927865 0.05285022 -0.06581279 0.01760386
0.0485953 -0.061584976 0.05171373 0.07666841 -0.029278288 -0.0596056 -0.042428404 -0.013676745
-0.021962384 -0.06173036 -0.07575635 -0.0728293 0.041775722 -0.02210828 -0.01483936 0.048584603
-0.06873387 0.06786758 -0.038635157 0.028367387 -0.04315947 0.030277826 0.008354752 -0.04214502
-0.07218251 -0.08785744 0.06584777 -0.07050145 0.008620152 -0.020243214 -0.08239923 -0.026036331
-0.0016397753 0.012132084 -0.015810337 0.0454071 -0.079927385 -0.011356081 0.010633607 -0.03862801
00000000: 9ca8 003d b540 163d f495 99bd 7d90 9e3d
00000010: 703d 53ba 3c77 4f3c 5c8d 08bd 83d2 af3d
00000020: 5de5 b7bc 5581 9e3d d227 1a3d 783f a83c
00000030: 78e4 89bb 6bba cebc ebe7 7abc a8b1 253d
00000040: bb31 363d addb c4bb 307b dcbb f1e7 2bbd
00000050: b356 9ebd c1bb 43bc 57e9 193c 2d36 3bbd
00000060: ffaf 993d 760d c4bb fe17 26bd 133a a9bd
00000070: 2c42 37bc 825f b1bc f2b0 27bd eb5e 033d
00000080: d874 71bd c172 96bd fc4f b7bd f0b2 01bc
00000090: ad33 a2bd 0414 913d 38f5 5dbc 88d0 45bd
000000a0: d29b 6c3d f8bf 923d 2320 a13d 16e1 943c
000000b0: c526 1b3d daae 04bc cafc 6d3d bbe7 973d
000000c0: a1d1 75bc 4967 85bd 7c70 a7bd 47d2 9bbd
000000d0: e647 08bd dc81 633d d88d 183d 2d8f a23a
000000e0: 1dc7 293d a0d8 33bd b81a d63c fe37 19bd
000000f0: 9105 0ebd 3724 8e3d 78f6 7a3d d770 343d
00000100: 2ce9 a63b bc50 4b3d 6afe 5f3d d33f 433d
00000110: 5cd5 5e3d 3ee5 c2bc e2cd 91bd 0d46 263d
00000120: a576 0f3d 3e8d bb3b b081 493a 7cc9 29bd
00000130: 51e5 473d 1cbc 99bd 815d aa3c 63b1 3dbc
00000140: 07c0 a33c 574a 38bd 851f 9abd 9bdf 25bc
00000150: aff7 fcbc fa27 793d 2d1b 943d 2575 acbc
00000160: 72cd 6d3d 1913 c7bc 3c32 a53d 5a91 1b3b
00000170: caa7 5e3d f21f a33d a5cd af3c 57ed 123d
00000180: 416c 4ebd 586e 06bc 0077 043b 7ea2 0e3c
00000190: 17ca ae3c 3874 453d b037 29bd 6154 833d
000001a0: aebd 96bd abb6 103d 5375 8bbd 54e4 10bc
000001b0: 936c 133d ebf8 85bd 1cad 97bd 9aa2 fd3c
000001c0: 0489 1abd 34ec 1d3d c484 af3d bad3 843c
000001d0: 1d63 773c a513 793c 205b 6f3d 0457 aebc
000001e0: 6a23 dc3c b7f2 92bd 2d53 333d 56b3 863c
000001f0: 36cf 943d acad 17bb d71a ddbc c5cc e6bb
00000200: 9aaf 7c3c 03ec 97bd 66c0 b4bd d2b5 763d
00000210: 85e1 8c3d 75c6 f43c 4698 b8bc fd25 0d3d
00000220: 0ed9 14bd 807d 913d 7f80 57bb d368 223d
00000230: bbf9 88bd 9d74 803d 4643 90bb 8c93 b83c
00000240: 3dc5 f7bc 3742 b23c 470d 893d 7216 fd3b
00000250: 3769 adbc fdf0 abbd 9623 773d 2dca 85bd
00000260: 2ab6 543d be75 fbbc 2845 cd3c 82c0 a9bd
00000270: 4805 51bc bec0 f4bc e39a 20bc 1216 9c3d
00000280: 92bb 15bb 67c2 11bd 173e 3b3d ddf8 34bd
00000290: 6203 f8bb d518 013d 5f9e 3bbc 5623 943d
000002a0: 7a14 20bd b93f 3f3d 864e 82bb 686e ebbc
000002b0: 33ed 953d d5a0 ae3d 3838 23bd 96a4 273c
000002c0: 132e ad3d 49d2 81bd f708 9ebc 1a33 673d
000002d0: 4b9d 0cbc 68c3 623c 19dc 0dbd 1722 afbc
000002e0: bb37 883d c28b 693d 809a 373c 812f c6bc
000002f0: 56fb 283d dac8 5d3d bd65 84bd 852f 953d
00000300: 9d16 45bd 0517 573d dd32 8bbd b6ff a33d
00000310: 00d2 f03c fe32 e739 d091 65bb a6b9 a33d
00000320: b9b8 ec3c 59cb 4abc f867 f23b 81a7 37bd
00000330: 530a 6fbd 02ec a43d e4f9 833d 02b7 4fbd
00000340: fd5e a73d 3789 94bb 6f20 a8bb 7d3a 57bd
00000350: 4806 38bd 7979 583d dbc8 86bd f835 903c
00000360: de0b 473d 8740 7cbd c7d1 533d 5404 9d3d
00000370: 05d9 efbc 0025 74bd 68c9 2dbd 6d14 60bc
00000380: 75ea b3bc f9d8 7cbd 2526 9bbd 8727 95bd
00000390: 051d 2b3d 6c1c b5bc c920 73bc a600 473d
000003a0: 58c4 8cbd 28fe 8a3d e63f 1ebd b962 e83c
000003b0: fcc7 30bd 3409 f83c 5fe2 083c 42a0 2cbd
000003c0: 6cd4 93bd 9aee b3bd 32db 863d 1063 90bd
000003d0: 8a3b 0d3c 19d5 a5bc edc0 a8bd 254a d5bc
000003e0: bbed d6ba a6c5 463c ae84 81bc ccfc 393d
000003f0: f8b0 a3bd db0e 3abc 9538 2e3c 6738 1ebd

bias f4 [32]
-0.043877628 -0.041082326 -0.08579093 0.030037861 -0.008830707 0.01749258 -0.030475233 -0.06299695
0.044241697 0.074881814 -0.0010840145 -0.03519091 -0.032662697 -0.014093575 -0.02608961 0.05335781
-0.018477786 -0.0250071 0.03338195 -0.02963877 0.06335177 -0.06915324 0.02136841 0.031594533
0.0062933653 0.00167658 -0.05533687 0.055277754 0.060426217 -0.039014194 -0.011975419 0.079308085
00000000: 07b9 33bd f145 28bd 28b3 afbd f611 f63c
00000010: abae 10bc 994c 8f3c 32a7 f9bc 8b04 81bd
00000020: c836 353d a35b 993d 7e15 8eba 5824 10bd
00000030: 52c9 05bd bde8 66bc e1b9 d5bc b88d 5a3d
00000040: ba5e 97bc b1db ccbc 83bb 083d 01cd f2bc
00000050: 93be 813d 37a0 8dbd ce0c af3c 4569 013d
00000060: 9338 ce3b b1c0 db3a eaa8 62bd ed6a 623d
00000070: 7b81 773d 59cd 1fbd 8c34 44bc 476c a23d

weight f4 [32, 32, 3, 3]
0.032135002 -0.03948871 -0.043506715 -0.018966015 -0.04674768 0.032780807 0.0015333989 0.013011386
-0.042744953 0.012506608 -0.016209 -0.03177952 -0.005470005 0.010407288 0.042893745 0.04353521
0.060182914 -0.020406993 0.0036836597 -0.05209086 0.050674908 -0.026657192 0.04156254 -0.04453827
0.053345446 -0.04595739 -0.034385502 0.037839226 -0.044235975 0.05390014 -0.006084831 -0.017047415
-0.043347068 -0.010285669 -0.021280272 -0.017878363 -0.037612848 0.032586906 -0.021554692 -0.025631784
0.044404615 0.016094746 -0.030427134 -0.026709894 -0.044789508 -0.031390846 0.01957894 0.013438354
-0.00405304 0.024768732 0.054219004 -0.014951793 -0.042247567 0.018887755 -0.02760393 -0.056950163
-0.006130974 -0.0030838961 -0.006443144 0.038326047 0.04770254 -0.014627691 0.0021637934 -0.017321665
-0.026987975 0.005642059 -0.02815912 0.010348029 0.055760372 -0.056090914 -0.0014445313 0.025382448
0.01246598 -0.028084934 -0.032020517 0.050658826 0.027407054 -0.023005016 -0.034826588 0.042866807
0.029311793 -0.021268452 -0.043840393 0.014005447 0.051108 0.015974332 -0.032091573 0.033030238
-0.031845104 0.04315771 -0.008199992 -0.04125113 0.011190155 -0.02889809 -0.005242864 0.03473426
-0.039669078 -0.034095183 0.034911696 0.0100471135 0.037148688 -0.046606723 -0.012961708 0.009618782
0.033741545 0.035446186 -0.040521517 -0.023037925 0.054652642 -0.018024363 -0.046730153 -0.035882585
0.03378682 0.0050710673 -0.016614841 -0.0064617423 -0.007955454 0.055380307 -0.0376454 -0.043200243
0.048190538 -0.016893027 0.024776632 0.0059980717 0.021613294 0.06442956 0.011961945 -0.04893407
0.02246012 -0.017390495 0.0393964 0.00035879813 0.020709898 0.02814817 0.014193264 0.057646733
0.04321964 -0.019272175 -0.039944977 -0.03412245 0.06406344 -0.038333032 -0.04078775 -0.006557268
-0.0059519247 0.009923559 -0.00023537158 0.031206999 -0.004392726 0.04504942 0.022701502 0.041683286
-0.0020890774 0.053605013 0.017522616 -0.02052972 -0.006988055 0.037451252 0.052114673 -0.024159102
0.058215737 0.06078989 -0.0088388985 0.06101109 -0.011019444 -0.020442974 0.009970247 -0.036945265
0.028178262 0.014967247 0.02911592 0.052719805 -0.016090447 0.06008627 -0.017968912 -0.0047483337
-0.032229953 -0.003840549 -0.051868577 -0.003260908 -0.008595306 -0.028961329 -0.022483675 0.003523124
0.031122517 -0.017688194 -0.019806141 -0.00016201446 0.033515435 0.019041885 0.01065293 -0.03979299
-0.006163393 -0.010906267 -0.013232398 0.020244882 0.0144587355 0.011271188 0.018904457 -0.026546925
0.057139218 0.035150405 0.009408616 -0.02083494 0.054855425 0.06542389 -0.028353142 0.04737727
-0.036084913 -0.006396055 -0.02893901 0.051873554 -0.035160743 0.023237627 0.067033716 -0.037447058
-0.0024512087 -0.05117582 0.03468257 0.059449784 -0.05435172 0.00509182 -0.019667078 0.036531992
-0.006145857 -0.05004605 0.034518972 -0.0054581924 0.01897561 -0.028987892 -0.053528767 -0.018109797
0.019080631 -0.051541064 -0.009414946 -0.03093287 0.05206422 -0.0218586 0.047215506 0.041051302
-0.0024548774 -0.021648489 -0.017669598 0.040584907 0.052221004 0.012060704 -0.0014006308 0.020363687
-0.008957124 -0.039136697 0.0144485235 0.064725265 0.057368916 0.0366819 0.01934758 0.006062056
00000000: fe9f 033d eabe 21bd 1934 32bd 9e5e 9bbc
00000010: 7f7a 3fbd 2b45 063d 54fc c83a b52d 553c
00000020: 5515 2fbd 84e8 4c3c bdc8 84bc 3e2b 02bd
00000030: ba3d b3bb 5483 2a3c 5ab1 2f3d fa51 323d
00000040: 5c82 763d 912c a7bc 8e69 713b 3a5d 55bd
00000050: 7e90 4f3d 2f60 dabc 7b3d 2a3d c36d 36bd
00000060: c180 5a3d d13d 3cbd d0d7 0cbd 4efd 1a3d
00000070: c830 35bd 65c6 5c3d 4363 c7bb 05a7 8bbc
00000080: b28c 31bd 3985 28bc f753 aebc a575 92bc
00000090: ee0f 1abd d979 053d 7793 b0bc bff9 d1bc
000000a0: 9de1 353d 21d9 833c 5342 f9bc b5ce dabc
000000b0: 3475 37bd b093 00bd 0364 a03c 8b2c 5c3c
000000c0: 5dcf 84bb cce7 ca3c bf14 5e3d 5df8 74bc
000000d0: c90b 2dbd 7eba 9a3c a321 e2bc 9344 69bd
000000e0: 56e6 c8bb 311b 4abb 0221 d3bb c6fb 1c3d
000000f0: bd63 433d fca8 6fbc 6ece 0d3b 2ae6 8dbc
00000100: e315 ddbc 05e1 b83b f4ad e6bc c88a 293c
00000110: fd64 643d 96bf 65bd 6d56 bdba daee cf3c
00000120: 1c3e 4c3c 6012 e6bc f227 03bd a17f 4f3d
00000130: c284 e03c 0475 bcbc 53a6 0ebd 1b95 2f3d
00000140: 491f f03c 2d3b aebc fc91 33bd 1a77 653c
00000150: 9f56 513d 9adc 823c 7472 03bd b74a 073d
00000160: 0370 02bd 24c6 303d 4259 06bc f2f6 28bd
00000170: e956 373c b0bb ecbc 55cc abbb 8345 0e3d
00000180: 0b7c 22bd 64a7 0bbd 91ff 0e3d a69c 243c
00000190: 3929 183d b1e6 3ebd 585d 54bc 1998 1d3c
000001a0: 9334 0a3d 0530 113d e4f9 25bd 08ba bcbc
000001b0: 73db 5f3d d4a7 93bc 1e68 3fbd 9ef9 12bd
000001c0: 0c64 0a3d 322b a63b d91b 88bc 06bd d3bb
000001d0: 9857 02bc 76d6 623d 1032 1abd bdf2 30bd
000001e0: 7163 453d 3f63 8abc 5df8 ca3c 798b c43b
000001f0: 5d0e b13c a5f3 833d 09fc 433c 176f 48bd
00000200: 49fe b73c 8376 8ebc 1f5e 213d 121d bc39
00000210: cea7 a93c fe96 e63c dd8a 683c fb1e 6c3d
00000220: 1407 313d aee0 9dbc 589d 23bd fbc3 0bbd
00000230: b133 833d 1903 1dbd 0e11 27bd 5ade d6bb
00000240: 5d08 c3bb 6c96 223c 14ce 76b9 d2a5 ff3c
00000250: dbf0 8fbb be85 383d 80f8 b93c 18bc 2a3d
00000260: e7e8 08bb ee90 5b3d 978b 8f3c f12d a8bc
00000270: 0efc e4bb 7c66 193d 3276 553d 4fe9 c5bc
00000280: a073 6e3d d2fe 783d 07d1 10bc c4e6 793d
00000290: e68a 34bc 0678 a7bc 3f5a 233c eb53 17bd
000002a0: 19d6 e63c 2f39 753c 8384 ee3c b9f0 573d
000002b0: 1dd0 83bc 051d 763d 8a33 93bc e997 9bbb
000002c0: 8e03 04bd b8b1 7bbb 2574 54bd f5b4 55bb
000002d0: 54d3 0cbc 4f40 edbc af2f b8bc 36e4 663b
000002e0: a6f4 fe3c d5e6 90bc 7d40 a2bc 6de2 29b9
000002f0: 7b47 093d bafd 9b3c a089 2e3c f9fd 22bd
00000300: 4af6 c9bb 33b0 32bc b3cc 58bc 98d8 a53c
00000310: 55e4 6c3c caaa 383c 85dd 9a3c f078 d9bc
00000320: d00a 6a3d dff9 0f3d 9926 1a3c 09ae aabc
00000330: 15b0 603d f6fc 853d d944 e8bc ab0e 423d
00000340: c6cd 13bd 0096 d1bb 8111 edbc 5d79 543d
00000350: b604 10bd d65c be3c f948 893d 1662 19bd
00000360: 75a4 20bb bd9d 51bd 4f0f 0e3d 9e81 733d
00000370: e99f 5ebd 48d9 a63b da1c a1bc 92a2 153d
00000380: 2f63 c9bb 16fd 4cbd c463 0d3d a3da b2bb
00000390: bd72 9b3c 0478 edbc fb40 5bbd ff5a 94bc
000003a0: fc4e 9c3c b91c 53bd 2541 1abc ee66 fdbc
000003b0: 4b41 553d cf10 b3bc 0c65 413d 6925 283d
000003c0: 02e2 20bb 2c58 b1bc d5bf 90bc 5c3c 263d
000003d0: b1e5 553d 429a 453c 5f95 b7ba bfd1 a63c
000003e0: e7c0 12bc cd4d 20bd 80b9 6c3c ae8e 843d
000003f0: abfb 6a3d c33f 163d d17e 9e3c 36a4 c63b

bias f4 [32]
0.066999204 0.064056754 -0.061743423 -0.03273176 0.06627906 0.018405212 0.0043120785 0.012320517
0.029519627 0.047076914 -0.03009339 0.022668524 -0.0680964 -0.06273056 -0.05828046 0.061365157
0.03427528 0.017314894 0.023142159 -0.0044524344 -0.03705822 -0.003082015 -0.017105514 0.024895951
-0.003328151 0.012265314 -0.06239671 -0.0550144 -0.045448784 -0.0027186763 -0.05927595 0.045399625
00000000: e136 893d 3030 833d ace6 7cbd bd11 06bd
00000010: 51bd 873d 87c6 963c 564c 8d3b fedb 493c
00000020: 25d3 f13c b9d3 403d 6a86 f6bc 57b3 b93c
00000030: 2076 8bbd e178 80bd 7eb7 6ebd 085a 7b3d
00000040: 3c64 0c3d f7d7 8d3c a094 bd3c bae5 91bb
00000050: 5cca 17bd a2fb 49bb dd20 8cbc 98f2 cb3c
00000060: 1c1d 5abb 75f4 483c b193 7fbd c856 61bd
00000070: 8128 3abd d22b 32bb 57cb 72bd f5f4 393d

weight f4 [64, 32, 3, 3]
-0.044669658 0.04926607 0.0113503365 0.049000293 0.03550832 0.027378863 0.044640556 0.04157583
-4.908361e-07 0.010737845 -0.038265653 -0.023414059 -0.028045697 -0.021275735 -0.013543444 -0.020755809
-0.04908295 0.058641363 0.026147682 0.04807172 0.042873394 -0.008808432 -0.01920029 0.013074592
0.00063932844 -0.04425939 0.012549098 0.0622979 -0.013313885 0.05902838 0.00083830114 -0.043157734
0.061149996 0.0330807 -0.047286917 -0.0008332239 -0.0411029 -0.014847628 0.02024503 -0.048973322
0.047450073 -0.05025073 0.034059234 0.003458831 -0.048171308 0.0051904875 -0.010742306 -0.050849114
-0.0058013196 -0.026466109 0.03288377 0.012810582 -0.0058584996 0.040545974 -0.04359967 0.015392455
-0.0018229766 0.038536105 -0.027429728 0.003654509 0.033110797 -0.021072963 -0.0067549157 -0.028270084
-0.0059977304 -0.010468685 -0.025690902 0.009634773 0.018961877 -0.05435825 0.014835613 -0.028807132
0.03927272 -0.041221105 0.0068644844 -0.028377078 0.031215655 0.01315612 0.009462226 -0.039291315
-0.043576196 -0.023652084 -0.015621342 0.023454338 0.044039473 0.013923853 0.017541861 0.010297589
0.04156432 -0.02347097 -0.008650729 -0.00797686 -0.010954345 -0.05647854 -0.038097795 -0.024301067
0.015250443 -0.0564806 -0.004140033 0.017805086 0.025591237 0.055347886 0.05108056 -0.053076446
-0.028379412 -0.02857869 0.043467075 0.02190826 0.060481377 0.009323737 -0.017785253 -0.02454841
0.024781566 -0.039646197 0.013931043 0.06273532 0.06184429 -0.025158914 0.017222742 0.051315732
0.018228274 0.037741765 -0.04939692 -0.007144817 -0.05089318 0.010232573 0.004491578 -0.009542495
-0.02426732 -0.012316188 -0.029335959 -0.015617366 0.022553451 0.012761882 -0.028840402 -0.040701266
0.034917563 0.023190815 0.016396897 0.030782241 0.046068083 -0.0343574 -0.04521389 0.022852993
0.031307645 -0.03553101 0.03079722 0.049315747 -0.046818428 0.013251989 -0.0072032576 0.03920149
-0.041011535 0.0062930114 0.04047739 0.056946047 0.027343802 0.027962307 -0.0053731217 0.037464816
-0.0508499 -0.020909782 0.053596027 0.0011025035 -0.041842323 -0.052484598 -0.05006322 0.04405128
-0.03797935 0.035641387 -0.037337173 -0.032114483 -0.021858988 -0.051392883 0.050264746 0.0147415055
-0.008230052 -0.003968965 -0.014592284 0.025034586 -0.0434884 -0.05027348 0.014010483 -0.008747462
0.018660776 -0.0030125282 0.016647965 -0.048243478 -0.0042262767 0.02456104 -0.023290142 -0.0102392435
0.039496772 0.0025689497 -0.02233678 -0.04059358 0.02626169 -0.053657196 -0.042094998 0.03772527
-0.020567253 0.020863928 0.052190486 -0.000586173 -0.044241413 0.057856075 0.011940013 -0.0077468124
0.04932206 0.014917031 0.022448119 0.035439327 -0.031443972 0.0024249002 0.023596719 -0.05240185
0.019892653 -0.03135912 -0.05675235 0.020795034 0.04050152 0.037565798 -0.03535088 -0.024689976
-0.0016687363 0.03978014 -0.04584368 0.048594516 -0.06172909 -0.0018660522 -0.026835993 -0.017376697
-0.038477764 -0.014996897 -0.017828146 -0.0084144175 -0.019789778 -0.008694204 0.02668331 0.03095225
0.039529964 -0.05419396 -0.061435334 -0.015766894 -0.032674436 0.0034452006 0.044228934 0.021185875
-0.021226598 -0.04651964 -0.016600674 0.046266615 -0.041288633 0.040161733 0.016712295 0.028665502
00000000: 88f7 36bd 38cb 493d c3f6 393c 88b4 483d
00000010: 2c71 113d a349 e03c 04d9 363d 6b4b 2a3d
00000020: 00c2 03b5 c9ed 2f3c 72bc 1cbd d7ce bfbc
00000030: 17c0 e5bc 734a aebc 52e5 5dbc 1608 aabc
00000040: 340b 49bd ed31 703d aa33 d63c dae6 443d
00000050: 039c 2f3d 3e51 10bc ed49 9dbc d036 563c
00000060: 9b98 273a 5649 35bd bb9a 4d3c 152c 7f3d
00000070: 7b22 5abc bec7 713d 70c1 5b3a 2ac6 30bd
00000080: 6b78 7a3d a17f 073d edaf 41bd b66c 5aba
00000090: 845b 28bd 7743 73bc e8d8 a53c 4098 48bd
000000a0: 025b 423d b6d3 4dbd b281 0b3d 8ead 623b
000000b0: 474f 45bd f714 aa3b 7f00 30bc 2947 50bd
000000c0: ff18 bebb 74cf d8bc 22b1 063d 7ae3 513c
000000d0: a8f8 bfbb 8913 263d 9195 32bd a330 7c3c
000000e0: f2f0 eeba 09d8 1d3d 4fb4 e0bc 7d80 6f3b
000000f0: 309f 073d 35a1 acbc 5758 ddbb aa96 e7bc
00000100: 9c88 c4bb d984 2bbc ba75 d2bc 2bdb 1d3c
00000110: f055 9b3c c2a6 5ebd 1211 733c effc ebbc
00000120: 6fdc 203d 76d7 28bd 78ef e03b 0c77 e8bc
00000130: f9b7 ff3c c48c 573c 7407 1b3c eeef 20bd
00000140: f47c 32bd 04c2 c1bc a8f0 7fbc 5023 c03c
00000150: bc62 343d df20 643c f3b3 8f3c 38b7 283c
00000160: 593f 2a3d 3146 c0bc cabb 0dbc 60b1 02bc
00000170: da79 33bc 0b56 67bd 6f0c 1cbd 0813 c7bc
00000180: fedc 793c 3458 67bd 1da9 87bb f9db 913c
00000190: b7a4 d13c 77b4 623d d939 513d b066 59bd
000001a0: f17b e8bc db1d eabc 880a 323d f478 b33c
000001b0: 52bb 773d 96c2 183c 61b2 91bc bf19 c9bc
000001c0: b602 cb3c 0d64 22bd 083f 643c 607b 803d
000001d0: 7050 7d3d 111a cebc b516 8d3c 7230 523d
000001e0: 7653 953c 1c97 1a3d 6d54 4abd 121f eabb
000001f0: 5e75 50bd 86a6 273c 162e 933b 2058 1cbc
00000200: 42cc c6bc d6c9 49bc f751 f0bc fbdf 7fbc
00000210: 04c2 b83c 3617 513c b542 ecbc 5fb6 26bd
00000220: b805 0f3d aafa bd3c c952 863c 0a2b fc3c
00000230: e3b1 3c3d 58ba 0cbd 3332 39bd 3336 bb3c
00000240: 723c 003d f788 11bd 744a fc3c 4fff 493d
00000250: aec4 3fbd df1e 593c 4e09 ecbb be91 203d
00000260: b6fb 27bd 9b35 ce3b 9fcb 253d 4240 693d
00000270: 1c00 e03c 3511 e53c 0311 b0bb b574 193d
00000280: fc47 50bd fe4a abbc 8287 5b3d e181 903a
00000290: db62 2bbd 17fa 56bd 170f 4dbd 1d6f 343d
000002a0: 3c90 1bbd b4fc 113d ddee 18bd 7a8a 03bd
000002b0: 9f11 b3bc 5881 52bd 68e2 4d3d 5b86 713c
000002c0: 57d7 06bc 170e 82bb 7a14 6fbc 5515 cd3c
000002d0: e420 32bd 91eb 4dbd 3a8c 653c 8451 0fbc
000002e0: 7cde 983c d66d 45bb 5061 883c f49a 45bd
000002f0: 947c 8abb 3c34 c93c f8ca bebc 80c2 27bc
00000300: 5ec7 213d d35b 283b 9ffb b6bc 7445 26bd
00000310: c122 d73c a6c7 5bbd ce6b 2cbd d085 1a3d
00000320: a87c a8bc d4ea aa3c b1c5 553d 67a9 19ba
00000330: 7c36 35bd 7efa 6c3d 0ba0 433c f9d8 fdbb
00000340: ee05 4a3d 9066 743c 1ee5 b73c d428 113d
00000350: 65cb 00bd 13eb 1e3b e84d c13c 52a3 56bd
00000360: ebf5 a23c 6c72 00bd 2775 68bd 595a aa3c
00000370: ece4 253d 98de 193d 16cc 10bd a242 cabc
00000380: 80b9 daba 80f0 223d 95c6 3bbd 0b0b 473d
00000390: a4d7 7cbd 5296 f4ba 28d7 dbbc 9359 8ebc
000003a0: dc9a 1dbd 8cb5 75bc 550c 92bc a0dc 09bc
000003b0: 2c1e a2bc 2272 0ebc f596 da3c 938f fd3c
000003c0: 2cea 213d 7cfa 5dbd 9ea3 7bbd 9329 81bc
000003d0: a1d5 05bd e0c8 613b 6629 353d 008e ad3c
000003e0: 67e3 adbc 618b 3ebd 23fe 87bc 1082 3d3d
000003f0: 451e 29bd a180 243d 39e8 883c ead3 ea3c

bias f4 [64]
0.01135594 -0.031755373 0.042493362 -0.011382319 -0.02834953 0.04475006 0.06986761 -0.02820095
0.06420261 0.00033057528 -0.0018897592 0.023953052 -0.00022691693 0.007464238 -0.01508705 0.021874081
0.03200288 -0.05043969 -0.00021912815 -0.046441007 -0.04244395 0.037420906 -0.051625367 0.021630568
0.017808314 -0.01194403 0.012570745 0.046946768 0.064563915 -0.008443231 0.015301522 0.021830354
-0.055104647 0.020973025 0.047669824 0.0015543672 0.00266454 -0.049204227 -0.008842359 -0.025358127
-0.053815063 -0.03800438 0.049267694 -0.016248412 0.041417994 0.022113133 -0.041956045 0.051827982
0.027312847 0.047224328 0.011513609 0.063896835 0.026904272 -0.031142756 0.010400406 -0.020735003
-0.009477302 -0.027649246 0.06566396 -0.055746395 0.033239715 -0.0192745 -0.04688515 -0.047034618
00000000: 440e 3a3c ec11 02bd 850d 2e3d e87c 3abc
00000010: 463d e8bc d74b 373d c016 8f3d ae05 e7bc
00000020: a87c 833d 1051 ad39 ccb1 f7ba 3139 c43c
00000030: 8df0 6db9 9196 f43b ad2f 77bc 4631 b33c
00000040: 7415 033d d999 4ebd c4c5 65b9 ed38 3ebd
00000050: b5d9 2dbd aa46 193d 1f75 53bd 9732 b13c
00000060: bee2 913c e5b0 43bc 87f5 4d3c 414b 403d
00000070: 163a 843d 7a55 0abc 3cb3 7a3c 92d5 b23c
00000080: 69b5 61bd 9fcf ab3c 6f41 433d e9bb cb3a
00000090: 909f 2e3b 5f8a 49bd 8bdf 10bc d9bb cfbc
000000a0: 2f6d 5cbd 7baa 1bbd eccc 493d 641b 85bc
000000b0: eaa5 293d 9a26 b53c 1ada 2bbd 9449 543d
000000c0: 31bf df3c 4c6e 413d 94a3 3c3c 58dc 823d
000000d0: 5966 dc3c 181f ffbc 7766 2a3c 74dc a9bc
000000e0: b046 1bbc ac80 e2bc d47a 863d 5556 64bd
000000f0: 5e26 083d 8ee5 9dbc a50a 40bd 5fa7 40bd

weight f4 [64, 64, 3, 3]
-0.022512482 -0.021311257 0.0003298737 -0.0378771 0.015544995 0.024696441 0.029536048 0.035391804
-0.011990759 -0.040572636 0.009766148 -0.01389524 0.016624307 0.00083237153 -0.013052908 0.0009622203
-0.009188129 0.024163663 0.01837045 -0.021563461 -0.0035110083 0.030868439 -0.043472644 -0.01718626
-0.00093717 0.019218236 -0.020441445 -0.025556039 -0.003574971 0.021841604 0.041214827 -0.034669083
0.021050852 -0.0030934066 0.0058796294 -0.03318807 0.031754456 0.02695477 -0.019553578 -0.022378193
0.028203895 -0.022741897 -0.0073672724 -0.023089193 -0.026279032 0.031139566 0.024651254 -0.015192207
0.02253407 -0.042154342 0.020063559 0.035675842 -0.001878258 -0.0038657412 -0.043833606 0.015814299
0.017553851 0.033798553 -0.015910013 0.01580388 0.010604225 -0.033369694 -0.002552177 0.035403624
0.02863574 -0.038450815 0.0331999 -0.026843695 0.0078899395 0.04010814 0.021404581 0.014359239
0.026320066 0.006719998 -0.028626531 0.030828988 -0.029046899 -0.020264724 0.039136164 -0.02974302
0.030507112 0.006806704 0.013548875 -0.004862574 -0.014521553 0.03784958 0.03390975 -0.018459441
0.0033481587 -0.012138517 -0.013750204 0.012456689 -0.015836032 -0.0057730665 -0.0058907433 0.01606679
-0.024844304 -0.04237653 0.032952704 -0.02330753 0.020996818 -0.008993549 0.017993063 0.0072188885
-0.019770706 -0.032192037 -0.017297989 -0.03784618 -0.027824208 0.029570827 -0.01085399 0.007219938
-0.016053883 -0.034013495 -0.03702939 -0.017433159 -0.01965722 -0.0020955387 0.022773808 -0.031465076
0.003707934 -0.02106894 -0.039635614 0.008281156 0.004999042 -0.023600316 -0.038387917 -0.042792045
-0.041365333 0.010182536 0.030343948 0.0041430765 0.00060217973 -0.03478974 -0.016878147 0.02863064
-0.0341074 -0.00027031353 0.003645324 -0.010791317 -0.0059681796 0.04376888 0.022964984 0.04177975
-0.021422582 -0.0026585911 0.036825553 -0.010304026 -0.022235326 0.006682372 0.020203004 0.037422776
-0.0035483802 0.033609245 0.011352957 0.021746963 -0.011689071 0.0323627 0.022606514 -0.011927083
0.03923509 0.028653154 -0.0014066987 -0.040125735 0.013384767 0.020142298 0.0026830984 -0.00402963
0.025168424 0.03600824 -0.029376335 -0.026075086 0.0046064476 -0.04137704 -0.041034926 -0.03576768
0.015835276 -0.012633756 0.008815318 0.03966419 -0.0027549863 -0.040677704 0.002128642 -0.011023533
-0.022637319 0.018251795 -0.031787105 0.027564991 -0.008082345 0.0069649145 -0.012310082 -0.031218318
-0.034923814 0.00212543 0.028022671 0.0059357155 -0.039334983 -0.010916713 -0.02764655 -0.033216354
0.02168057 -0.023787746 -0.022773191 0.03590845 -0.03542211 0.03372008 -0.007818593 -0.035043944
-0.0035991683 0.019347884 -0.023642177 0.011414186 0.005324833 0.037564486 -0.008378473 -0.033252288
0.0015119575 -0.04000295 0.020183608 0.024031866 0.036420275 0.021651257 -0.012955621 0.0355745
0.0053154416 0.009169587 0.026857713 0.0040837387 -0.015427343 0.024618357 0.04089984 -0.04056623
-0.034814782 -0.0021975958 -0.025000218 -0.043667067 -0.015526243 0.026929604 -0.014550691 0.01819445
0.014624549 0.0008017913 0.018303614 0.026723651 0.010250291 -0.010610874 0.015074784 0.00014588653
-0.025128597 -0.04401103 0.022948908 0.006455068 -0.023992326 -0.029492717 -0.039931532 -0.02490908
00000000: 196c b8bc f294 aebc e6f2 ac39 0525 1bbd
00000010: 6fb0 7e3c 3150 ca3c 95f5 f13c fff6 103d
00000020: e374 44bc 7e2f 26bd 3202 203c dca8 63bc
00000030: b32f 883c 8233 5a3a dddb 55bc 833d 7c3a
00000040: ce89 16bc e0f2 c53c a07d 963c dba5 b0bc
00000050: f218 66bb cfdf fc3c 5f10 32bd 33ca 8cbc
00000060: 6aac 75ba 906f 9d3c d174 a7bc e65a d1bc
00000070: 104a 6abb 2aed b23c e1d0 283d 2b01 0ebd
00000080: d672 ac3c c0ba 4abb e8a9 c03b 37f0 07bd
00000090: f610 023d 40d0 dc3c d32e a0bc 7952 b7bc
000000a0: db0b e73c 374d babc 2969 f1bb 8c25 bdbc
000000b0: 2047 d7bc 6718 ff3c 6df1 c93c bce8 78bc
000000c0: 5f99 b83c 08aa 2cbd 555c a43c d520 123d
000000d0: e12f f6ba 6058 7dbb de8a 33bd fd8c 813c
000000e0: 18cd 8f3c 5a70 0a3d b755 82bc 2377 813c
000000f0: 58bd 2d3c a9ae 08bd 6d42 27bb 6403 113d
00000100: 8095 ea3c 9a7e 1dbd 9efc 073d 4fe7 dbbc
00000110: ce44 013c 6f48 243d a958 af3c 0343 6b3c
00000120: 2e9d d73c 6e33 dc3b 3082 eabc 138d fc3c
00000130: c3f3 edbc 3502 a6bc 3e4d 203d a2a7 f3bc
00000140: 0dea f93c c60a df3b 1afc 5d3c 3a56 9fbb
00000150: cfeb 6dbc 2908 1b3d f3e4 0a3d 4138 97bc
00000160: c86c 5b3b a1e0 46bc 8948 61bc 2417 4c3c
00000170: 91ba 81bc fe2b bdbb 2307 c1bb 809e 833c
00000180: 4886 cbbc 0393 2dbd 6af9 063d 6fef bebc
00000190: 8501 ac3c ae59 13bc 3066 933c 6d8c ec3b
000001a0: 2df6 a1bc ccdb 03bd 83b4 8dbc 9904 1bbd
000001b0: 98ef e3bc 853e f23c efd4 31bc 3b95 ec3b
000001c0: 6f83 83bc bc51 0bbd 21ac 17bd fccf 8ebc
000001d0: 2e08 a1bc 4e55 09bb 2390 ba3c 86e1 00bd
000001e0: cf00 733b c598 acbc f458 22bd b0ad 073c
000001f0: 01cf a33b 7355 c1bc a63c 1dbd b646 2fbd
00000200: b26e 29bd a7d4 263c df93 f83c a5c2 873b
00000210: 99db 1d3a b07f 0ebd 0a44 8abc ce8a ea3c
00000220: 33b4 0bbd deb8 8db9 63e6 6e3b 10ce 30bc
00000230: b890 c3bb ff46 333d 1021 bc3c 3e21 2b3d
00000240: 697e afbc c23b 2ebb 64d6 163d 38d2 28bc
00000250: dc26 b6bc cdf7 da3b c580 a53c a048 193d
00000260: f18b 68bb d9a9 093d c101 3a3c b026 b23c
00000270: 8483 3fbc c08e 043d 4c31 b93c d069 43bc
00000280: f9b4 203d 05ba ea3c fa60 b8ba e25a 24bd
00000290: c84b 5b3c 7601 a53c ecd6 2f3b fd0a 84bb
000002a0: 032e ce3c 607d 133d a4a6 f0bc 6b9b d5bc
000002b0: aff1 963b f97a 29bd 3d14 28bd 2181 12bd
000002c0: fbb8 813c d0fd 4ebc 206e 103c eb76 223d
000002d0: 008d 34bb aa9d 26bd b080 0b3b 0c9c 34bc
000002e0: e671 b9bc ca84 953c 3233 02bd facf e13c
000002f0: d06b 04bc f039 e43b 3ab0 49bc 8fbd ffbc
00000300: 460c 0fbd cc4a 0b3b cd8f e53c 6480 c23b
00000310: b81d 21bd 03dc 32bc 057b e2bc df0d 08bd
00000320: 739b b13c 85de c2bc d88e babc bd14 133d
00000330: c616 11bd 111e 0a3d 8e19 00bc 3d8a 0fbd
00000340: 06e0 6bbb 747f 9e3c 3dad c1bc 9102 3b3c
00000350: f07b ae3b 38dd 193d dd45 09bc 8d33 08bd
00000360: e02c c63a 22da 23bd 1858 a53c 7ade c43c
00000370: 6d2d 153d fa5d b13c d043 54bc 91b6 113d
00000380: 282d ae3b 093c 163c b504 dc3c e2d0 853b
00000390: f7c2 7cbc 70ac c93c 9786 273d c628 26bd
000003a0: f299 0ebd 8a05 10bb 42cd ccbc 3ddc 32bd
000003b0: c861 7ebc 799b dc3c 0566 6ebc 870c 953c
000003c0: ce9b 6f3c 4e2f 523a 76f1 953c 8feb da3c
000003d0: d6f0 273c 3bd9 2dbc 3afc 763c 1ef9 1839
000003e0: 7dda cdbc e944 34bd 59ff bb3c 0985 d33b
000003f0: 8e8b c4bc b69a f1bc 3f8f 23bd 200e ccbc

bias f4 [64]
-0.042143162 0.03173123 -0.027382197 0.037380435 0.017633839 -0.00029538403 0.025270257 -0.0039498652
-0.029069973 -0.024637919 -0.010472237 -0.009587652 -0.028623015 0.05078122 -0.050594088 0.019244716
0.0053823437 -0.0300708 0.025630163 -0.031582434 0.026789337 0.0334001 0.051255424 -0.012560825
0.024247695 0.038038388 0.048479665 -0.019267421 0.015229589 0.026702616 0.019764466 0.04108168
0.0100690145 0.011320952 0.024991319 -0.04419136 0.029869583 -0.040117256 -0.042005323 -0.010826276
0.023871314 -0.019468695 -0.03581167 -0.020398118 -0.026157787 -0.004824901 -0.0491765 0.012242535
0.012362878 -0.0148447165 0.04915102 0.018320598 0.033343907 0.032057606 0.013769288 0.018022198
0.04235375 -0.027687574 -0.043032106 -0.015986659 -0.026882594 -0.00717133 -0.018898765 -0.018003019
00000000: 4f9e 2cbd 9bf8 013d a150 e0bc 3a1c 193d
00000010: d774 903c c6dd 9ab9 9203 cf3c df6d 81bb
00000020: 2724 eebc 76d5 c9bc bf93 2bbc 8715 1dbc
00000030: d07a eabc f8ff 4f3d bf3b 4fbd 18a7 9d3c
00000040: 5f5e b03b 0a57 f6bc 59f6 d13c 955c 01bd
00000050: 5075 db3c 8bce 083d 35f1 513d ebcb 4dbc
00000060: 1aa3 c63c 24ce 1b3d 9d92 463d b6d6 9dbc
00000070: 8785 793c 72bf da3c 17e9 a13c 4445 283d
00000080: 82f8 243c 847b 393c 98ba cc3c 0002 35bd
00000090: 0eb1 f43c fe51 24bd c60d 2cbd b160 31bc
000000a0: c68d c33c d07c 9fbc 42af 12bd f419 a7bc
000000b0: db48 d6bc 341a 9ebb 4c6d 49bd ea94 483c
000000c0: ab8d 4a3c 4137 73bc 9452 493d 1415 963c
000000d0: 9f93 083d d64e 033d 9498 613c 4aa3 933c
000000e0: 207b 2d3d 0dd1 e2bc 6f42 30bd 74f6 82bc
000000f0: e338 dcbc 7afd eabb 95d1 9abc 117b 93bc

weight f4 [64, 32, 2, 2]
0.06299694 0.06978077 0.0006279156 -0.022507077 0.072686434 -0.0121376 -0.07495604 0.036924288
-0.01509154 0.05630656 -0.037325837 0.0081434185 0.03918264 -0.016186735 8.505542e-05 0.052811548
-0.015327385 -0.06491469 0.06821285 -0.0615998 -0.07074543 -0.031793483 -0.08069616 0.007968344
0.04647648 0.055253405 0.058698755 0.06505427 -0.048630226 0.023615064 0.043723293 0.02349658
-0.05557312 0.049940243 0.07207789 0.024968958 -0.014105097 -0.018083757 -0.06235356 -0.02610147
0.06593114 0.022665348 0.062147297 0.023279417 -0.067555726 -0.039236385 0.013273061 -0.018043147
0.05277378 0.0632701 0.06424096 -0.008470103 0.034840632 0.023041338 0.020387258 0.049767204
0.055587105 -0.01922284 0.006247284 0.053250883 -0.076560654 0.028233599 -0.032139342 0.038801957
-0.043743618 0.06840732 0.048643645 0.06866623 -0.0036862583 -0.07291139 0.08944462 0.05491092
0.014633428 0.07075474 -0.00036845476 0.047912333 0.058237605 -0.074286096 0.078290656 -0.05542155
-0.06997348 -0.08204089 -0.067985214 -0.057845585 -0.084594406 -0.019425942 0.022372477 -0.018776301
-0.046530332 0.04644974 0.07080939 0.042749852 0.036255006 -0.067297295 -0.052807067 0.08877646
-0.005496535 -0.057880525 0.0002265824 -0.059739873 -0.055391237 -0.045583203 0.073388696 0.031613775
0.05965569 -0.022452477 -0.079582036 0.05146058 0.08290461 -0.016976582 -0.0284997 -0.07300148
0.06214102 0.033297498 -0.07899818 0.08737989 0.02529894 -0.0033632922 0.06933313 0.042800076
0.093785204 0.06890059 -0.057529267 0.078708395 0.043377277 -0.022291098 -0.018239668 0.0035837495
0.016803678 0.055303324 7.836206e-05 -0.04182218 -0.06815569 -0.011518727 -0.04147593 -0.045320615
-0.039904967 -0.08458791 0.0843261 0.0250992 0.076265916 -0.011115968 -0.073441416 -0.041632306
0.02970265 0.0133779505 -0.08135349 -0.05235494 -0.07857182 -0.0515356 0.04762699 0.055506796
0.031011479 0.037023548 0.0074592116 -0.022733366 -0.07728161 0.058998775 0.0311914 0.09320269
-0.044437047 -0.072281346 -0.04039932 -0.031638544 0.00036128436 -0.024453335 -0.052064616 0.02109772
0.008189037 0.015095666 -0.0077289874 0.01910206 -0.059251573 0.04821928 0.013204807 -0.07862918
0.03218549 -0.041227452 -0.04318927 -0.023965923 0.008764812 0.017649008 -0.0761846 0.034135416
-0.05917225 -0.0022593285 0.019418482 -0.050778564 0.05945647 0.05174686 0.06459478 -0.019114217
0.04892343 -0.040484283 -0.04591473 -0.030432327 -0.054723702 0.06672032 -0.08251617 -0.08567931
-0.026430288 -0.05045308 -0.0045186775 0.06478049 0.05932926 0.064821236 -0.053360727 0.025683835
0.038195185 0.038512766 0.06868483 0.045636646 0.058969364 -0.08232855 -0.07624285 -0.07128645
-0.067626245 0.047448035 -0.067992084 0.07942182 -0.05224921 -0.03781603 0.034047257 -0.07809345
0.027462592 0.057046276 -0.07385006 0.02219716 -0.059993673 -0.010201158 0.08018492 -0.06368079
-0.027163174 -0.049354237 0.04262372 0.06146293 0.072991736 0.021995118 0.0037474397 0.05616781
0.058968652 0.012087379 -0.08033216 0.009052072 -0.07358322 0.08384251 -0.054725945 0.08167909
-0.061517704 -0.078858644 -0.071058735 -0.0140068745 -0.048164476 0.069159195 0.004272646 0.014872935
00000000: 8a04 813d 38e9 8e3d b49a 243a c360 b8bc
00000010: a0dc 943d c9dc 46bc 8d82 99bd ec3d 173d
00000020: 8242 77bc b5a1 663d fae2 18bd f96b 053c
00000030: fa7d 203d 0b9a 84bc c85f b238 ec50 583d
00000040: b61f 7bbc fef1 84bd 2eb3 8b3d 1250 7cbd
00000050: fbe2 90bd e239 02bd 0744 a5bd a88d 023c
00000060: 1f5e 3e3d 6551 623d 1b6e 703d 2c3b 853d
00000070: 7d30 47bd 6174 c13c 3217 333d e67b c03c
00000080: a4a0 63bd 248e 4c3d 939d 933d b38b cc3c
00000090: 1119 67bc 6324 94bc 7266 7fbd c0d2 d5bc
000000a0: e806 873d aeac b93c 2a8e 7e3d 7ab4 be3c
000000b0: a85a 8abd 55b6 20bd 4177 593c 39cf 93bc
000000c0: 5229 583d c193 813d c490 833d 30c6 0abc
000000d0: 0db5 0e3d 30c1 bc3c 2e03 a73c b2d8 4b3d
000000e0: 4eaf 633d 3879 9dbc 04b6 cc3b 991d 5a3d
000000f0: d5cb 9cbd 264a e73c 8ba4 03bd cdee 1e3d
00000100: 822c 33bd 2319 8c3d 8f3e 473d e1a0 8c3d
00000110: 2795 71bb 9152 95bd be2e b73d 46ea 603d
00000120: 0cc1 6f3c dce7 903d 292d c1b9 b93f 443d
00000130: 8e8a 6e3d 4f23 98bd da56 a03d b501 63bd
00000140: 424e 8fbd 0e05 a8bd d53b 8bbd 7eef 6cbd
00000150: d53f adbd 2723 9fbc 7c46 b73c c2d0 99bc
00000160: 9796 3ebd 1542 3e3d 8304 913d 781a 2f3d
00000170: 2180 143d 2ad3 89bd 394c 58bd 6fd0 b53d
00000180: 471c b4bb 2114 6dbd c096 6d39 ccb1 74bd
00000190: ece1 62bd 74b5 3abd d04c 963d 727d 013d
000001a0: 8659 743d 42ee b7bc e8fb a2bd 54c8 523d
000001b0: e4c9 a93d 7912 8bbc 3478 e9bc cd81 95bd
000001c0: 9587 7e3d f562 083d ccc9 a1bd 3af4 b23d
000001d0: b93f cf3c ae6a 5cbb 87fe 8d3d 224f 2f3d
000001e0: 7512 c03d c11b 8d3d cfa3 6bbd de31 a13d
000001f0: 5fac 313d d29b b6bc 5b6b 95bc 57dd 6a3b
00000200: dea7 893c bd85 623d 5056 a438 bc4d 2bbd
00000210: 3695 8bbd 0bb9 3cbc aae2 29bd 1ca2 39bd
00000220: 6473 23bd 6d3c adbd 2ab3 ac3d d69c cd3c
00000230: 4e31 9c3d c01f 36bc 7468 96bd a386 2abd
00000240: f952 f33c 312f 5b3c a99c a6bd 2272 56bd
00000250: 43ea a0bd fe16 53bd 8514 433d 185b 633d
00000260: c90b fe3c 01a6 173d 676c f43b 533b babc
00000270: d245 9ebd b3a8 713d 1b85 ff3c 0de1 be3d
00000280: 9f03 36bd 3e08 94bd c279 25bd 6b97 01bd
00000290: c46a bd39 5c52 c8bc b541 55bd 20d5 ac3c
000002a0: 502b 063c d053 773c 7243 fdbb ec7b 9c3c
000002b0: c7b1 72bd 9481 453d fa58 583c 5608 a1bd
000002c0: efd4 033d 1ede 28bd 3be7 30bd 2f54 c4bc
000002d0: 499a 0f3c a794 903c ac06 9cbd 94d1 0b3d
000002e0: 9a5e 72bd 3e11 14bb 8213 9f3c 2ffd 4fbd
000002f0: a188 733d 84f4 533d 454a 843d 6b95 9cbc
00000300: ef63 483d d9d2 25bd 1511 3cbd 374d f9bc
00000310: f625 60bd aaa4 883d 3dfe a8bd a278 afbd
00000320: 5584 d8bc e4a7 4ebd 6a11 94bb a2ab 843d
00000330: 3d03 733d ffc0 843d c790 5abd e866 d23c
00000340: 8e72 1c3d 90bf 1d3d a2aa 8c3d 7eed 3a3d
00000350: dc89 713d df9b a8bd 3625 9cbd a1fe 91bd
00000360: a17f 8abd df58 423d 6f3f 8bbd e8a7 a23d
00000370: 4503 56bd fbe4 1abd 2375 0b3d 75ef 9fbd
00000380: 3bf9 e03c 5ba9 693d b33e 97bd d2d6 b53c
00000390: edbb 75bd c222 27bc fe37 a43d 136b 82bd
000003a0: 4e85 debc ab27 4abd 3696 2e3d 8ec0 7b3d
000003b0: b17c 953d 1b2f b43c 9b97 753b 3810 663d
000003c0: 1d89 713d 240a 463c 3085 a4bd 244f 143c
000003d0: cdb2 96bd 9fb5 ab3d 5028 60bd 5e47 a73d
000003e0: fdf9 7bbd a480 a1bd 3e87 91bd 177d 65bc
000003f0: 1d48 45bd 56a3 8d3d 8d01 8c3b 9cad 733c

bias f4 [32]
-0.021193406 -0.019213006 0.06338686 -0.04598924 0.020435976 -0.053066045 0.017762488 -0.07798379
-0.07755274 0.044728667 0.03416435 0.065365635 -0.048525732 0.00644444 -0.080395594 0.054946717
0.037308373 -0.04249129 0.059596114 0.011888048 0.0050203074 -0.079111956 -0.08793112 -0.023484116
-0.082505025 0.07863811 -0.100748785 -0.002582044 -0.06951581 -0.039797306 -0.044584315 -0.0959919
00000000: cb9d adbc 9864 9dbc f8d0 813d 375f 3cbd
00000010: 5969 a73c c85b 59bd a382 913c f7b5 9fbd
00000020: f9d3 9ebd 6835 373d ebef 0b3d 6bde 853d
00000030: ebc2 46bd e22b d33b 72a6 a4bd cf0f 613d
00000040: aad0 183d 590b 2ebd 0e1b 743d 16c6 423c
00000050: 6481 a43b 7305 a2bd 3b15 b4bd c361 c0bc
00000060: 65f8 a8bd 040d a13d 6155 cebd 8337 29bb
00000070: 4e5e 8ebd 8002 23bd 0b9e 36bd 6797 c4bd
