output/20221210_210120/unet_last.pth (torch, 481423 bytes, 25 tensors)

weight f4 [16, 1, 3, 3]
000000 3f 5a 85 3e 99 26 7f bd 5c 22 69 3e 5c 42 3f 3d
       0.26045415 -0.06229267 0.22767013 0.046694145
000010 f5 d7 ea bc c5 f6 ef bd 8c 2a 8c be fb 6d a0 bd
       -0.02866743 -0.117169894 -0.2737621 -0.07833477
000020 bb 22 bd bd 3e 64 90 be 89 f2 27 3e 1c e7 7a 3e
       -0.0923514 -0.2820148 0.16401114 0.24502224
000030 47 1a 00 3e 41 08 3c be 3b 7b a7 be a1 4b 03 3d
       0.12510024 -0.18362524 -0.32711205 0.032054547
000040 48 9b 35 be d0 91 91 be 1f b6 70 3d ea 11 4b bd
       -0.17735016 -0.2843156 0.058767434 -0.04957763
000050 f5 3a c1 3e dd ac 01 bf e6 30 2a 3c c2 2e 2d be
       0.37740293 -0.50654393 0.010387635 -0.16912368
000060 01 0e 5e bd 7e 63 ed be 4d c6 3c 3e fc bc 9f 3e
       -0.054212574 -0.4636497 0.1843502 0.3119887
000070 dd 41 41 3d ee 2b 29 bd 21 df 82 3e a3 72 8f 3e
       0.047181953 -0.04130166 0.2556086 0.28017148
000080 3c 66 3f 3d da ca a6 3e ef 20 10 be f7 83 83 3d
       0.046728358 0.32576638 -0.14075063 0.06421655
000090 25 04 ee 3d 0d 0b 46 be 52 24 89 be 0d e3 92 3e
       0.11621884 -0.19340153 -0.26785523 0.2868885
0000a0 9f 06 87 3e 08 15 5e bd 0a 78 01 3d e9 67 ab be
       0.2637224 -0.054219276 0.03160862 -0.33477715
0000b0 73 0e 91 3d 4d cd 91 be 9b 9c 96 be de 3c 8b 3d
       0.07082834 -0.28476945 -0.29416355 0.06798719
0000c0 f8 fe 16 bd d4 10 74 3b b7 5b 81 bd 7b 8b e2 3d
       -0.03686425 0.0037241476 -0.06316321 0.1106176
0000d0 06 4c 07 bd 0f b9 bb be e6 be 95 3e 96 78 b9 bd
       -0.033031486 -0.36664626 0.29247206 -0.09056203
0000e0 ab e0 43 3e 12 36 a9 bd 8c bc 4d be b6 d6 b4 3d
       0.19128673 -0.08262266 -0.20091456 0.08830015
0000f0 82 ba 04 bd f7 19 99 3e e7 93 ac 3c da 15 84 be
       -0.03240443 0.29902622 0.02106662 -0.2579792
000100 4d 15 87 be 2b e9 d2 bc d7 95 88 be aa 90 93 3c
       -0.2638344 -0.025745949 -0.2667682 0.018013317
000110 41 86 d7 3d 01 28 fc 38 c5 5d 65 3e 88 cb 77 be
       0.10523654 0.00012023748 0.22399051 -0.24198735
000120 48 8f 8a be 84 86 9e 3c 24 20 5b be af 07 a6 3e
       -0.2706244 0.019351251 -0.2139898 0.32427737
000130 70 58 5a 3e 55 06 06 3e 4c 45 f8 3b ae 17 77 3e
       0.21322799 0.13088353 0.00757662 0.24130127
000140 ce 8e 2d 3e 9f 5e 05 be 62 d4 a4 3e dd 11 4c 3e
       0.16949007 -0.13024376 0.32193285 0.1992869
000150 94 d5 02 bd 31 69 02 3e f6 81 ef 3d 2b c9 93 be
       -0.031941965 0.1273544 0.1169471 -0.28864416
000160 17 3c ce 3c 2e 3d 87 be 4a 76 1e 3e cf 6c 9b 3e
       0.025175137 -0.26413864 0.15474811 0.30356452
000170 dc 59 d8 3d c6 3b 83 3d 5f e0 75 bd 2a ea 06 bd
       0.10564014 0.06407885 -0.06002843 -0.03293816
000180 05 70 a6 be f7 36 94 be 15 7d 74 3d d2 07 9a 3d
       -0.3250734 -0.28948185 0.0596896 0.07521023
000190 f3 4b 54 3e 36 03 c1 3b 61 41 cc bd ab c2 d9 be
       0.20732097 0.0058902754 -0.099734075 -0.42531332
0001a0 a4 e8 f5 bd 83 5c 11 3e 6c e4 ae bd 9a bd 7e 3e
       -0.12007263 0.14195447 -0.08539662 0.24877015
0001b0 43 fc 52 3e 81 36 3e be 9d 47 fe bd fb b8 88 bd
       0.20604043 -0.18575479 -0.12416003 -0.06675907
0001c0 5b 7f 24 bd 5b c5 37 bd 29 d1 0e 3d 6d 83 83 be
       -0.04016052 -0.044865947 0.03486744 -0.25686207
0001d0 92 b5 40 bd 20 93 e2 3d e3 60 81 bd 7f 8b a3 3e
       -0.04704816 0.11063218 -0.06317308 0.31942365
0001e0 07 58 5f 3d 14 33 9e bb 2a 79 42 3e 5b 27 c0 3d
       0.05452731 -0.0048278663 0.18991533 0.093825065
0001f0 91 23 ca 3c 2b e6 2e 3d 42 6d ec bd 78 78 06 3e
       0.024675163 0.042699974 -0.11544277 0.13131893
000200 49 1f 0a be 64 0c 3d be 28 5d 60 bd 16 de c5 3d
       -0.13488497 -0.18461758 -0.05477634 0.096615
000210 13 82 c7 bd 85 77 6b 3d 96 d8 49 be d3 a9 30 bd
       -0.097416066 0.05748703 -0.19711527 -0.043130707
000220 54 9a be 3e c7 b8 f3 bd 3d 19 8b 3c c8 5b 92 be
       0.37227118 -0.11900478 0.016979808 -0.2858565
000230 7f d6 9d 3e f4 dc 87 3d 53 2f f3 bd 73 11 23 be
       0.3082771 0.0663394 -0.11874261 -0.15924625

bias f4 [16]
000000 c4 c2 6a 3d e4 ed 6d 3e 81 b9 83 be 6e 85 e3 3d
       0.05731465 0.2323528 -0.25727466 0.11109434
000010 5d f3 2c 3e a3 5e cc ba d5 34 32 3e 62 93 70 3e
       0.1688971 -0.0015592169 0.17402966 0.23493722
000020 7a ac 56 3e a8 4d 60 bc 9b 41 7b 3e 83 77 95 be
       0.20964232 -0.01369039 0.24536745 -0.29192743
000030 76 4e 34 3e 37 51 8e be c1 8e 2e 3e 48 61 fd bd
       0.17608055 -0.27796337 0.17046644 -0.123720706

weight f4 [16, 16, 3, 3]
000000 9b 99 70 3c 5a 98 1c bc 1d 14 9a 3c e0 cd 8c bd
       0.01468506 -0.009557808 0.018808419 -0.06875205
000010 de d8 b8 bd 57 fd 58 3d 2c 21 cf bc 77 f1 9f bd
       -0.09025739 0.05297598 -0.025284372 -0.07809728
000020 17 e8 14 3d 6a 0b d1 bc ad 93 c4 3d 07 15 50 3d
       0.03635415 -0.025518138 0.095984794 0.050801303
000030 04 44 ea 3d b2 9c f4 3d 83 1e b3 3d d4 c8 f9 ba
       0.11438754 0.1194395 0.08746054 -0.0019057044
000040 d7 da df bc 2c 58 ed 3d 63 d1 bd 3d c9 fb 15 3e
       -0.02732603 0.11589083 0.09268453 0.1464683
000050 10 ea d3 3d 53 e1 1f 3e bc 18 76 3e df ca 40 3e
       0.10347378 0.15613298 0.24032873 0.18827389
000060 33 6b 1e 3e db 8c 19 3e 70 83 0e 3e a5 d4 90 3d
       0.15470581 0.14995138 0.13917327 0.07071809
000070 a6 24 0e 3d fb 71 a4 3c 27 96 9e bd bd c9 22 3d
       0.03470292 0.020073881 -0.07743483 0.039743174
000080 05 5b 8e 3c 84 2c 4a 3d 67 8b 0a bd b0 de ef bc
       0.017377386 0.04935886 -0.03382435 -0.02928099
000090 d7 1a 22 3d a9 92 22 3d 51 6c 87 bd 47 ef 26 bd
       0.039576378 0.039690647 -0.066124566 -0.040755536
0000a0 e4 15 c3 bd 41 2b 4e 3d 77 8f a2 bd 14 61 3c 3d
       -0.0952566 0.05033422 -0.0793752 0.04599102
0000b0 e5 c1 8e 3c 34 05 25 3e a1 19 10 3d d9 a2 b8 3c
       0.01742644 0.16115266 0.03518069 0.02253859
0000c0 fe 9c d7 3d 4c 44 e8 3d 67 7a b1 3d 2f be 3f 3b
       0.10527991 0.113411516 0.086659245 0.0029257645
0000d0 16 fe 71 3d b3 73 b0 3d a5 eb 78 bd a8 fa 7d 3c
       0.059080206 0.08615818 -0.060771603 0.015501656
0000e0 dc 1c 98 3d be 09 d9 3c a5 65 b3 bc fa 5b d4 3c
       0.074273795 0.026493903 -0.021899054 0.025922764
0000f0 c5 ba 25 3d d3 87 3e bd f1 3b 9e bd 47 7c 91 3d
       0.04046132 -0.04651625 -0.07726277 0.07103782
000100 53 6a ce 3d a6 b1 10 3d 95 6d 87 3d ac 84 a1 3d
       0.100788735 0.03532567 0.06612698 0.07886633
000110 6f 18 b6 3d 30 a0 03 3e 44 8f ff 3b 58 c6 2b 3d
       0.08891379 0.12854075 0.007799061 0.041937202
000120 48 8a 89 3d 23 27 79 3d a6 c1 85 bd 47 e0 3b 3d
       0.06715828 0.06082834 -0.06531076 0.045868184
000130 5f a1 3d 3d e5 35 2d 3d 0b 7a 03 bd e9 cc 7f 3d
       0.046296474 0.042287726 -0.03209881 0.062451277
000140 c5 a0 de bc 18 e5 03 3c 22 cf e7 3b f0 10 59 bd
       -0.02717627 0.008050226 0.0070742527 -0.05299467
000150 2a e3 80 3c 06 6b 68 ba 47 dd 8d 3d 6d 9f 22 3d
       0.01573332 -0.00088660454 0.06926971 0.03970282
000160 e1 63 c1 bc 90 51 a8 bd 14 84 a4 bd a4 17 79 bd
       -0.023607196 -0.08218682 -0.080330044 -0.06081356
000170 1e f4 02 bd 47 b2 a7 bb 4c ee c6 bd 8b 7f 70 bc
       -0.03197109 -0.005117688 -0.0971342 -0.014678846
000180 9e f7 74 bd c3 5c 0a bd 97 66 8a bb 0d 0e 3f bc
       -0.05980646 -0.03377987 -0.0042236554 -0.011661065
000190 df 5b 42 bb 23 32 85 3d 03 f8 a5 bc c8 f1 c7 3d
       -0.002965681 0.065037034 -0.020259863 0.09762913
0001a0 39 34 c2 3d f2 19 fa 3d 7d e8 d8 3d 6c 1e a8 3c
       0.09482617 0.1221198 0.105912186 0.020522319
0001b0 8c 05 f8 3c a7 fc 07 3e 36 93 b5 3c 3d 0d db 3d
       0.030276082 0.13279973 0.022164922 0.106958844
0001c0 5a e3 61 3d 9c 2d 0e 3c 62 b0 54 3c b0 69 ba bb
       0.05514846 0.008677866 0.012981506 -0.0056888685
0001d0 87 7c 2d 3d 91 17 ce bc 72 92 75 bc e2 5d b6 3d
       0.042355087 -0.025157722 -0.014988529 0.089046255
0001e0 5e d1 2d 3d 8b de a2 3d 23 81 7a bd d5 6a b3 3b
       0.042435996 0.07952603 -0.06115831 0.005475382
0001f0 35 92 ae 3d f6 9a 99 3d 76 55 99 3d 69 20 6d 3d
       0.085239805 0.075002596 0.074870035 0.057892237
000200 33 12 bc 3d 37 11 2d 3d 3f 7c b5 3d 46 e5 0e 3e
       0.09183159 0.042252745 0.08861589 0.13954648
000210 27 1d fc 3c 05 b5 77 3d bd 39 b4 3d 7e 22 16 be
       0.03077562 0.060475368 0.08800075 -0.14661595
000220 6f 43 f4 bd 57 1e 18 bd 3a a0 99 bd b4 54 f3 bc
       -0.119269244 -0.03713831 -0.07501264 -0.029703476
000230 24 06 1d be 91 c5 fe bc 8a 95 ea bd 88 0f 1a be
       -0.15334374 -0.031100066 -0.114543036 -0.15044987
000240 94 a5 8b bd 6c 6b c7 3c 0a 1e 5f 3d 9a a7 50 bd
       -0.06818691 0.024343215 0.054472007 -0.050941087
000250 43 59 e4 bc 1f 3f 15 3d 04 da 27 bd 37 63 78 bc
       -0.027874595 0.03643715 -0.0409794 -0.015160373
000260 7c 09 5e 3d 12 31 1e bc 47 11 87 3c 8c e9 e3 3c
       0.054208264 -0.009655254 0.01648773 0.027821325
000270 00 c8 0f be 79 f0 22 3b 2e 65 38 bd cc e8 9c 3b
       -0.14041138 0.002486257 -0.045018367 0.0047884937
000280 21 e5 e7 bd 80 1f b7 bd ea 11 24 be 37 03 79 be
       -0.11323 -0.08941555 -0.16022459 -0.24317633
000290 a5 c0 89 be c2 e2 ea bd c2 11 3f be 9d e4 26 be
       -0.2690479 -0.11469032 -0.18659118 -0.16298147
0002a0 be 24 10 be ef d8 89 be 47 49 0a be cb ad 20 bc
       -0.14076516 -0.2692332 -0.13504516 -0.0098070605
0002b0 2a 9e 8f bd fa 56 73 bd 1f 4c 33 bd 43 a2 98 bc
       -0.07012589 -0.05940912 -0.043773767 -0.01863206
0002c0 70 c7 8f 3d e6 22 11 3d 5d dd 4d 3d 99 7a af bd
       0.070204616 0.035433672 0.050259937 -0.085683055
0002d0 0c 0b b3 3d 7b 00 82 3d f8 c9 84 bd 3e 47 1a bd
       0.087423414 0.06347748 -0.06483835 -0.037665598
0002e0 bb 2b 9a 3d f5 93 80 3d 3a e4 6a bd 8b 33 68 3c
       0.07527872 0.062782206 -0.05734656 0.014172445
0002f0 8e a3 a8 3d d1 fe e7 bd 29 d7 55 bd d8 8e 0e be
       0.082343206 -0.11327899 -0.052207146 -0.13921678
000300 f2 17 c7 bc b7 c1 04 be 0f ab de bd 8a b2 2c be
       -0.02430341 -0.12964521 -0.108724706 -0.16864982
000310 f0 7e 3d be bd 8d a5 bd 26 5c 07 3d 49 fa 2b 3d
       -0.18505454 -0.08083675 0.033046864 0.041986737
000320 ac 8d 86 bd 35 e4 bc bc 8a ec 2a bb 68 c9 6d bd
       -0.065699905 -0.023058036 -0.002608093 -0.058053404
000330 dc ad e3 3c 01 40 90 3d 20 37 35 3d 87 4d 5d bd
       0.027792864 0.07043458 0.044242024 -0.054029014
000340 1a bd f7 bd a3 7b e4 bd 6c 14 44 bd e6 72 56 bd
       -0.12096615 -0.11156394 -0.04787104 -0.05235567
000350 1d 48 29 be 79 83 e1 bd c8 85 17 be d1 d2 8a bd
       -0.16531415 -0.110114045 -0.14797127 -0.06778491
000360 b2 45 02 bd 41 7f ad bd da a6 53 bd ac d4 a0 3d
       -0.031804748 -0.084715374 -0.051672794 0.07853064
000370 28 57 07 3c 7c 23 39 3d ea 21 99 3d 6e c2 4d bb
       0.008260526 0.045199856 0.07477172 -0.0031396407
000380 c3 3e 3a bd dc 24 50 3d 57 85 a1 bc c7 9d 92 bd
       -0.04547001 0.0508164 -0.019716902 -0.07159
000390 f3 07 1d bc e3 9a 0b bd 6a 7f 1f bd 9e aa c9 bb
       -0.009584415 -0.03408326 -0.03893987 -0.0061543724
0003a0 6a 54 f4 3b e4 c5 d3 bc 78 99 bb 3d 95 c9 10 3c
       0.007456352 -0.025851198 0.09160131 0.008837123
0003b0 c9 a2 8c bd fb 6e 8e 3d 5c 9c 2d 3d 64 12 22 3d
       -0.06866986 0.069547616 0.042385444 0.03956832
0003c0 14 b5 49 bd 22 58 86 3d 92 d5 82 3c 6a 69 01 be
       -0.049244955 0.06559779 0.015970979 -0.12637869
0003d0 e8 e2 16 3a 58 6b a5 bc 89 80 63 bd 34 48 17 bd
       0.00057558576 -0.020192787 -0.055542503 -0.036934093
0003e0 85 39 3e bd f3 89 bc bd 86 c1 0c be 51 06 22 bd
       -0.046441574 -0.09205999 -0.13745698 -0.039556805
0003f0 2e 41 ef bd 52 ed 03 bc fb 0e 4b bd ab ce ef bd
       -0.11682354 -0.008052187 -0.049574833 -0.11709341

bias f4 [16]
000000 57 51 77 bc 1a 12 a2 3c 8d 4f eb bc bc a0 7f bd
       -0.0150950765 0.019784022 -0.028724456 -0.062409148
000010 a1 52 b0 bd 60 d2 c9 bc 6c e3 c0 bd b6 06 4c 3d
       -0.0860951 -0.024636447 -0.09418377 0.049811088
000020 25 54 7b bc f8 9f 9d bd 43 98 4e bd 61 ea 5b bd
       -0.015339886 -0.07696527 -0.050438177 -0.053690318
000030 fe a0 9a 3d 47 c2 ab 3d 50 bb f2 3b 37 ee 8f bd
       0.07550238 0.08386665 0.0074075833 -0.07027858

weight f4 [32, 16, 3, 3]
000000 e6 64 4d bc 32 ad ce 3c a8 ab 96 3d 5b 70 8e bc
       -0.012536263 0.02522907 0.073569596 -0.01738756
000010 9f b4 fc bc 1e 05 18 3d ae 7f 45 bd af 45 23 bd
       -0.030847846 0.037114255 -0.048217468 -0.039861377
000020 76 16 69 bd 3a 64 4f 3d c9 c3 23 3d ef ff 5b bd
       -0.056906186 0.050632693 0.039981637 -0.053710874
000030 88 7b 18 3d 87 80 6b bd 11 7a d4 bc 21 c8 05 bc
       0.037227184 -0.05749562 -0.025937112 -0.00816539
000040 62 bc 81 3d 15 41 c4 3c 49 e2 1d 3d a1 d5 b6 bc
       0.06334759 0.023956815 0.03854588 -0.022318663
000050 d1 64 f6 3c 6b bc 7b 3c ed 4b 80 3d ff 54 42 3c
       0.03007737 0.015364747 0.06264482 0.011861085
000060 89 fa 9c 3d 0a 11 80 bd ce e6 f0 3c 3c f2 91 3d
       0.07664973 -0.0625325 0.029406931 0.07126281
000070 dc 05 11 bd 82 b2 54 3d 6e a7 69 3c 50 d6 34 3d
       -0.03540598 0.05192805 0.01426111 0.044149697
000080 bc b9 6f 3c 50 dd 02 bd 4d a7 9e 3d 58 51 a2 3d
       0.014631685 -0.03194934 0.07746754 0.07925671
000090 b0 41 94 3c 50 a6 7a 3d 08 6a 71 bd 86 a4 e9 3c
       0.018097728 0.061193764 -0.05893901 0.028520834
0000a0 b1 f2 18 3d bc b9 9f 3c 65 e4 32 3d 69 a9 2c 3d
       0.037340824 0.019497745 0.043674845 0.04215375
0000b0 e2 b0 91 3b 51 4f b0 bd 99 66 ca 3c d3 cd 0e bd
       0.004446135 -0.086088784 0.024707125 -0.034864258
0000c0 18 a3 36 3d 50 a6 e7 bc 24 70 8c 3d 6b 78 87 3d
       0.044589132 -0.028277546 0.068573266 0.06614765
0000d0 47 9f 6c 3d 4d 64 ad bd 25 52 49 3d 7f c1 93 bd
       0.057769086 -0.084663965 0.049150605 -0.07214641
0000e0 42 bf ae bd 78 67 47 bd 22 3e 47 3d 41 66 d7 3c
       -0.08532573 -0.04868266 0.04864324 0.026293876
0000f0 d3 d1 78 3d b0 fc 63 3d 7d c9 d2 bc f2 0a 1e 3c
       0.06074698 0.055660903 -0.025730843 0.009646164
000100 ed d4 65 3d 5a e9 cc bc 78 a5 b3 bd 8b 66 19 3b
       0.056111265 -0.025013614 -0.08771795 0.0023407068
000110 ce d1 3f bd 8a 4d 88 3b d0 c3 4d 3d 0e 5a 8f 3d
       -0.046830945 0.004159634 0.05023557 0.069995984
000120 fc bb 1b 3c 12 5d 38 bd 0a 12 41 bd c9 ba 68 3d
       0.009505268 -0.045010634 -0.047136344 0.056818757
000130 28 8b a0 bd 8e f2 8e 3d 7e fc d0 3b aa 1d e3 bc
       -0.07839042 0.069798574 0.0063777557 -0.027724106
000140 be 33 5a bd 29 ce 64 3d 33 96 1d 3d 30 e9 8b bd
       -0.053272 0.055860672 0.03847332 -0.06831586
000150 d5 04 23 3c 6b 4d c4 3c ea dd 0e bd 03 e2 9c bd
       0.0099498825 0.023962697 -0.034879602 -0.07660296
000160 62 2b b9 bc 2b 7f ca bc 6e 76 40 3d e6 36 49 bd
       -0.022603694 -0.024718842 0.046987943 -0.04912462
000170 da 84 02 3d 73 5d ec 3c 51 20 88 3b d9 3d 95 bd
       0.03186498 0.028853154 0.004154243 -0.07287187
000180 70 a7 1d 3d d1 d3 7c 3d 25 c8 e1 bc e1 19 8b bd
       0.03848976 0.06172544 -0.027561257 -0.067920454
000190 24 e9 7c 3d 35 bc 87 3d 82 a5 7d 3d 98 8c 89 bd
       0.061745778 0.066276945 0.06192542 -0.06716269
0001a0 66 a6 4c 3c 42 3b 30 3c cf 8c 99 3d 82 76 a2 bd
       0.012490844 0.010756316 0.0749756 -0.0793276
0001b0 ec 95 c5 bc 1e 59 c9 3c b4 88 46 3d ec 56 ac 3d
       -0.02411934 0.024578627 0.048470214 0.084150165
0001c0 3f a5 06 bc 32 cb 6d 3d 71 43 bf bc 2c 26 33 bd
       -0.008218109 0.05805511 -0.023347588 -0.043737575
0001d0 c6 c4 86 bd 10 ac 9c bd cd b2 50 3d ed 78 80 3d
       -0.065805 -0.07650006 0.050951768 0.06273065
0001e0 52 51 25 bb a2 32 b4 3d a8 81 4a 3d 5c 2b 2a bd
       -0.0025225473 0.0879872 0.049440056 -0.041545257
0001f0 0b 12 5b bc ad fa a4 3c 35 43 b0 3d 3a a4 9f bd
       -0.013371001 0.020139063 0.08606569 -0.077949956
000200 67 20 0b 3d 38 0f c5 bb 83 1e 3c 3d 79 6d 7c bd
       0.03396645 -0.006013777 0.045927536 -0.06162784
000210 1c b5 2a bd 07 d0 9a bd c3 54 09 3d 64 56 4e bc
       -0.041676626 -0.07559209 0.0335281 -0.012593839
000220 c2 21 6d bd de 2a 5f 3d 63 50 d3 bc bd 7e 1f 3d
       -0.057893522 0.05448424 -0.025795167 0.038939226
000230 89 54 04 3d 31 1e 82 bc 72 c5 f4 3c 6d 94 73 3d
       0.03230718 -0.015883537 0.029879306 0.05946772
000240 35 b7 6f bc 96 d8 4c bc d5 0f 76 3d aa d7 76 3b
       -0.014631082 -0.01250281 0.060073692 0.0037665167
000250 9a 9a d6 bb 17 19 88 bd 65 96 7c bd b7 d3 9b bc
       -0.0065491917 -0.066454105 -0.061666865 -0.019021852
000260 a6 4e 7c 3c be d5 67 3d 7e d7 cd bd a4 ee 13 bb
       0.015399611 0.056600325 -0.100508675 -0.002257266
000270 0a a7 8d bd f1 1e eb bb 49 6b 8e bd fb e9 97 bc
       -0.06916626 -0.0071753194 -0.06954057 -0.018544188
000280 0f 31 86 3c fa 8f 0c 3d c0 1b 0b 3d fe 21 09 bd
       0.016380815 0.034316994 0.03396201 -0.033479683
000290 01 17 0c bd a5 52 27 3d 2c 67 41 bc 4a 89 00 3d
       -0.034201626 0.0408503 -0.011804383 0.03138093
0002a0 da 2c 03 3d 6d 89 86 bd e7 20 e1 bc 78 e4 2d bd
       0.032025196 -0.06569181 -0.02748151 -0.042454213
0002b0 e3 75 70 3d 4a 3b 26 bd 91 d8 8f bd 69 ef e7 bc
       0.058706176 -0.040583886 -0.07023729 -0.028312402
0002c0 db 7d c0 bd 56 d6 3a bd a5 1a 5f bd fe 0f 59 3d
       -0.09399005 -0.045614563 -0.05446877 0.052993767
0002d0 46 71 9f 3d c2 b4 8d 3d 79 95 a3 3c fa df b2 3d
       0.07785277 0.069192424 0.019968735 0.087341264
0002e0 a7 d8 a9 bb 3a 0f b6 3d 7e 73 ce bc c6 3a 4b 3d
       -0.0051832977 0.08889623 -0.025201555 0.049616598
0002f0 6b 1c 2f bd 9e cc a4 bd 59 9d 9e 3a 50 b0 87 bd
       -0.04275171 -0.0804684 0.0012101337 -0.06625426
000300 6b 73 b2 3c 42 97 ba bd d7 2d de bd cf c0 b5 3c
       0.021783551 -0.091108814 -0.10848587 0.022186665
000310 6a be 72 3c 68 44 a8 bd 43 8e be 3c 52 21 2d 3c
       0.014815906 -0.082161725 0.023261195 0.010567026
000320 12 85 5a 3d b5 28 8b 3c 43 d0 b0 3c 3f 20 37 3d
       0.053349562 0.016987184 0.021583682 0.044708487
000330 08 8e 92 bd 46 db 4d bd 68 53 c4 3c 04 e6 9b 3d
       -0.071559966 -0.050257944 0.023965552 0.076122314
000340 a5 23 0c 3d 6a f0 4b bd e3 a6 e8 bc dd 19 30 bc
       0.03421368 -0.049789824 -0.02839989 -0.010748354
000350 1c bf d5 3c a3 b1 e6 3c 87 d8 23 bc 61 e4 68 bd
       0.026092105 0.028160876 -0.010000355 -0.056858424
000360 53 57 b5 3c fb 81 8c 3d 3c c3 04 3d b7 fd 4e bd
       0.022136366 0.06860729 0.032412753 -0.05053493
000370 4a d5 3d bd 65 d3 91 bd 3e f6 5c bc ee c4 16 bc
       -0.046345986 -0.071203984 -0.013486443 -0.009202225
000380 cf 1b 80 bb 42 52 74 3d c7 15 e2 bc 99 20 2a 3b
       -0.003909565 0.05964876 -0.027598275 0.002595937
000390 fa 33 40 bd 34 fa ab 3d 24 06 9b 3d 52 7f 8e bd
       -0.04692457 0.08397332 0.075695306 -0.06957878
0003a0 f3 f1 58 3d 7a e2 ae 3d 7a 95 c0 bc cf 76 ce 3c
       0.052965116 0.08539291 -0.023508776 0.025203137
0003b0 b6 78 7a bb 01 2b 1d bd 9f 2a c7 bc c4 3e c2 3c
       -0.0038218922 -0.03837109 -0.024312316 0.02371157
0003c0 8c 35 a4 bd 2b 70 9d bd 8d 3c 5c bd 67 4a 41 3d
       -0.08018026 -0.0768741 -0.053768683 0.047190096
0003d0 36 8a 82 bd c9 fa f8 bc 84 f4 00 3d 3e 56 5b bc
       -0.06374018 -0.030393021 0.03148319 -0.013387261
0003e0 eb 39 55 bd 08 01 03 bd 6a 68 6f 3d 12 f8 b7 bc
       -0.052057188 -0.031983405 0.058449186 -0.022457156
0003f0 4b b4 28 3c e8 6b 1f bc 64 71 21 3d a5 9c 88 3d
       0.010296891 -0.009730317 0.03941478 0.066705026

bias f4 [32]
000000 a4 ce 7d bc 5b 9e fa bc 29 e4 17 bd ff eb 51 3d
       -0.0154911615 -0.030593088 -0.037082825 0.051250454
000010 70 9d d7 3c cd 2c 8e 3a be 80 8e bd c3 fe 92 bd
       0.02632019 0.0010847092 -0.069581494 -0.07177498
000020 c9 19 c3 bb dd 69 47 3c 3f 0a 2d bd ef 69 69 bd
       -0.0059540016 0.012171236 -0.0422461 -0.05698579
000030 60 0c 45 3d 01 89 e5 3c b8 4e 44 3c 14 0f 8f bd
       0.048107505 0.02801943 0.011981659 -0.06985298
000040 29 b8 a7 bd 0e 40 a5 bd 4e 3e 50 bd 0b 7c ec 3c
       -0.08189423 -0.08068858 -0.05084067 0.028867742
000050 a1 86 a4 bc 06 50 90 bd 66 08 a5 3d 56 9c 03 3d
       -0.020083727 -0.07046513 0.080582425 0.032131515
000060 7f 46 c0 bc 44 a0 96 3d 73 34 73 3d a0 fe 67 bd
       -0.023471115 0.07354787 0.05937619 -0.056639314
000070 89 f0 4c 3d fc 88 df 3b 7a ef 63 3d b8 2d 81 3d
       0.05003408 0.0068217497 0.055648305 0.06307548

weight f4 [32, 32, 3, 3]
000000 26 dc 58 bd f2 3f 27 bd e5 8d 0a bc 97 b6 0d 3d
       -0.052944325 -0.040832467 -0.008456682 0.03459796
000010 15 f5 6b 3c 30 de 85 3c d4 f7 d4 bc b4 b9 8c 3c
       0.014401694 0.016341299 -0.02599708 0.017178394
000020 7c c4 35 bd e1 d5 5a bd dd 84 0a bb a0 00 00 bd
       -0.044376835 -0.053426627 -0.0021136322 -0.031250596
000030 14 6d 20 3a b1 91 48 bd 45 76 62 bb 7e c8 24 bd
       0.00061197695 -0.048967067 -0.0034555357 -0.040230267
000040 1a 77 b7 ba 31 71 3f 3d 53 cb 0f bd da f4 77 bd
       -0.0013997287 0.046738807 -0.035106014 -0.060536243
000050 29 60 42 3d 1a fe 41 3d be 1e 72 bd d2 8c 41 3d
       0.047454987 0.04736147 -0.05911135 0.047253437
000060 99 52 66 bd ed 6c 7d bd 83 a1 6d 3c 2f 24 4f bd
       -0.056231115 -0.061871458 0.014503839 -0.050571617
000070 14 76 35 3d ec 02 5f 3d 5d 7e 67 3c 7b 21 54 bd
       0.04430206 0.054446146 0.014129248 -0.051789742
000080 d9 b0 3d bd 58 a3 6a bd 08 0f b5 3c 9e 75 20 3d
       -0.046311233 -0.057284683 0.022101894 0.03917467
000090 83 bd 1c bc 99 17 6f bd d8 93 73 bd bc 9f 66 3c
       -0.0095666675 -0.058372114 -0.059467167 0.01407617
0000a0 a7 41 b3 3c 9e 8a 59 3d 4d e5 f4 b8 ab af 55 3c
       0.021881891 0.05311071 -0.00011677537 0.013042371
0000b0 0f bb 4c 3d 81 bc 72 bd ee 18 42 3d 5a a9 e6 bc
       0.04998308 -0.059261803 0.047387056 -0.028156925
0000c0 65 4c a1 bc 6c 25 09 bd d2 6d 63 3c 5a 56 53 bc
       -0.019689748 -0.033482954 0.013881164 -0.012899006
0000d0 c4 3e 3a 3d 28 0e c4 ba 54 14 19 bd eb 20 26 3b
       0.045470014 -0.0014957832 -0.037372902 0.002534921
0000e0 70 57 09 3d be 14 49 bc 53 24 48 bd 59 74 12 3c
       0.033530653 -0.012273012 -0.048862766 0.008938872
0000f0 8f fc 19 bd 9b de 16 3d a4 f7 a3 3c c1 30 3b bd
       -0.037594374 0.036833387 0.020015545 -0.045700792
000100 33 ae 29 bd 49 56 2a bd 90 16 3b bd db bd 11 3c
       -0.041425895 -0.041586194 -0.045675814 0.008895363
000110 fc e5 82 bd 03 0f 8c bd cc 34 b4 3c 4c 9c 6b bd
       -0.06391522 -0.06838801 0.021997832 -0.057522103
000120 05 17 51 3c b3 a3 8f 3c 5d c8 82 bc a8 a4 5e bd
       0.012761836 0.017534113 -0.015964681 -0.054356247
000130 7b f1 15 bd e1 ac 8a 3c 36 ee c8 bc 9a 87 f4 3c
       -0.036607247 0.016928138 -0.02452765 0.029849816
000140 6d a0 40 3d f7 c5 3b bd d5 47 05 3d 71 6f d6 3c
       0.047027994 -0.04584309 0.032539207 0.026176186
000150 4f da 82 bd 37 b7 86 3b a6 20 10 bd 15 35 f0 3c
       -0.06389295 0.0041111964 -0.035187386 0.029322186
000160 ae 03 ee 39 65 12 02 bd b2 ab 46 bd bc 0b 2d bd
       0.0004539764 -0.031755824 -0.048503585 -0.04224752
000170 9a 62 a8 bc 24 d1 59 3d e7 b8 85 bc 5c 75 9c bb
       -0.02055483 0.053177968 -0.01632352 -0.0047747325
000180 6e e4 3f 3b 30 72 43 3d 6a 7e 58 bd a2 1a 56 bd
       0.0029280442 0.04771632 -0.052854933 -0.052271493
000190 37 f0 2f bd 6f 84 c6 bc 0f 90 8b 3c 21 e0 f4 3c
       -0.042953696 -0.024233071 0.017036466 0.02989203
0001a0 49 c8 2e bd 85 19 1b bd 8a f6 01 3d 80 95 43 3d
       -0.042671476 -0.037866134 0.03172926 0.047749996
0001b0 09 07 53 3d 36 30 97 3c aa a3 97 3c 75 03 9f 3c
       0.05152038 0.018455606 0.018510658 0.019410828
0001c0 38 7f 0c ba 7e 94 ea 3c 2d fe a1 3c 58 6a ee 3c
       -0.0005359533 0.02863526 0.01977452 0.029103443
0001d0 ad d1 97 3c 79 2b 81 bc cb 47 00 bd 8d 98 bc 3c
       0.018532598 -0.0157678 -0.031318467 0.02302196
0001e0 8a 1d ef bc 1a 47 1d 3d da 5d 12 3c 24 ca b0 bc
       -0.02918889 0.038397886 0.008933509 -0.021580763
0001f0 dd be 86 bc 42 50 c4 3c 26 27 40 3d db 40 87 bc
       -0.016448433 0.023964051 0.046912335 -0.016510418
000200 77 f6 c3 bc f8 f2 70 bc a8 07 4d 3c 80 33 47 bd
       -0.023921235 -0.014706366 0.012514032 -0.0486331
000210 03 45 cf bb 75 42 05 bb 40 cb 30 3d 86 cf 9f bc
       -0.0063253655 -0.00203338 0.043162584 -0.019508135
000220 62 df 2d 3d 69 81 77 3b 13 f7 34 bd fc 84 6d bd
       0.042449363 0.0037766343 -0.04418094 -0.057988152
000230 16 e6 40 bc 50 66 45 bd 73 1c d1 bc 4e 49 a9 3b
       -0.011773607 -0.048193276 -0.025526261 0.0051662093
000240 bf 7a 1a 3d 05 12 21 bd bd c3 5a 3c 58 b2 6c bd
       0.037714716 -0.039323825 0.013352332 -0.05778727
000250 6d bd f1 3c 8f ba 6f bd ab 90 69 bd 4a aa 2d 3c
       0.02950927 -0.058527526 -0.05702273 0.010599682
000260 b3 bf 17 3d 21 86 39 3c 48 5d a3 bc c1 29 1c 3d
       0.037048053 0.011323483 -0.01994194 0.038125757
000270 01 68 1c 3d 3f ed 8d bd 41 d2 c4 bc 83 db 0e 3d
       0.038185123 -0.06930017 -0.024026038 0.03487731
000280 be da 0c bc 46 26 dd bc 07 cb 3d bd 64 96 14 3d
       -0.008597074 -0.02699579 -0.0463362 0.036276236
000290 d6 60 18 bd 42 4f 2e 3d 44 7f 4e 3c 7c 93 8d bc
       -0.037201725 0.042556055 0.012603585 -0.01728224
0002a0 fb 34 00 3d 48 cc 36 bd e1 3f 49 3d 50 13 89 bc
       0.031300526 -0.04462841 0.049133185 -0.016732842
0002b0 0c 9f e0 bc 53 d7 4d bc 7c f8 69 bc 76 a5 25 3d
       -0.02741959 -0.012563544 -0.014280435 0.040441
0002c0 1f 75 07 3c f7 e9 62 bd 90 be 84 bd 92 b7 37 3d
       0.00826767 -0.055398908 -0.064816594 0.0448528
0002d0 31 bb 11 3d 75 7d 1f 3d cd 0d 1f 3d cf 74 10 3d
       0.03557891 0.038938005 0.03883152 0.035267647
0002e0 d2 64 69 bd 79 06 02 3d 16 94 53 3d dc 40 66 3d
       -0.056980915 0.031744454 0.051654898 0.0562142
0002f0 1d 79 52 bd 84 31 26 bd 07 67 da b9 db 72 db 3c
       -0.051385034 -0.040574566 -0.00041656962 0.026788166
000300 93 12 cc 3c 10 6a 5e 3d e8 d0 45 bd 05 9d c3 bc
       0.0249112 0.054300368 -0.04829493 -0.023878584
000310 6b ff 18 3d 4c 6d 4b bc 96 c3 f2 bc 46 06 8b bd
       0.03735296 -0.012416195 -0.029634278 -0.06788306
000320 b7 8c 61 bc bc 45 01 3d 10 c7 11 bd f8 75 1f 3d
       -0.013766459 0.031560645 -0.03559023 0.038930863
000330 c0 d0 b1 bc c5 c8 d6 bc b0 e8 14 3d b4 2e 1c 3d
       -0.021705985 -0.026218781 0.03635472 0.038130477
000340 a9 db 42 3d 5c 09 29 3d 94 36 59 3d 2f 26 49 3d
       0.047572765 0.04126869 0.053030565 0.04910868
000350 56 1c 0f bb bd b4 3c bd a9 81 49 bd fe 11 5c 3c
       -0.0021836958 -0.046070803 -0.04919592 0.013432024
000360 25 06 6e bd c4 fc 25 bd d1 d1 86 bd 2a 78 38 3d
       -0.05811133 -0.04052426 -0.06582988 0.045036472
000370 ce da 4c 3d 86 cc 21 bd c8 1b 5b bd 91 3d c3 bc
       0.050013356 -0.03950169 -0.05349329 -0.023833068
000380 84 67 97 3c 83 33 10 bd c3 00 70 bc a3 e2 29 bd
       0.018481977 -0.035205375 -0.014648619 -0.041475903
000390 89 70 1c 3d 38 a4 57 3d fa bf 31 3d 11 6f 64 bd
       0.03819326 0.052646846 0.043395974 -0.055769984
0003a0 d9 9f 38 bd 82 70 2c bc 6d fd 36 bd 8f 5d 6a 3d
       -0.045074318 -0.010524871 -0.04467528 0.05721813
0003b0 ea 94 dc bc 36 2c 0b bc d3 5e 72 3c 92 ec 55 bd
       -0.026926477 -0.008494427 0.014793116 -0.052227564
0003c0 46 67 bf 3c 6a 01 0d bd f3 f5 0b 3d f1 10 2c bd
       0.023364674 -0.034425177 0.034170102 -0.042008344
0003d0 78 89 85 3d b0 69 c3 3c 2d d8 30 bb 9d 02 1d bd
       0.06520361 0.023854107 -0.002698432 -0.03833257
0003e0 e2 d2 2a bc 9f 58 2c bc 9e ac d5 bc 8c 9c cc bc
       -0.010426255 -0.010519176 -0.026083287 -0.024976991
0003f0 2b c5 e3 3c 4f fd c3 bc f0 c9 11 bc f0 2a 4e bd
       0.027803978 -0.023924498 -0.008898243 -0.050333917

bias f4 [32]
000000 06 5e fd 3b 05 9c 10 3d 25 32 3e 3d 8b 76 bc 3c
       0.0077321557 0.03530504 0.04643454 0.023005744
000010 d3 58 7e 3d 4b 0f 87 3d ea 7d 2d 3d dc 5d 8e 3d
       0.062096428 0.06594714 0.04235641 0.06951496
000020 20 b5 33 bd 34 1b 28 3d ae 13 c4 3c e7 c9 38 bd
       -0.043873906 0.041041568 0.023935165 -0.045114424
000030 e8 f9 f4 3b 68 17 f1 bc 0c a2 4d bb 79 a8 ba 3d
       0.00747608 -0.029430106 -0.0031377105 0.09114165
000040 3a ad 6b 3b 5c aa 82 3d 4f df 92 3d 5f 20 fe 3c
       0.0035961405 0.0638015 0.07171499 0.031021295
000050 9c 9c 00 bc 77 41 0c bd f1 55 4f 3d 3c 8b a5 bb
       -0.007849839 -0.03424212 0.05061907 -0.0050519984
000060 d2 9b 01 3d ea ac 5c bc b1 b0 4d 3d 50 67 f3 3c
       0.031642742 -0.01346896 0.050217334 0.02971235
000070 d4 5a 11 bd 31 5b e7 3c e4 51 c3 3c e3 a1 d8 3b
       -0.03548701 0.028241726 0.02384276 0.0066110953

weight f4 [64, 32, 3, 3]
000000 5d 21 d7 bc fa 7b 20 3c 7a 63 72 3d 6e fe 3c bd
       -0.026261026 0.009795183 0.0591769 -0.04614108
000010 0f 1a 39 bc 87 e0 07 bb 8b 4f 1e 3d 7d c3 bb bc
       -0.011297717 -0.0020733194 0.038650077 -0.022920365
000020 7d 41 26 3d 07 17 71 bd 09 b8 a1 bc 46 3c 82 bc
       0.0405898 -0.05885985 -0.019741075 -0.015897881
000030 18 fb f6 3c 42 3a 36 bb 77 5d 80 3c 80 71 22 bd
       0.030149028 -0.002780572 0.015669568 -0.039659023
000040 c0 c6 4c bd 1a ec 0d bc e1 51 eb 3c 4b 05 db bc
       -0.04999423 -0.008662248 0.028725566 -0.026735922
000050 ce 3d e2 3c fd 21 e4 bb 2a 95 fc bb a1 ab 43 bd
       0.027617361 -0.0069620595 -0.0077082114 -0.0477711
000060 e5 12 44 bd 89 d7 b7 3a 74 9d 4f bd 42 1e 52 3d
       -0.04786958 0.0014026026 -0.05068727 0.051298387
000070 40 d4 24 3d 18 56 b6 3c a5 6f 3d 3d 86 ff c7 3c
       0.04024148 0.02225785 0.04624905 0.024413835
000080 1c b4 58 3d 12 8c 9c 3a da c5 11 bc 80 1c 42 bd
       0.05290614 0.00119436 -0.008897269 -0.04739046
000090 59 92 5f bc 96 00 10 bd 08 40 4a bc f7 ae 12 bd
       -0.013645732 -0.03515681 -0.012344368 -0.03581139
0000a0 d4 67 20 bb a3 61 9f bc ea e7 2e 3d bb 17 c2 bc
       -0.002447595 -0.019455737 0.04270164 -0.023692956
0000b0 60 4e a0 bc d2 90 df 3b 76 95 1e 3c 32 41 09 bc
       -0.019568622 0.006822684 0.009679189 -0.00837736
0000c0 74 7f 65 bc 02 df 38 bd 26 e2 d7 bc 34 e4 74 3c
       -0.014007438 -0.04513455 -0.026352953 0.014946986
0000d0 8f ae e8 bc 35 61 84 3c 72 d9 a4 ba 51 63 5c 3d
       -0.028403549 0.016159633 -0.0012577011 0.053805653
0000e0 33 74 cc 3c 4e e7 3e bd 97 be f8 3c cf ac 5e 3d
       0.024957752 -0.046607308 0.030364318 0.054364022
0000f0 63 94 2f 3d 7b ce 34 bd f8 a7 4c bd e8 bb 64 bd
       0.042866122 -0.044142228 -0.049964875 -0.055843264
000100 61 d7 0d 3d 2c 2d 3e bc 71 52 59 3d c5 8a 1d 3d
       0.03462923 -0.0116074495 0.053057138 0.03846242
000110 a8 83 35 bc 5b 1e 81 bc 59 20 b5 3c 9f 2d 2b bb
       -0.011078753 -0.015761545 0.022110151 -0.0026119722
000120 0c 7f 83 3c 47 8a 10 bd 04 53 0c 3d 22 e8 41 3d
       0.016051792 -0.03528812 0.034258857 0.04734052
000130 72 a6 00 bd 70 b7 0e bd 76 c6 04 bd 28 b1 19 3d
       -0.031408735 -0.03484291 -0.03241583 0.037522465
000140 f3 ad 90 bc 1b d3 30 3d 1f b1 13 bc bd 65 0c bd
       -0.01766107 0.043170076 -0.009014397 -0.034276713
000150 d3 ea 7c bc 1f 5f c0 bc 0e 18 38 3d 57 11 41 bd
       -0.015436846 -0.023482857 0.044944815 -0.047135677
000160 83 43 e2 bc d4 98 1c bc 22 28 9b 3c c2 b4 19 3d
       -0.027620083 -0.009557921 0.018940035 0.0375259
000170 d8 be cb bb 15 5c 1d 3d a3 1d 23 3d e9 b9 84 bc
       -0.0062178187 0.038417894 0.039823186 -0.01620193
000180 ac 0b 65 3d b9 18 9c 3c 52 54 ec bc 45 17 74 bc
       0.055919334 0.019054757 -0.0288488 -0.014898126
000190 ac ed 37 bd 1c 5e 2b 3d be e4 08 bd 31 28 40 3d
       -0.044904396 0.041837797 -0.03342127 0.04691333
0001a0 be f9 6b 3c 7e 62 16 3c f7 19 fd bb 14 e5 b2 3c
       0.014402805 0.009178756 -0.0077240425 0.021837749
0001b0 ea 0b 6e 3c 14 c3 75 3a 01 dc e7 bc 87 77 9b 3c
       0.014529208 0.0009375077 -0.028303148 0.018977894
0001c0 f5 e4 c4 bc 27 1b db 3c db 55 a5 bc be 25 62 3d
       -0.024034956 0.026746346 -0.02018254 0.055211775
0001d0 e6 fa 06 bd a4 ae 46 3c 72 53 23 3d 87 24 21 3d
       -0.03295412 0.0121265985 0.0398745 0.039341476
0001e0 f9 a4 98 bc d1 5f 5b bd 34 e0 6a 3c 22 10 c7 3c
       -0.018633353 -0.053558175 0.014335681 0.024299685
0001f0 d7 26 47 3d 30 4e 62 bc 91 31 b9 bb 41 d8 53 bd
       0.048621025 -0.013812587 -0.0056516607 -0.051719908
000200 0f db 1b 3b 56 d4 3a 3d b3 a7 3f 3d 66 0b 43 bc
       0.0023781692 0.045612656 0.04679079 -0.011904573
000210 10 a1 5b bd 0c 02 43 3c db e6 53 3d a4 4a 67 3c
       -0.053620398 0.0119023435 0.051733833 0.014116917
000220 bd 97 fa bc 1a ab 1e 3c d0 8d 32 3c 05 1a 7c bb
       -0.030589933 0.0096843485 0.010898069 -0.0038467657
000230 7d da c0 3c 37 27 f0 bc 94 76 77 3c de 22 d8 bc
       0.023541683 -0.029315574 0.015103955 -0.026383813
000240 d5 52 bc bc d0 11 36 bd ca 32 5f 3d 12 89 41 bc
       -0.022988716 -0.04445058 0.054491796 -0.011812465
000250 15 07 10 bd d3 18 79 3b cd cf 6a 3b ce c9 56 bd
       -0.035163004 0.003800918 0.0035829425 -0.05243855
000260 1c 3d b9 ba 83 19 c8 bc ea 85 c0 3c 6a 75 ac 3b
       -0.0014132592 -0.024426227 0.023501355 0.0052630203
000270 55 80 a5 3c e1 5c dd bc 00 7a b6 bc c5 02 6d bc
       0.020202795 -0.027021827 -0.022274971 -0.014465992
000280 18 2f f9 bc 90 51 a3 bb e9 28 20 3d 2d 01 75 bd
       -0.030417964 -0.0049840882 0.039101515 -0.059815574
000290 91 e2 62 3a dc a8 96 3c 6d 64 5f bd e9 cc f8 bc
       0.0008654977 0.018391065 -0.054539133 -0.030371146
0002a0 02 0e 5b bd fd 1a 14 3d d6 04 95 bb 1f 41 bf bc
       -0.053480156 0.03615855 -0.0045476956 -0.023346482
0002b0 2f 9f 67 3c 49 00 63 bd ac 00 42 3d ee fe b3 3c
       0.014137073 -0.055420194 0.047363922 0.021972146
0002c0 36 63 f9 3b 9c 42 24 3d e4 12 80 3c 6b dc c8 bc
       0.007610704 0.040102586 0.015634008 -0.024519166
0002d0 9c d2 68 3c 37 c3 53 bd 1c 26 1e bc bd 26 cf bc
       0.014210369 -0.051699843 -0.009652641 -0.025287027
0002e0 41 1c 02 3d 58 f8 68 bd 06 eb 59 3d ea 54 8b bc
       0.031765226 -0.056877464 0.05320265 -0.017008264
0002f0 34 a6 db bc 03 d1 ac 3a 98 a1 53 bd aa cb 32 bd
       -0.02681265 0.0013184849 -0.05166778 -0.04365126
000300 b6 8e 5b bc 74 3f 67 bb 1c 80 01 bd c9 14 27 3c
       -0.013400724 -0.0035285624 -0.031616315 0.010197827
000310 42 1c 55 bd fb 51 49 3d 84 92 53 3c 29 5b c8 3c
       -0.052028902 0.04915045 0.01291335 0.024457531
000320 64 86 eb bc 5a 9d de bc 4f b5 19 bd 46 0f 93 3b
       -0.028750606 -0.02717464 -0.037526425 0.0044879047
000330 73 60 4e bd e4 1f 41 bd e4 fc 1a bd e2 00 58 3d
       -0.05038495 -0.047149554 -0.03783883 0.052735217
000340 c3 f4 e2 3b b5 88 5d 3d cd 84 64 3d 2d b2 37 bd
       0.0069261505 0.054085452 0.05579071 -0.044847656
000350 ee 13 04 bd 99 7a b9 3a 27 5a fe bc a5 36 ce 3b
       -0.03224557 0.0014150917 -0.031048847 0.006293135
000360 06 d8 3a 3d 2c 9b 36 bd 01 06 2b bd f4 97 e0 3b
       0.045616172 -0.044581577 -0.041753773 0.0068540517
000370 27 cf 4a 3d e6 c9 7c 3c 32 a9 5e bd 89 53 b0 3c
       0.049513962 0.015428996 -0.054360576 0.021524208
000380 46 e5 02 3d 60 52 49 3c 13 f3 f2 bb c2 e8 d4 bc
       0.031956933 0.012287706 -0.0074142306 -0.025989894
000390 15 17 46 bd d4 70 0d bd 27 89 35 3d cf 1f 53 3d
       -0.048361856 -0.03453143 0.04432025 0.051544007
0003a0 ae b8 8c bc ee 0f 5e bd 77 09 1a bd d4 2a d4 bb
       -0.017177906 -0.05421441 -0.037606683 -0.006474832
0003b0 2d ca 78 3c 0c 11 56 3d cb d0 09 3d 03 70 1f 3c
       0.015184921 0.05226235 0.033646386 0.0097312955
0003c0 b7 dc 81 3c c5 11 be ba 74 a8 c8 3c d1 99 db 3c
       0.015852315 -0.0014501145 0.024494387 0.026806744
0003d0 44 09 2c bd 39 d9 4f 3c ab 44 2f bd 7e cb 93 3c
       -0.042001024 0.012686067 -0.042790096 0.018041369
0003e0 04 23 26 bd 36 e2 f8 3c fc 95 8e bb c6 81 d5 3c
       -0.040560737 0.030381303 -0.0043513756 0.026062857
0003f0 74 a1 2e 3d c0 5f ae 3c 1d 74 4c 3d 9a 83 21 bc
       0.042634442 0.021285892 0.04991542 -0.009858036

bias f4 [64]
000000 48 88 aa 3c 50 e0 4e 3d 9c a2 55 bc 5f 21 8f 3c
       0.020816937 0.05050689 -0.013039257 0.017471967
000010 4d f1 bd bc af c5 4b 3c 69 47 f7 bc c0 72 08 3d
       -0.02318635 0.012437268 -0.030185418 0.03331256
000020 0d cf 4b 3b 3b 26 41 bd 2e 2a 39 bd 33 47 93 3c
       0.0031098754 -0.0471556 -0.04520624 0.017978286
000030 b5 89 c5 3c 53 75 a1 3c 2f bb 5b 3d e3 34 04 bb
       0.024113515 0.019709265 0.05364531 -0.0020173125
000040 3c af 19 bd 81 eb 43 bd 32 40 9c bb d7 e1 26 3d
       -0.037520632 -0.047832016 -0.004768395 0.04074272
000050 59 32 85 bb cc 8b 87 3c d0 e9 4f 39 01 77 7f bd
       -0.00406484 0.016546153 0.0001982816 -0.06236935
000060 f7 d6 5d bc de 8f 66 3c 14 c7 87 bc 50 24 8f 3c
       -0.013540021 0.014072387 -0.01657442 0.01747337
000070 7b 95 1a 3d 28 49 14 3c e2 ee 67 3c 87 1f bf bc
       0.037740212 0.009050645 0.014156075 -0.023330463
000080 0f c5 38 3d 58 2e 68 3d 52 7c 5a 3c 4b c9 f1 bc
       0.045109805 0.05668482 0.013335304 -0.02951493
000090 ba 22 30 bd 30 69 4e 3a bc d8 c3 bc c7 bc 8f bc
       -0.043001868 0.00078739505 -0.023907058 -0.01754607
0000a0 cb 60 b5 bb ff 89 35 bd 37 4c c9 3b b2 a2 17 bd
       -0.0055352203 -0.044321056 0.0061431187 -0.037020393
0000b0 38 89 85 bd 2b 05 2e 3d ab 0a 0e bd f0 0d 35 bd
       -0.06520313 0.042485397 -0.034678143 -0.044202745
0000c0 10 df 80 3c a2 f2 e1 bc dd cc 44 3b a8 53 04 bb
       0.015731364 -0.027581517 0.0030029335 -0.0020191465
0000d0 8e d9 26 bc 30 52 dd bc 53 14 2d 3d 2a 34 65 3d
       -0.010183705 -0.02701673 0.04225571 0.05595795
0000e0 ae fe a8 3a 19 c4 4b 3c 80 75 29 3d e8 a8 9a 3b
       0.0012893283 0.01243689 0.041371822 0.004719842
0000f0 66 21 1a bd b7 51 29 3d b4 fb 55 3d f0 6c 41 3c
       -0.037629507 0.041337695 0.052241996 0.011805758

weight f4 [64, 64, 3, 3]
000000 2f 18 cc bc d8 69 ad 3c ba 6a e7 bb d3 93 cd 3c
       -0.024913875 0.021168634 -0.0070622833 0.025094902
000010 d1 c8 0d 3d 18 8c e5 3c bf ad cd bc ec 45 47 3c
       0.03461534 0.028020903 -0.025107263 0.012162667
000020 4d 73 94 3c c7 a7 b4 3c c3 3c 65 3c f9 3c de bc
       0.018121386 0.022052659 0.0139915375 -0.027128683
000030 72 cf cb 3c 82 3c 5d 3c a1 37 8a bc 35 7c 30 3c
       0.024879191 0.013503196 -0.016872229 0.010771801
000040 82 a4 a8 3c 5f 0b 2d 3d 12 4f d0 bc 73 fb 57 3c
       0.020586256 0.042247172 -0.025428329 0.013182509
000050 fe f5 1a bd 52 ac 9c 3c 18 d8 6e 3b 58 6e 0c bd
       -0.037832253 0.019125137 0.003644472 -0.03428492
000060 9e 1e b2 bc 72 6f 5e 3c 06 70 12 bd b4 bf 5a 3c
       -0.021743115 0.013576375 -0.035751365 0.01335137
000070 cb 4b e8 bb 50 c9 06 3d 07 21 66 3c 1c 58 1e 3d
       -0.0070891134 0.03290683 0.01404596 0.038658246
000080 81 a7 a1 bc ef f2 7c 3b 32 96 78 bc f4 66 04 bb
       -0.019733192 0.0038596948 -0.015172528 -0.0020202966
000090 b1 21 1d bd 1c 7c 8e bc 84 92 34 3b 43 ba ec bc
       -0.03836221 -0.017393164 0.002755315 -0.02889741
0000a0 ee ff f2 bc 3d 09 57 bc d9 0c 97 bc 59 94 d5 bc
       -0.029663052 -0.013124761 -0.018438743 -0.026071714
0000b0 dd dc 96 bc 97 1c 06 3d 65 e7 b6 bb af ea 02 3d
       -0.018415863 0.03274211 -0.0055817836 0.031962093
0000c0 ad 44 c1 3c 36 45 6a 3d a1 36 68 3a 85 2d 29 3d
       0.023592317 0.05719491 0.0008858238 0.041303176
0000d0 13 5b 2d bc 1c 3c b7 3b 3a 87 47 bb d0 a4 81 bc
       -0.010580796 0.0055918824 -0.0030445592 -0.015825659
0000e0 9b 5b 6c 3c 68 4e f1 bb a0 0c f4 bc 97 b9 da 3c
       0.014426137 -0.007364083 -0.029791176 0.026699824
0000f0 95 06 22 bd 80 bc 94 bb 27 20 18 bd fa b8 1e 3d
       -0.03955706 -0.0045390725 -0.037140038 0.038750626
000100 e8 7f f6 bb 9f 5f f5 bc e6 66 80 3b 8e b8 8d bb
       -0.007522572 -0.029952822 0.0039185164 -0.004324979
000110 6c 2e 92 bc f9 96 1d bd af 3b 41 bc e2 f9 87 39
       -0.017844401 -0.038474057 -0.011794015 0.00025935384
000120 e0 68 3c 3b 17 c3 98 3c b3 82 cd 39 f8 26 c9 bb
       0.0028749034 0.018647714 0.00039198025 -0.0061386786
000130 43 a4 4e 3d d5 08 5a 3d 8b 26 b9 bb 35 49 a9 3c
       0.05044962 0.05323108 -0.0056503466 0.02066479
000140 56 74 d1 bc 9f 6b 8c 3c 3b 5a 4b 3c 56 91 7c ba
       -0.025568169 0.017141161 0.012411649 -0.0009634694
000150 06 07 1f 3d d7 74 ae 3c 18 32 0e 3d 42 1c 91 3c
       0.038825057 0.021295948 0.034715742 0.01771367
000160 57 58 ef 3b 8f 90 2a 3d a6 f7 d7 bc f9 9e b0 bc
       0.007304232 0.041641768 -0.026363205 -0.02156018
000170 86 37 09 bd fd 4c 07 bd 94 23 a0 bc 49 3e a7 3b
       -0.033500217 -0.033032406 -0.019548215 0.0051038605
000180 b7 a9 29 bd 38 bd 8d 3c 36 fd db bc 22 87 36 bd
       -0.04142162 0.01730214 -0.026854139 -0.044562466
000190 3e ff 83 bc 98 f8 5c bc 64 8c 46 bd 92 8f 85 bc
       -0.01611292 -0.013487004 -0.04847373 -0.016303811
0001a0 81 0c ec 3a fa 47 11 bd e8 54 b3 bc c1 e4 a3 3c
       0.0018009098 -0.035469033 -0.021891072 0.02000654
0001b0 d5 aa b8 3c 04 28 1c bd 73 ba 7a 3b a8 4c 1e 3b
       0.022542397 -0.0381241 0.0038258105 0.0024154577
0001c0 14 26 6c 3c d4 1b 82 bc 03 82 64 3c 34 1a 79 bb
       0.014413375 -0.01588241 0.013947013 -0.0038010003
0001d0 98 bb 1a bd 51 73 0e 3d ba 4e 0d 3d 67 3e 7f 3c
       -0.03777656 0.034777943 0.034498908 0.015578843
0001e0 4c 5f 36 bc 96 07 17 3d 95 1b e6 bc a4 f7 14 3d
       -0.011131119 0.03687247 -0.028089324 0.03636898
0001f0 77 09 a1 bc 86 fb e8 bc e1 06 79 3c 6e d1 2d 3c
       -0.019657834 -0.028440248 0.015199394 0.010609014
000200 86 df 16 3d ca 1f cc 3b d7 1e 20 bd 5d a1 45 bb
       0.036834262 0.0062293755 -0.03909191 -0.0030155994
000210 e3 34 fa 3c 0f 04 04 bd f7 33 b4 3b f3 35 cf bc
       0.030542796 -0.032230433 0.0054993588 -0.02529428
000220 04 5f ef bc b9 fa a9 3c f9 75 f4 3b 78 76 03 bd
       -0.029220112 0.020749437 0.0074603525 -0.032095402
000230 b1 e3 de 3c 9a 96 ef 39 64 56 10 bd 60 67 08 3d
       0.027208181 0.0004569784 -0.03523864 0.03330171
000240 22 06 d5 3c f6 65 15 bd 6d aa 25 3c b8 bb 64 3c
       0.0260039 -0.03647419 0.010111433 0.013960771
000250 67 1a ce ba 53 df 56 ba 6b da 12 3c 8e cd 70 3b
       -0.0015724421 -0.000819673 0.008963208 0.0036743614
000260 4b e6 52 3c 5a 1f 0e bd 78 2d 01 bd 36 a7 03 3d
       0.012872289 -0.034697868 -0.031537503 0.032141887
000270 f8 c7 14 3d 79 4f b3 bc a7 65 08 3d 64 8a a8 3b
       0.036323518 -0.021888481 0.03330007 0.0051434506
000280 cc 38 2e 3c 61 e1 1d 3c 49 09 fb 3c 72 24 c6 38
       0.010633659 0.009636254 0.030644076 9.448164e-05
000290 81 d1 4f 3c fa 4a 25 bd e3 04 88 bc 00 70 04 bd
       0.012684227 -0.040354706 -0.016603893 -0.032333374
0002a0 73 8b f2 ba de 33 e8 bb e6 f9 7f 3c 5d 0c 2f bd
       -0.0018504694 -0.007086261 0.015623545 -0.0427364
0002b0 f4 21 fc 3c db f5 2c bd c8 74 c6 bc a9 5c 5b 3c
       0.030777909 -0.042226654 -0.024225608 0.013388791
0002c0 a0 9f 50 bc b0 db 71 3c 38 8d c1 bc 7f 2a 08 3d
       -0.01273337 0.01476185 -0.023626909 0.033243652
0002d0 ad db 2b bb 95 7b 12 3c 72 f9 1a bd 01 25 9c 3c
       -0.0026223466 0.008940597 -0.037835546 0.019060614
0002e0 a0 89 cb bc 77 a7 d5 3b ef c5 7d bb 21 c3 1d bd
       -0.024845898 0.0065202075 -0.0038722714 -0.038516168
0002f0 40 98 34 bc e8 3a 95 bc 42 ad 85 bc ec 13 80 3c
       -0.011022627 -0.018216565 -0.016317967 0.0156345
000300 de 37 89 3c 9d cc 07 3d f2 83 b5 bb 94 1a a7 3a
       0.016750272 0.03315412 -0.0055394107 0.001274901
000310 0b f4 55 3c b6 c3 45 bb 8d 51 b2 bc b3 7c a2 bc
       0.013058673 -0.0030176467 -0.021767402 -0.019834852
000320 21 02 48 3d 04 8b 2b 3d 90 b7 1a 3d 58 dc 5e 3b
       0.048830155 0.041880623 0.037772715 0.0034005847
000330 9d c2 ac 3c b7 10 e3 bc 1d 43 1e 3d 25 81 03 3d
       0.021088893 -0.027717931 0.038638223 0.032105584
000340 96 85 59 bc 7e f6 d1 bc 62 fa 8d bc f4 9f 10 bd
       -0.013276478 -0.025630232 -0.017331306 -0.035308793
000350 6a 61 a6 bb 60 2b 0a bc ea 71 39 3c 9b a6 c3 3b
       -0.0050775306 -0.008433193 0.011318663 0.0059707887
000360 91 4c 28 3c 9d 79 10 3c 55 46 73 3c 76 df 1e 3d
       0.010272161 0.008818057 0.014848311 0.038787328
000370 7f 38 07 bc 67 c9 1e 3d 0d 5d 85 3c 86 f4 87 3c
       -0.008253216 0.03876629 0.016279722 0.01659609
000380 fd f8 ab bb f0 a3 f2 3c 96 47 73 3c e2 27 ad 3c
       -0.0052481876 0.029619187 0.01484861 0.021137182
000390 10 09 6e 3b d1 2c 56 3d d6 49 ac bc f0 f3 6c bc
       0.003632132 0.052288834 -0.021031301 -0.014462456
0003a0 ba f5 c0 3b 91 c4 e4 bc 1d ec e9 bc db f4 04 bd
       0.005888668 -0.027925761 -0.02855497 -0.032460075
0003b0 f7 0d 0d bd 83 f0 ee 3b 15 22 da 3b 35 92 a5 3c
       -0.034437146 0.007291855 0.006656895 0.020211319
0003c0 71 2d d7 bc 3b 76 07 bd c5 cb 5b 3c 87 b8 e8 3c
       -0.026266785 -0.033071738 0.013415282 0.028408302
0003d0 df e0 56 bc dc b3 83 3c d6 ea 0d bc c4 c0 11 3d
       -0.013115137 0.016076975 -0.008661946 0.035584226
0003e0 e2 f2 ed 3c ae 50 86 3c cf 90 0a bb f9 ce 19 bd
       0.02904648 0.016395893 -0.0021143442 -0.0375509
0003f0 72 9f 6f bc 54 9c 1e bd 32 59 8b bc b4 d7 d1 bb
       -0.014625417 -0.038723305 -0.017010305 -0.0064038876

bias f4 [64]
000000 0f 6f ee 3c 21 98 1d bc 04 b8 9c 3c e3 fe a2 bb
       0.029105691 -0.00961879 0.019130714 -0.0049742325
000010 33 a3 15 bc aa 18 02 3d a9 2a 34 3d 02 d3 2e bc
       -0.009133148 0.031761803 0.043985996 -0.010670425
000020 89 9c e3 3c 11 d6 27 3d e5 78 af 3c 22 7e 42 3b
       0.027784603 0.040975634 0.021419952 0.0029677232
000030 bf 9c 35 bd 7e f1 2d 3b 1b 29 12 3c e0 2c 8c 3c
       -0.044338938 0.0026541646 0.008920933 0.017111242
000040 bb 41 6f bc 41 db 32 3d 8f 9b 9e bb 51 9b 8b bc
       -0.014603074 0.043666128 -0.0048403214 -0.017041834
000050 98 88 15 3d 6f 3e 24 3d 48 f1 07 3b 5b fc 38 bd
       0.03650722 0.040098604 0.002074318 -0.04516254
000060 b2 87 0a bd 37 7e 27 3c c2 2f ed bc 85 fc e9 3b
       -0.033820815 0.010222963 -0.028953437 0.0071406984
000070 84 ed 02 3c 8c ec ce 3c 28 61 e2 3b 2d 32 c2 3c
       0.007991198 0.025259279 0.0069085546 0.023705566
000080 65 df 94 3c f5 bd 15 bc b8 d0 6f bc a6 0c 15 3c
       0.018172929 -0.009139528 -0.014637165 0.009097254
000090 c2 ac 39 bd 64 d3 62 3c 6f b6 1a 3c 79 8b da 3c
       -0.04533077 0.013844345 0.00944291 0.026677834
0000a0 85 e8 d1 bc d0 f8 c4 bb de 35 21 3b 98 aa e9 3b
       -0.02562357 -0.006011106 0.0024598758 0.007130932
0000b0 df 3d 9f bb ee 02 24 bc fd c7 0e bd 1e 53 bf 3c
       -0.0048596705 -0.010010464 -0.034858692 0.023355063
0000c0 5c 9a e8 3c 08 af 23 bd 36 bd 12 bd 4f c1 00 bd
       0.028393917 -0.039961845 -0.035824977 -0.031434353
0000d0 64 25 0a bd e4 0d 95 bb f0 81 e2 bc 34 64 b9 3b
       -0.033727065 -0.004548775 -0.02764985 0.005657697
0000e0 ac 92 41 bc df d6 08 bd da 13 c7 3c 50 bd 27 bd
       -0.011814754 -0.033408042 0.024301458 -0.040952027
0000f0 3e 79 42 3c c7 a8 c7 bc 9a 27 62 bc 5f 39 4f 3c
       0.011869727 -0.024372471 -0.013803387 0.012647956
