output/20221211_185900/unet_best.pth (torch, 481423 bytes, 25 tensors)

weight f4 [16, 1, 3, 3]
0	0xbe928ffd	-0.2862548
1	0x3e12c275	0.14331992
2	0xbe55f8b2	-0.20895651
3	0x3c96f8f2	0.018429253
4	0xbd75c8f8	-0.06000611
5	0xbdc2a062	-0.09503247
6	0xbe6ed193	-0.23322134
7	0x3dbdc411	0.09265912
8	0x3e8c6519	0.2742088
9	0xbe229d76	-0.15880379
10	0x3dcedbe8	0.101005375
11	0x3d616436	0.05502721
12	0x3dde5ba8	0.10857326
13	0x3e7c8878	0.24661434
14	0x3e920611	0.28520253
15	0xbe509e17	-0.20372806
16	0xbc46f031	-0.012142227
17	0x3e5fd9d4	0.21860439
18	0x3e81cf53	0.25353488
19	0xbe4dcbc4	-0.20097262
20	0xbe9ba657	-0.30400345
21	0x3dc732e2	0.09726502
22	0x3da21452	0.07914032
23	0x3bd7e000	0.006587982
24	0xbd73195f	-0.059350368
25	0xbe546394	-0.20741111
26	0x3e91cf54	0.2847849
27	0xbe0cd85d	-0.13754411
28	0x3e9413f1	0.28921464
29	0xbe27ae0e	-0.1637499
30	0xbd848073	-0.06469812
31	0x3e73917c	0.23785967
32	0x3e6e4cbc	0.2327146
33	0xbe61de0b	-0.22057359
34	0xbdf75310	-0.1207639
35	0x3e663c85	0.22484024
36	0x3e57274c	0.21011084
37	0x3e506e2c	0.20354527
38	0x3dd08fb4	0.10183659
39	0x3dd2af3f	0.10287332
40	0x3e44db4e	0.19224283
41	0xbde9d48d	-0.11417494
42	0x3e990e2f	0.29893634
43	0x3d1239c2	0.035699613
44	0xbe865984	-0.2624017
45	0xbca25821	-0.019817414
46	0xbd641637	-0.05568525
47	0x3e6c962d	0.23104163
48	0xbe47d0af	-0.195132
49	0x3dc308c8	0.09523159
50	0x3e8a0ce0	0.26962948
51	0x3e332278	0.17493618
52	0xbe8f481b	-0.279847
53	0xbe048826	-0.12942562
54	0x3e8e5603	0.27799997
55	0x3e35f0ea	0.17767683
56	0x3e77b6e4	0.24190861
57	0xbe63aa47	-0.22232924
58	0xbd94a0a8	-0.07257205
59	0xbbce1f66	-0.006290364
60	0xbea45177	-0.32093403
61	0xbd243c89	-0.040096793
62	0x3e50b2a2	0.20380643
63	0x3e2a339a	0.16621247
64	0x3e2e055a	0.16994229
65	0x3e571395	0.21003564
66	0x3ce9522c	0.028481565
67	0xbe4791eb	-0.19489257
68	0x3dcf88cf	0.10133516
69	0x3e3aab12	0.1822932
70	0x3e905ed8	0.2819736
71	0x3e96f929	0.2948697
72	0xbe8a8502	-0.27054602
73	0xbd9712a2	-0.07376601
74	0x3e8e344f	0.27774283
75	0xbeb1a57c	-0.34696567
76	0xbe2539b2	-0.1613529
77	0x3e55b42a	0.20869508
78	0x3e01a390	0.1266005
79	0x3e85eea9	0.26158646
80	0xbc183851	-0.009290771
81	0xbe7100dc	-0.23535484
82	0x3c69fc4a	0.014281342
83	0xbc5e52fd	-0.013569591
84	0x3de485ff	0.1115837
85	0xbe49b22c	-0.19696873
86	0x3e0d7bb9	0.13816728
87	0xbe8a4438	-0.27005172
88	0xbd4899cc	-0.048974797
89	0xbe48a0c8	-0.19592583
90	0x3e8c8ac7	0.2744963
91	0xbdc3bf63	-0.095579885
92	0x3e953d94	0.29148543
93	0x3d7379a7	0.05944219
94	0x3c7fe758	0.0156191215
95	0x3cf4b2a4	0.029870339
96	0x3df9b5e4	0.12192896
97	0x3ce05ad9	0.02738707
98	0xbdf18e51	-0.11794723
99	0xbe4232d8	-0.18964708
100	0x3d9d59a2	0.07683112
101	0x3e99b39d	0.30019847
102	0x3e6e163b	0.23250668
103	0x3d05978d	0.032615233
104	0x3d654e42	0.055982836
105	0xbe96a580	-0.2942314
106	0x3e13af70	0.14422393
107	0x3db380ca	0.08764799
108	0xbdf55753	-0.119795464
109	0xbe7f2d4d	-0.24919625
110	0x3ea6ee05	0.3260347
111	0x3e4d3b63	0.20042185
112	0xbe6c49e3	-0.2307506
113	0xbcf33bd0	-0.029691607
114	0xbdf47bab	-0.1193765
115	0x3e85e28e	0.2614941
116	0xbd8c9aaa	-0.06865437
117	0xbd136e0d	-0.035993624
118	0xbe8e85fb	-0.27836594
119	0xbe07d31e	-0.13264129
120	0xbdb77bfd	-0.08959196
121	0x3da3f217	0.08005159
122	0x3d9e762a	0.07737382
123	0xbe7bf075	-0.24603446
124	0x3e8e91b1	0.2784553
125	0xbe83e25e	-0.25758642
126	0xbe2ef8cf	-0.170871
127	0xbc3c6e34	-0.011500884
128	0xbe8b48ba	-0.27203923
129	0xbe0fdc7b	-0.1404895
130	0x3ea4bb6a	0.32174236
131	0xbedb07c2	-0.42779356
132	0x3e9796ab	0.29607138
133	0xbe8c58df	-0.27411553
134	0xbe970b41	-0.29500774
135	0xbdd89761	-0.10575748
136	0x3d28dfb5	0.04122897
137	0xbd792e53	-0.060835194
138	0x3e026340	0.12733173
139	0xbdc2bd1f	-0.09508728
140	0xbe095b50	-0.13413739
141	0x3e8685a9	0.2627385
142	0xbe3b81f6	-0.18311295
143	0x3e1e7fa5	0.1547838

bias f4 [16]
0	0x3e6098b9	0.21933259
1	0x3e838438	0.25686812
2	0x3e8a2a57	0.26985428
3	0xbde4901a	-0.11160298
4	0xbe0fbb23	-0.1403623
5	0xbda352fc	-0.079748124
6	0xbdd48e66	-0.10378723
7	0xbdbf1ad1	-0.09331287
8	0x3e54e4d5	0.20790417
9	0x3e00f332	0.12592772
10	0x3e1cddc6	0.15318975
11	0xbe26b01d	-0.1627812
12	0x3b831daa	0.004001339
13	0x3eb7c80b	0.35894808
14	0xbe06f5cf	-0.13179706
15	0x3e49a886	0.19693193

weight f4 [16, 16, 3, 3]
0	0xbce46fd8	-0.027885363
1	0xbdabd0c6	-0.0838943
2	0xbce46b97	-0.027883334
3	0xbda174df	-0.078836195
4	0x3b7e01c6	0.0038758381
5	0x3d5f90e3	0.054581534
6	0xbd9ad6ef	-0.075605266
7	0x3cb895c8	0.022532359
8	0xbdd46934	-0.103716284
9	0x3c92ebb6	0.017934661
10	0x3d816c4b	0.06319483
11	0xbcd1cfa2	-0.025611702
12	0x3d593005	0.05302431
13	0x3cd428e6	0.025898408
14	0xbda256b4	-0.079266936
15	0xbdbc291b	-0.09187528
16	0x3d354522	0.044255383
17	0xbdaece1d	-0.08535407
18	0x3cd99b49	0.026563304
19	0x3d478c0c	0.048717543
20	0xbdb9c0fd	-0.09070013
21	0xbdc91724	-0.09818867
22	0xbdb6c9b9	-0.08925194
23	0xbda5dc26	-0.080986306
24	0xbd98e0f4	-0.074647814
25	0xbd771c0e	-0.06032949
26	0xbdbc05d8	-0.09180802
27	0xbd599c20	-0.053127408
28	0x3c07f038	0.008297019
29	0x3cb40d1b	0.021978905
30	0x3d9fe878	0.07808012
31	0x3c482f39	0.01221829
32	0x3d806198	0.062686145
33	0xbcd8f17a	-0.026482332
34	0x3d09b525	0.03362002
35	0x3d0aec83	0.03391696
36	0x3ce6e3a4	0.02818472
37	0x3d87f2c5	0.066381015
38	0xbbbd6359	-0.0057796654
39	0x3d61172e	0.054953746
40	0xbd6113a1	-0.05495036
41	0x3d5ba591	0.053624693
42	0xbd43b0fb	-0.047776204
43	0x3d6375b9	0.05553219
44	0xbd2be25f	-0.04196393
45	0xbd9dd2d9	-0.077062316
46	0xbd4fab44	-0.05070044
47	0x3d86061c	0.06544134
48	0xbddda3d1	-0.10822261
49	0xbcd018c0	-0.025402427
50	0xbdb10073	-0.08642664
51	0xbd868bac	-0.06569609
52	0xbdb5a09a	-0.08868523
53	0x3ccd5978	0.025067076
54	0x3bdb5620	0.0066936165
55	0xbcb4722f	-0.022027103
56	0x3dad0b00	0.08449364
57	0xbd1b660f	-0.037939128
58	0xbd91e08a	-0.071229056
59	0xbd1e8775	-0.0387034
60	0x3d50acfa	0.050946213
61	0xbd20d522	-0.03926576
62	0x3c25cadd	0.010119167
63	0xbcdbe595	-0.026842872
64	0x3c04b03a	0.008098656
65	0x3d7af103	0.061265003
66	0x3d8e02bd	0.06934116
67	0xbd5bbf21	-0.05364907
68	0xbb759031	-0.0037469978
69	0xbd05deec	-0.032683298
70	0x3d4d07a5	0.05005612
71	0xbd6525d5	-0.055944283
72	0x3d3fa663	0.046789538
73	0x3d1a7c49	0.037716184
74	0xbd4e1d00	-0.050320625
75	0x3d56857d	0.052373398
76	0x3d826d07	0.063684516
77	0x3d4e4a1c	0.050363645
78	0xbd5fc211	-0.054628436
79	0xbd7e4f66	-0.06208744
80	0xbc9596ca	-0.018260378
81	0xbe74602f	-0.23864816
82	0xbe060874	-0.13089162
83	0xbe2a1610	-0.16609979
84	0xbe0b1979	-0.13583936
85	0xbe520b5c	-0.20512146
86	0xbe106ce8	-0.14104044
87	0xbe72559a	-0.23665467
88	0xbe8cadbf	-0.27476308
89	0xbe82523b	-0.25453362
90	0xbd997040	-0.07492113
91	0xba453a65	-0.0007523655
92	0x3c496715	0.012292643
93	0x3cba8b2a	0.022771437
94	0x3d8b5ce6	0.06804828
95	0xbcf77f95	-0.030212203
96	0x3d63e216	0.055635534
97	0xbd9d2718	-0.07673472
98	0xbd964b33	-0.07338562
99	0x3d21f47d	0.039539803
100	0xbda2d9fb	-0.07951733
101	0x3d7a1ced	0.061062742
102	0x3cc464d9	0.02397387
103	0x3d1a418a	0.03766016
104	0xbb4563ec	-0.0030119373
105	0x3d2d458c	0.042302653
106	0xba65ee86	-0.00087711995
107	0xbd0959b4	-0.033532813
108	0x3d6ca019	0.05776987
109	0x3d06650c	0.03281121
110	0xbd8e5ac0	-0.06950903
111	0xbcf6f10f	-0.030144243
112	0xbce8c158	-0.028412506
113	0x3d9d6853	0.07685914
114	0xbcab1100	-0.02088213
115	0x3c25909c	0.010105278
116	0x3da2f4dc	0.079568595
117	0xbdc9b141	-0.098482616
118	0xbdaab15e	-0.08334611
119	0xbd03b3c2	-0.032153852
120	0xbde59dce	-0.112117395
121	0xbd20d909	-0.03926948
122	0xbda5b4ab	-0.080911
123	0xbdc0a7f7	-0.09407037
124	0xbd0c0e03	-0.03419305
125	0xbd9b562a	-0.07584794
126	0xbe1e47a3	-0.15457015
127	0xbd2997e6	-0.041404627
128	0xbe14f471	-0.14546372
129	0xbe0c9741	-0.13729574
130	0xbe3e4632	-0.18581465
131	0xbdf69043	-0.120392345
132	0xbde81d7d	-0.113337494
133	0xbded4314	-0.1158506
134	0x3cc2c00e	0.02377322
135	0xbd7990c3	-0.06092907
136	0x3d55577c	0.052085385
137	0x3c6c87b4	0.014436651
138	0x3d5df223	0.054185998
139	0xbb12b8fa	-0.0022388087
140	0xbd6aa5ea	-0.057287134
141	0x3d6fc6c3	0.058539163
142	0xbcf0ac4a	-0.029379029
143	0xbd61fe7a	-0.05517433
144	0x3d9b2ff7	0.07577508
145	0x3cf36500	0.029711246
146	0x3d7cef72	0.06175179
147	0x3de219e3	0.11040094
148	0x3da207c1	0.07911635
149	0x3da58e57	0.0808379
150	0x3d81c83a	0.06337018
151	0x3d100d39	0.03516886
152	0x3dd89d2b	0.105768524
153	0x3d44d2db	0.04805265
154	0xbd7ab232	-0.061205097
155	0xbd173f28	-0.036925465
156	0xbd497256	-0.049181305
157	0xbd41a28b	-0.047274154
158	0xbd0a423c	-0.033754572
159	0x3cf78ef5	0.030219534
160	0x3d2950ec	0.04133694
161	0xbc8c942d	-0.0171605
162	0x3dbdf900	0.092760086
163	0xbb1e8b61	-0.0024191963
164	0xbc662000	-0.014045715
165	0x3d725f4c	0.059172913
166	0xbc46fc65	-0.0121451365
167	0x3c82f0fa	0.015984047
168	0x3dacaf41	0.084318645
169	0x3ad94612	0.0016576669
170	0x3c8b5efe	0.01701307
171	0x3c12b13f	0.008953392
172	0xbce961fe	-0.02848911
173	0xbde642e9	-0.11243231
174	0xbd210a6a	-0.039316572
175	0x3bcf53af	0.0063271145
176	0xbd3416a9	-0.043966923
177	0xbd8c947c	-0.06864259
178	0x3cc03ca5	0.023466418
179	0xbcae36fd	-0.021266455
180	0x3d597f1b	0.053099733
181	0xbc9cfd78	-0.019163832
182	0xbcdaccf1	-0.026709052
183	0xbda74493	-0.08167376
184	0xbd7b01bb	-0.061280947
185	0xbdc478a2	-0.095933214
186	0xbd1b502a	-0.037918247
187	0xbd2a46ac	-0.041571304
188	0xbdacff84	-0.08447173
189	0xbdbe81b1	-0.093020804
190	0xbc5a329d	-0.013317731
191	0x3d3f7e53	0.04675133
192	0x3d04776a	0.032340445
193	0xbcfedef3	-0.03111217
194	0xbadbb33c	-0.001676179
195	0xbd3ea53f	-0.04654431
196	0xbc7756dc	-0.0150963925
197	0xbd193ade	-0.037409656
198	0xbccf65a4	-0.02531702
199	0x3d114d8a	0.035474338
200	0xbdd7da67	-0.10539704
201	0x3d0a588e	0.03377586
202	0xbddb6f14	-0.10714546
203	0x3d0a75ec	0.033803865
204	0xbc38cca5	-0.01127926
205	0xbbc378e4	-0.005965339
206	0xbcdb83e1	-0.026796283
207	0xbd15660b	-0.03647427
208	0xbda6770d	-0.08128176
209	0xbda24cad	-0.07924781
210	0xbccec60d	-0.025240922
211	0xbd958d0d	-0.07302294
212	0x3d1f0cc7	0.038830545
213	0x3c96e64c	0.018420361
214	0xbc0c2862	-0.00855455
215	0x3d5beb0f	0.053690966
216	0xbd2d221f	-0.04226887
217	0xbd340947	-0.04395416
218	0xbccd9b4c	-0.025098465
219	0xbd522aea	-0.051310457
220	0xbd59ce4d	-0.05317526
221	0xbbd0e8b8	-0.0063753985
222	0xbd844650	-0.064587235
223	0x3d7c9ab4	0.061670974
224	0x3d49d3cc	0.04927425
225	0x3e7841d7	0.24243866
226	0x3e71a3b5	0.23597606
227	0x3e50ce3f	0.20391177
228	0x3dc3e911	0.09565938
229	0x3de07a96	0.109608814
230	0x3e1b2a11	0.15152766
231	0x3e4431af	0.19159578
232	0x3e760c80	0.24028206
233	0x3e68aceb	0.22722213
234	0x3c843bdd	0.016141826
235	0xbd71108e	-0.05885368
236	0xbbb43465	-0.00549941
237	0x3c976382	0.018480066
238	0xbc96b5c6	-0.018397223
239	0x3d89b27d	0.06723497
240	0x3c6c5a6a	0.014425853
241	0x3d8e48e9	0.069475
242	0xbda2a7f4	-0.07942191
243	0xbde69873	-0.11259546
244	0x3d0171cb	0.031602662
245	0xbd5e6ee2	-0.054304965
246	0xbd8f8699	-0.07008094
247	0x3d268bbb	0.0406606
248	0xbdefd3cf	-0.11710321
249	0xbc1abecb	-0.009444903
250	0x3b4b4a3a	0.0031019584
251	0xbd834572	-0.0640973
252	0x3d376d23	0.044781815
253	0xbd2edce0	-0.04269111
254	0x3d901b08	0.07036406
255	0x3c71f63b	0.014768179

bias f4 [16]
0	0xbd7a4d7a	-0.061109044
1	0x3d210eea	0.039320864
2	0xbd77a025	-0.06045546
3	0x3da1f4a1	0.079079874
4	0x3daf7eac	0.085690826
5	0x383b7f88	4.4703047e-05
6	0xbcb16b52	-0.02165762
7	0x3ad2cbc6	0.0016082458
8	0xbd978ef3	-0.07400312
9	0xbd76104e	-0.060074143
10	0xbd91e3fc	-0.07123563
11	0x3ced46b8	0.028964385
12	0xbc916c92	-0.017751966
13	0xbda45cae	-0.0802549
14	0xbc19cc4b	-0.009387086
15	0xbda9fb7d	-0.08299921

weight f4 [32, 16, 3, 3]
0	0xbda92954	-0.08259836
1	0xbc6c5977	-0.014425627
2	0x3b6ee0fc	0.003645002
3	0xbd92cfb3	-0.07168522
4	0x3d50edca	0.051008023
5	0xbc67a101	-0.014137507
6	0x3c0386a0	0.008027703
7	0x3d4aeb92	0.049541064
8	0xbd818073	-0.06323328
9	0xbcbc227a	-0.022965658
10	0x3cb823a0	0.022477925
11	0x3d451e9a	0.048124887
12	0x3d78529c	0.060625657
13	0x3d917a12	0.07103361
14	0x3d3524df	0.044224616
15	0x3d90750f	0.07053577
16	0x3d44f663	0.048086535
17	0xbd8d86d6	-0.069104835
18	0x3cbde7f6	0.023181897
19	0x3d02f1c8	0.03196886
20	0x3d4dd390	0.05025059
21	0xbd9eeeca	-0.07760389
22	0x3ccd831d	0.025086934
23	0x3d13239b	0.035922628
24	0x3cfad7a3	0.030620402
25	0xbc53b48a	-0.012921462
26	0xbd5087de	-0.050910823
27	0xbd0e1f42	-0.03469778
28	0xbd155f30	-0.03646773
29	0x3c3b1dac	0.011420649
30	0x3d35c0fb	0.044373494
31	0x3c408b1e	0.011751918
32	0x3c0af2c2	0.00848073
33	0x39c549b0	0.0003762967
34	0xbd1bd14b	-0.038041394
35	0x3da63f53	0.08117547
36	0x3cc60bb0	0.024175495
37	0x3c80425c	0.015656643
38	0x3d82120d	0.06351099
39	0x3d6bb97d	0.057549942
40	0xbd5bd458	-0.053669304
41	0xbd20aa2f	-0.0392248
42	0xbda27071	-0.07931603
43	0x3a8ed25f	0.0010896436
44	0xbd19869a	-0.03748188
45	0xbc85b48a	-0.01632144
46	0x3c945901	0.018108847
47	0xbdb8e722	-0.0902846
48	0x3c2a0dcd	0.010379267
49	0xbdc35a8e	-0.09538756
50	0xbd9d3366	-0.07675819
51	0xbd1b449b	-0.037907224
52	0x3d0a972f	0.033835586
53	0xbcca8ef4	-0.024726368
54	0x3da67a85	0.081288375
55	0x3b73bd96	0.003719186
56	0x3d76fe09	0.06030086
57	0x3d54bdcd	0.05193882
58	0xbd5bda3b	-0.053674918
59	0xbd9c0593	-0.07618251
60	0x3d9a2b8d	0.07527838
61	0xbcc124e2	-0.023577157
62	0x3cec413e	0.028839704
63	0x3d14eff6	0.036361657
64	0x3d1019d0	0.035180867
65	0xbd7b264b	-0.061315816
66	0xbd3f53a1	-0.046710614
67	0x3d8c9f08	0.0686627
68	0xbcbeee6e	-0.023307052
69	0x3d992a38	0.07478756
70	0xbc9d9b2d	-0.019239033
71	0x3caa2172	0.020767901
72	0xbcadc9c8	-0.02121438
73	0x3d0db361	0.034594897
74	0x3d786817	0.060646143
75	0x3d20dc17	0.039272394
76	0xbc5f242d	-0.013619465
77	0x3ccad3ca	0.024759192
78	0xbcea5122	-0.02860314
79	0x3cd5ac05	0.026083002
80	0xbcc604bb	-0.024172178
81	0xbd01de0e	-0.03170591
82	0xbca8e5b1	-0.020617338
83	0xbd409917	-0.047020998
84	0xbdaf47cf	-0.08558618
85	0x3ba1d414	0.0049386118
86	0xbac34ece	-0.0014900805
87	0x3d5092d9	0.050921295
88	0x3d2e9910	0.04262644
89	0x3d459bd0	0.048244298
90	0xbd69eaf8	-0.05710885
91	0x3c71ae5e	0.014751045
92	0xbd9065f7	-0.07050698
93	0xbc765672	-0.015035259
94	0xbd90e69a	-0.07075234
95	0x3cb43b11	0.022000821
96	0xbd0d41c8	-0.034486562
97	0x3d60d330	0.054888904
98	0xbd1ea2e3	-0.03872956
99	0xbb8ab0db	-0.0042325086
100	0xbcd092d2	-0.025460634
101	0xbcecf13a	-0.02892362
102	0x3d746772	0.059668966
103	0xbcb9672c	-0.022632204
104	0x3c6abff5	0.014327993
105	0xbd99de47	-0.07513099
106	0x3d08b437	0.03337499
107	0x3d0b5b94	0.034022883
108	0x3d4041a9	0.04693762
109	0x3d290894	0.041267946
110	0xbcab6a73	-0.020924782
111	0x3d1e6be4	0.03867711
112	0x3ce9d673	0.02854464
113	0xbd852ebb	-0.06503054
114	0xbd47d96f	-0.048791345
115	0xbc1e831d	-0.0096748145
116	0x3c465c74	0.0121070035
117	0xbb5c37df	-0.0033602638
118	0xbd163ffe	-0.03668212
119	0xbcc6f97a	-0.024288882
120	0x3a89279b	0.0010464074
121	0xbcbcc8ed	-0.023045028
122	0xbcbe419a	-0.02322464
123	0xbd880eea	-0.0664347
124	0xbd36bb9a	-0.044612505
125	0xbdaf64f6	-0.08564179
126	0x3bdca589	0.0067336005
127	0x3d8b44fe	0.068002686
128	0x3d066822	0.032814153
129	0x3d15f223	0.036607873
130	0xbd56e820	-0.052467465
131	0x3bd8cd88	0.006616298
132	0xbcc0c7e8	-0.023532823
133	0xbd2db1d0	-0.042405903
134	0x3cfee077	0.031112893
135	0xbd42b466	-0.047535323
136	0xbd566bb0	-0.052348793
137	0x3d3fafdb	0.04679857
138	0xbd54b00f	-0.051925715
139	0xbcde0ccb	-0.02710571
140	0x3bbdf3d1	0.0057968874
141	0xbc06beb2	-0.008224176
142	0xbd2da88a	-0.04239706
143	0x3d32658e	0.04355388
144	0x3c781c57	0.0151434755
145	0xbca08394	-0.019593991
146	0x3c235775	0.009969582
147	0x3d59cbf6	0.053173028
148	0x3d7acb61	0.061229113
149	0xbd2f0e4b	-0.04273824
150	0xbdb9ec07	-0.09078222
151	0xbd84b627	-0.06480055
152	0x3d51c1a8	0.051210076
153	0x3cc62c91	0.024191173
154	0x3cf1f91e	0.029537734
155	0xbc1aba75	-0.009443869
156	0xbd6e03ec	-0.05810921
157	0x3bd309af	0.0064403634
158	0x3d9da263	0.076969884
159	0x3d6850f9	0.056717847
160	0xbcd06bd5	-0.025442043
161	0x3da8bb94	0.08238903
162	0x3b840500	0.0040289164
163	0x3d40713d	0.046982992
164	0x3d8d16e7	0.06889134
165	0x3c1dbe51	0.0096278945
166	0xbcca04c8	-0.024660483
167	0x3cc70b6f	0.024297444
168	0xbd81e7de	-0.06343053
169	0xbd8717eb	-0.06596359
170	0xbc883c38	-0.016630277
171	0xba2a5f62	-0.00064991985
172	0xbc058d24	-0.008151326
173	0xba029ef1	-0.00049827906
174	0x3bdf34e5	0.0068117254
175	0x3d86dbb3	0.06584873
176	0xbcadd2ad	-0.021218622
177	0xbca30e1c	-0.019904189
178	0xbb9122ea	-0.004429211
179	0xbd123483	-0.03569461
180	0xbc89cc3e	-0.016821023
181	0xbd8d6620	-0.069042444
182	0x3d31de2a	0.043424763
183	0xbcaa4805	-0.020786295
184	0xbd22256c	-0.03958647
185	0x3d9d5207	0.07681661
186	0xbd18e6d3	-0.037329506
187	0x3d06673b	0.032813292
188	0x3cd25b4b	0.025678298
189	0xbdbdf7d7	-0.09275787
190	0x3cdfaa30	0.027302831
191	0xbd9b56f0	-0.075849414
192	0xbcfa2da5	-0.030539343
193	0xbc95734c	-0.018243454
194	0xbb00685e	-0.0019593458
195	0xbdaf7c5d	-0.08568642
196	0x3ba0840d	0.004898554
197	0xbcfdcd78	-0.030981764
198	0xbd9ab41c	-0.075538844
199	0x3d8b7e1f	0.06811165
200	0xbc555e31	-0.013022945
201	0xbd5e1027	-0.054214623
202	0xb9dab81a	-0.00041717367
203	0x3cbe2cad	0.023214662
204	0x3d3a39d7	0.045465317
205	0x3d1fa94c	0.038979813
206	0xbd9c4539	-0.07630391
207	0xbc254505	-0.010087256
208	0x3c92b025	0.017906258
209	0xbd9d584e	-0.076828584
210	0x3d46307b	0.04838608
211	0x3da2da7f	0.07951831
212	0x3d6daa09	0.058023486
213	0x3ba24280	0.004951775
214	0x3c0907e8	0.008363701
215	0xbcb33df4	-0.021880127
216	0xbb89fb93	-0.004210898
217	0xbc87bd03	-0.01656962
218	0x3cf24947	0.029575957
219	0x3cefb0dd	0.02925914
220	0x3c38fd61	0.011290879
221	0x3c959480	0.018259287
222	0xbcaac739	-0.02084695
223	0x3d943b00	0.07237816
224	0xbd9c17dc	-0.07621738
225	0x3d8c0618	0.068371
226	0x3c9452e4	0.018105932
227	0x3cbdb063	0.023155397
228	0xbb736df8	-0.0037144404
229	0xbbc5e0f0	-0.0060387775
230	0xbd0ac0d0	-0.033875287
231	0xbc5dfb18	-0.013548635
232	0xbd4c5ce6	-0.049893282
233	0x3d12517e	0.03572225
234	0x3c239aed	0.009985668
235	0xbd997d27	-0.07494574
236	0x3d2ded5a	0.042462684
237	0x3c1aabf9	0.009440416
238	0x3c79fa00	0.015257359
239	0x3d2e95e6	0.042623423
240	0xbd5b549b	-0.053547483
241	0x3cdfb44a	0.027307648
242	0xbb342a39	-0.0027490987
243	0xbc5f9b8c	-0.013647925
244	0x3b25a73d	0.0025276684
245	0xbd95ffee	-0.07324205
246	0x3d6e4514	0.058171347
247	0xbdb197f2	-0.086715594
248	0xbdb30301	-0.08740807
249	0x3cf69f2c	0.030105196
250	0xbd562c9c	-0.052288637
251	0x3c96ca58	0.018407032
252	0x3d215a70	0.03939289
253	0xbd96aeed	-0.07357583
254	0xbda3940c	-0.07987222
255	0xbd0c27da	-0.034217693

bias f4 [32]
0	0xbb1d8320	-0.0024034455
1	0x3d03d103	0.03218175
2	0xbbfb466f	-0.0076683084
3	0x3bf888f6	0.0075846864
4	0xbd731aa8	-0.059351593
5	0xbcb3e277	-0.021958573
6	0x3c7cb85c	0.015424814
7	0x3d8ff544	0.070292026
8	0x3c264fda	0.010150874
9	0xbd7dea25	-0.061990876
10	0x3c996d7e	0.018728968
11	0x3d9e89c5	0.07741121
12	0x3d082fbf	0.03324866
13	0xbd0dbd94	-0.034604624
14	0xbc220a1b	-0.009890105
15	0xbd881a67	-0.06645661
16	0x3da83a9a	0.08214302
17	0xbdc53816	-0.09629838
18	0x3b71b420	0.0036881045
19	0xbbdd2131	-0.0067483415
20	0x3b67614e	0.00353058
21	0xbcb6effd	-0.022331232
22	0x3d952425	0.07282285
23	0x3c5d276a	0.013498167
24	0x3c5f8e78	0.013644807
25	0xbdb5142a	-0.088417366
26	0xbb9daeac	-0.0048120823
27	0xbdaaec61	-0.08345867
28	0xbd9e90a4	-0.07742432
29	0xbd8d256a	-0.06891902
30	0x3d1779b8	0.036981314
31	0xbd086c3d	-0.03330635

weight f4 [32, 32, 3, 3]
0	0x3ca2b285	0.019860515
1	0xbc51ffa4	-0.012817297
2	0xbbf8ee0f	-0.007596738
3	0xbcb42818	-0.021991774
4	0xbcf833fe	-0.03029823
5	0x3cc91ca4	0.02454979
6	0x3cda42e7	0.02664323
7	0xbc65c616	-0.014024278
8	0xbd35839e	-0.044314973
9	0x3d770884	0.060310856
10	0x3c3f7a86	0.011686927
11	0x3d7cb7f0	0.061698854
12	0x3c8e7474	0.017389514
13	0x3c8dd95a	0.017315555
14	0xbd076016	-0.03305062
15	0x3c545443	0.012959543
16	0xbc12b842	-0.008955063
17	0x3ceb75df	0.028742729
18	0xbce391e6	-0.02777953
19	0xbb4cdc0d	-0.003125909
20	0xbd209f41	-0.039214376
21	0x3d3a9eeb	0.045561712
22	0x3d4708d4	0.048592404
23	0xbc2861e2	-0.010277243
24	0x3d3a0e51	0.04542381
25	0x3d371bb7	0.044704165
26	0xbd2e5944	-0.0425656
27	0x3d4d4643	0.050115835
28	0xbd436a3d	-0.04770874
29	0xbc4f1639	-0.012639576
30	0xbc9dcf88	-0.019263998
31	0x3d2b8bb3	0.041881274
32	0x3cdc421f	0.026886998
33	0x3b89509e	0.0041905185
34	0x3d0eeccf	0.034893807
35	0x3d89ae94	0.06722751
36	0x3d1bab75	0.03800531
37	0xbc995702	-0.018718246
38	0xbc93ba70	-0.018033236
39	0x3cb20857	0.021732492
40	0xbd34755c	-0.044057235
41	0xbc6b4103	-0.014358762
42	0x3d0f056c	0.03491728
43	0x3d4405ad	0.047856975
44	0xbd0082d2	-0.03137476
45	0x3cbc7539	0.023005115
46	0xbc8672b0	-0.01641211
47	0x3ccc2afd	0.024922842
48	0x3cbffc8c	0.023435853
49	0x3b4a4635	0.00308646
50	0x3b9053f3	0.004404539
51	0x3b87982b	0.004138013
52	0x3ce9fd64	0.028563209
53	0x3cc4d616	0.024027865
54	0x3cf3ad0a	0.029745597
55	0xbd002904	-0.031289116
56	0x3ce5027b	0.027955284
57	0xbc5f7969	-0.013639786
58	0x3d5d98bc	0.054100737
59	0xbd507d06	-0.05090048
60	0xbd65999a	-0.05605469
61	0xbcae5b34	-0.021283723
62	0xbc9abc39	-0.01888858
63	0x3c10b9d0	0.008833364
64	0x3d0589aa	0.03260199
65	0xbc657057	-0.014003835
66	0x3cfd0bc3	0.030889397
67	0x3c896f97	0.016776843
68	0x3d5dfdeb	0.054197233
69	0x3d416d0f	0.047223147
70	0xbc81db83	-0.015851742
71	0x3d058145	0.032593984
72	0xbd2d7e0b	-0.042356532
73	0x3bcb4481	0.0062032347
74	0x3cb9efaa	0.022697289
75	0xbd170e3b	-0.036878806
76	0x3b82df51	0.0039939065
77	0xbbba8bc1	-0.0056929295
78	0x3c6fd203	0.014637473
79	0xb7562d74	-1.2765977e-05
80	0xbb4291c0	-0.0029688925
81	0xbcd1c69a	-0.025607396
82	0x3c9188ad	0.017765367
83	0x3d49da91	0.049280707
84	0x3c434d29	0.011920252
85	0x3cfe90d4	0.031074919
86	0x3ce5e48b	0.02806308
87	0x3ce3336e	0.027734485
88	0xbc79d3b5	-0.015248229
89	0xbcb4d95f	-0.022076307
90	0xba0d1880	-0.0005382374
91	0x3adf271b	0.0017025204
92	0xbcde8648	-0.02716364
93	0x3c9724e1	0.018450202
94	0x3d27f058	0.041000694
95	0xbd4e99a2	-0.050439484
96	0xbd49589b	-0.049156766
97	0xbc35d75f	-0.011098712
98	0xbcca77df	-0.024715362
99	0x3c96b0dd	0.018394882
100	0xbc7de713	-0.015496987
101	0x3d8d0403	0.06885531
102	0xbb021b59	-0.0019852726
103	0xbd186916	-0.037209593
104	0xbb9839ef	-0.004645578
105	0x3d8a775b	0.067610465
106	0xb9fa5090	-0.0004774374
107	0x3c2f7be0	0.010710686
108	0xb8eeb7f2	-0.00011382987
109	0x3c81f8f7	0.015865786
110	0x3da712e2	0.081578985
111	0x3dafd5b6	0.08585684
112	0x3c041ac6	0.008063024
113	0xbc10daee	-0.008841259
114	0x3d9c04c4	0.076180965
115	0x3d96738a	0.07346256
116	0x3d201ec3	0.039091837
117	0xba7472f4	-0.00093249907
118	0x3d724c9a	0.059155084
119	0x3d5db21b	0.054124933
120	0x3d581e1c	0.05276309
121	0xbc60f441	-0.01373011
122	0xbc43e737	-0.011956981
123	0x3cc35ef3	0.023848986
124	0x3d0e7aaa	0.03478495
125	0xbb29d6ee	-0.0025915462
126	0x3d9c0755	0.07618586
127	0x3d727e0d	0.059202243
128	0x3d20c4aa	0.039250053
129	0x3d8ade17	0.067806415
130	0xbcbb34fb	-0.022852411
131	0x3d7be170	0.06149429
132	0x3d8f6968	0.070025265
133	0xbc28d08c	-0.010303628
134	0x3d901c49	0.07036645
135	0xbc278e46	-0.010226792
136	0x3d216896	0.03940638
137	0x3d28240e	0.04105001
138	0x3c26b6b4	0.010175396
139	0x3c3b9e46	0.01145131
140	0xbcf5d9f9	-0.030011164
141	0x3cd71861	0.026256742
142	0x3d42258f	0.0473991
143	0xbc87db39	-0.016584026
144	0x3d856c05	0.06514744
145	0xbc547552	-0.0129674245
146	0x3d27c853	0.04096253
147	0x3d60aa8b	0.054850142
148	0xbccadf20	-0.024764597
149	0x3d1523f2	0.036411233
150	0x3d8d4091	0.06897081
151	0xbc2e33be	-0.0106324535
152	0x3d3ccd97	0.046094503
153	0xbcee2e19	-0.029074715
154	0xbcdb300f	-0.026756315
155	0xbd2ab695	-0.04167803
156	0x3b5db4ab	0.003382961
157	0xbce9dd52	-0.028547917
158	0x3aa528ee	0.0012600699
159	0xbd6e968c	-0.05824904
160	0x3c4e02f9	0.012573951
161	0x3cfdbcfe	0.030973908
162	0xbbcc3a48	-0.0062325336
163	0x3d6ec80f	0.05829626
164	0xbcc217b1	-0.023692938
165	0x3d2ac7c4	0.041694418
166	0x3c093638	0.008374743
167	0x3cbda689	0.0231507
168	0x3d35bbf4	0.0443687
169	0x3d58cf18	0.052931875
170	0x3c4adaf9	0.012381309
171	0xbd631d95	-0.055448133
172	0x3b6b50c4	0.0035906294
173	0xbd462d70	-0.048383176
174	0x3cf9a07a	0.030472029
175	0xbd341436	-0.043964587
176	0x3c5b554c	0.013387036
177	0x3d1c60a9	0.03817812
178	0xbcaa22bd	-0.020768518
179	0xbd311496	-0.043232523
180	0x3c30490c	0.010759603
181	0xbd31f97d	-0.04345082
182	0x3c9dd28f	0.019265441
183	0x3ce80474	0.028322436
184	0xbd3a0491	-0.04541451
185	0xbc7bdec3	-0.015372935
186	0x3d35ae83	0.04435588
187	0xbd43da61	-0.047815684
188	0xbbff3c65	-0.007789182
189	0x3d8df049	0.069305964
190	0x3d6c0ad6	0.05762752
191	0xbc554fa7	-0.013019479
192	0x3d291fb8	0.041290015
193	0x3d1a7f42	0.03771902
194	0xbc265b47	-0.010153598
195	0xbcf96d79	-0.030447708
196	0xbba5ddad	-0.005061826
197	0x3cab2312	0.020890746
198	0x3d6fd2af	0.058550533
199	0x3d2669ae	0.040628128
200	0xbd2baddb	-0.04191385
201	0xbca1c407	-0.019746793
202	0xbd018f45	-0.031630773
203	0xbc2e5574	-0.010640491
204	0x3d078f0e	0.033095412
205	0x3c99e5bb	0.018786302
206	0xbd299879	-0.041405175
207	0xbd0c7516	-0.03429135
208	0xbd143bdd	-0.036189903
209	0x3cf2cb20	0.029637873
210	0x3d3379e3	0.043817412
211	0xbc9cdf3f	-0.01914942
212	0x3d812f8d	0.06307898
213	0xbc6bd166	-0.014393186
214	0x3b8e6b8e	0.0043463176
215	0x3d0d9ab8	0.03457138
216	0x3cbf46a8	0.023349121
217	0x3d162980	0.03666067
218	0x3d4b0c22	0.049572118
219	0xbc936c8d	-0.017996097
220	0xbccfcfec	-0.0253677
221	0x3d0c5715	0.034262735
222	0x3d5dc539	0.054143164
223	0xbcc28ec6	-0.02374972
224	0x3d149677	0.036276307
225	0x3b9070d0	0.0044079795
226	0x3d7adbc7	0.061244752
227	0xbcad62cb	-0.021165272
228	0x3c5bf4d4	0.013425071
229	0x3c98f139	0.018669711
230	0x3d607179	0.054795716
231	0x3d747b0d	0.059687663
232	0xbd32d378	-0.043658704
233	0x3cf6201c	0.030044608
234	0x3d165ecc	0.0367115
235	0x3d8f17eb	0.06986984
236	0x3d53a331	0.051669303
237	0x3d2623bc	0.040561423
238	0xbc1d1030	-0.009586379
239	0x3d841e51	0.06451095
240	0xbc2ef68b	-0.010678898
241	0x3c2f1929	0.010687151
242	0x3c4c6898	0.012476109
243	0x3d8935c6	0.066997096
244	0x3d8f07f2	0.06983937
245	0x3cd755c3	0.026286012
246	0xba088090	-0.00052071456
247	0x3d5e1f78	0.05422923
248	0x3baa4a4a	0.005196844
249	0x3d588822	0.0528642
250	0xbc957533	-0.018244362
251	0x3bb4de5b	0.005519671
252	0x3cb75097	0.022377295
253	0xbd1d2f7a	-0.038375355
254	0x3ccf4106	0.02529956
255	0xbac0931b	-0.0014692278

bias f4 [32]
0	0x3d4f4a4e	0.05060797
1	0x3d32f711	0.043692652
2	0xbd88140b	-0.06644448
3	0x3c7d5885	0.015462999
4	0xbd3ec7d0	-0.046577275
5	0xbca3a9a7	-0.019978357
6	0x3c88513c	0.016640298
7	0xbc6d1981	-0.014471413
8	0x3d61cb9a	0.05512581
9	0x3cd5027b	0.02600216
10	0x3c197e13	0.009368437
11	0xbd11f002	-0.03562928
12	0xb99814bb	-0.00029007145
13	0xbcd7830b	-0.026307603
14	0xbd056c8a	-0.032574214
15	0x3c63fe37	0.01391559
16	0xbb98c9c0	-0.0046627223
17	0xbd0c7d71	-0.034299318
18	0xbd712f7e	-0.058883183
19	0xbd2f2df3	-0.04276843
20	0x3d2dbf85	0.042418975
21	0xbbc9c6be	-0.006157725
22	0xbcc18209	-0.023621576
23	0xbd17f2c1	-0.037096743
24	0xbcde6284	-0.027146585
25	0x3d10c789	0.03534654
26	0xbd4843f6	-0.048892938
27	0xbd28024e	-0.041017823
28	0xb8ff65a0	-0.00012178277
29	0x3cc19956	0.023632687
30	0x3bec0c46	0.0072036115
31	0xbd265c03	-0.040615093

weight f4 [64, 32, 3, 3]
0	0xbd51c2c2	-0.051211126
1	0xbd8b8c84	-0.068139106
2	0xbd61fd21	-0.055173043
3	0x3c97a5a2	0.018511597
4	0xbd759fde	-0.059966914
5	0xbd33d0f2	-0.043900438
6	0xbd239f6e	-0.039946966
7	0x3c11fb49	0.008910009
8	0x3acb381e	0.0015504395
9	0x3bd4b971	0.006491833
10	0x3d21efdb	0.039535385
11	0x3cfa8f81	0.030586006
12	0xbcb24c1d	-0.02176481
13	0x3cc19e51	0.023635061
14	0xbd4e5015	-0.05036934
15	0xbd5e798e	-0.054315142
16	0xbd394c80	-0.04523897
17	0xbb5b720c	-0.0033484725
18	0xbd8c80ca	-0.06860502
19	0xbd8a0c1a	-0.067405894
20	0x3b94573f	0.004527002
21	0xbd68066a	-0.056646742
22	0xbd5370c2	-0.051621206
23	0xbd020f89	-0.031753097
24	0x3ca3d881	0.020000698
25	0x3d3c7e1d	0.04601871
26	0xbd40f8cf	-0.047112282
27	0xbd0a0b4c	-0.03370218
28	0xbc77aa1b	-0.01511624
29	0xbcc6b93c	-0.024258249
30	0x3c29d2d1	0.010365204
31	0x3d38261e	0.044958226
32	0xbc2102a0	-0.009827286
33	0x3cd91b59	0.026502298
34	0x3cc524ed	0.02406546
35	0x3d2b01c3	0.041749727
36	0x3d18524f	0.03718787
37	0x3ce91b0d	0.028455282
38	0xbd1dea8e	-0.038553767
39	0x3ce36cdf	0.027761875
40	0x3d1d2956	0.0383695
41	0x3d0c7c13	0.034298014
42	0x3c511e64	0.012763593
43	0x3cda6c1f	0.026662884
44	0xbd22f495	-0.039784033
45	0xbd2a3964	-0.04155864
46	0xbd220a08	-0.039560348
47	0xbc9e927e	-0.019356962
48	0xbd1b2404	-0.037876144
49	0xbd064862	-0.032783873
50	0x3d541758	0.051780075
51	0xbc5fccda	-0.01365968
52	0x3c65cf53	0.014026481
53	0x3d7bff40	0.061522722
54	0xbd8a7845	-0.06761221
55	0xbd1288a3	-0.03577484
56	0x3d351e1c	0.044218168
57	0xbd00aa8f	-0.031412657
58	0x3d2a9cd4	0.04165347
59	0xbd8d2282	-0.068913475
60	0xbb3eb55b	-0.0029099796
61	0xbd594eac	-0.053053543
62	0xbb22624a	-0.0024777823
63	0xbcbc27ec	-0.022968255
64	0xbd70b0f6	-0.058762513
65	0x3b0f139e	0.002183176
66	0x3c1deaa2	0.00963846
67	0xbcdbc9b8	-0.026829585
68	0xbcb5b7df	-0.022182403
69	0xbd81896f	-0.063250415
70	0xbc98b748	-0.018642083
71	0xbd6e2bf2	-0.05814738
72	0xbcd1b424	-0.025598593
73	0xbd548b8a	-0.051890887
74	0xbcfbc592	-0.030733857
75	0xbd801c10	-0.062553525
76	0xbd8cbe31	-0.06872214
77	0xbd805068	-0.06265336
78	0xbb340b2e	-0.0027472484
79	0x3c408bbd	0.011752066
80	0xbcd976a9	-0.02654584
81	0x3cb4bc4b	0.022062441
82	0x3d11eefe	0.03562831
83	0xbccbc156	-0.024872463
84	0xbd2ba916	-0.0419093
85	0xbd496d44	-0.04917647
86	0x3d026fcc	0.0318449
87	0xbbffa357	-0.007801454
88	0x3c98bbee	0.0186443
89	0x3d3b5bf8	0.045742005
90	0xbbc5dff3	-0.0060386597
91	0xbcb3a042	-0.021927003
92	0xbcb06f54	-0.02153746
93	0x3c972016	0.018447917
94	0xbd08732c	-0.03331296
95	0xbd232d33	-0.039838027
96	0x3d3f7db2	0.04675073
97	0xbd199636	-0.037496768
98	0x3c924856	0.017856758
99	0xbc8445ab	-0.016146502
100	0xbc2fff60	-0.0107420385
101	0x3c596a63	0.0132699935
102	0xbce307b3	-0.027713632
103	0xbcd9fc03	-0.026609426
104	0xbd348b4a	-0.04407815
105	0xbd295cb0	-0.04134816
106	0xbb25a1bb	-0.00252734
107	0xbd360c89	-0.04444555
108	0xbbb3a848	-0.005482707
109	0x3d90b8fa	0.070665315
110	0xbb623b67	-0.003452027
111	0xbce600de	-0.028076585
112	0x3c9d9375	0.019235352
113	0x3c51a2ff	0.012795209
114	0x3cee1179	0.029061066
115	0x3d72b268	0.059252173
116	0xbc9990e6	-0.01874585
117	0x3d247af4	0.04015632
118	0x3c419c12	0.011816995
119	0xbc68f019	-0.0142174
120	0x3ca664a7	0.020311667
121	0xbc694043	-0.014236513
122	0xbd288a75	-0.041147668
123	0xbcb831d7	-0.022484703
124	0xbb8ff60f	-0.004393346
125	0x3cc5f782	0.024165872
126	0xbd0ec9a0	-0.034860253
127	0xbc438f6f	-0.011936053
128	0x3d785711	0.060629908
129	0x3cc55581	0.024088623
130	0x3d0d0acf	0.034434136
131	0x3d7a533c	0.061114535
132	0xbc0af333	-0.008480835
133	0x3d4c63d4	0.04989989
134	0x3d547671	0.051870767
135	0xbc7ae4a2	-0.015313299
136	0x3c1f71b7	0.009731702
137	0x3d07771b	0.033072572
138	0x3d45339f	0.048144933
139	0x3ba4ee9f	0.0050333287
140	0x3d379074	0.044815496
141	0x3c98a3d0	0.0186328
142	0xbd8a072a	-0.06739648
143	0xbd724761	-0.059150103
144	0x3cdb9589	0.026804702
145	0xbbe9a5ea	-0.007130374
146	0xbccd0cc5	-0.025030503
147	0xbc614496	-0.013749262
148	0x3d0ff806	0.035148643
149	0x3d8e53e6	0.06949596
150	0x3cc63a9c	0.024197869
151	0xbd21deb5	-0.03951903
152	0x3c32a778	0.0109041855
153	0x3d81188f	0.06303512
154	0x3d83701b	0.06417867
155	0x3d7339ce	0.0593813
156	0x3d858e79	0.06521315
157	0x3d09b8ac	0.033623382
158	0xbbf96ed9	-0.007612091
159	0x3cb60026	0.022216868
160	0x3c7dfd3d	0.015502271
161	0xbd17365e	-0.036917083
162	0xbd67f119	-0.056626413
163	0xbd3399ea	-0.043847956
164	0x3c8f5a2b	0.01749905
165	0x3bc40362	0.0059818486
166	0xbcaafaa0	-0.02087146
167	0xbd38c67c	-0.045111164
168	0xbb8ca595	-0.0042922
169	0x3cd07622	0.025446955
170	0x3d1f37f2	0.038871713
171	0xbb8722a4	-0.0041240025
172	0x3cb08dff	0.021552084
173	0x3cee7ef1	0.029113265
174	0xbd432787	-0.047645118
175	0x3d7b3b9c	0.061336145
176	0x3cc6ef23	0.024283951
177	0x3d7d6f32	0.061873622
178	0x3d8b8c82	0.06813909
179	0x3d5346db	0.051581245
180	0x3d1138e6	0.035454653
181	0x3bc9b86f	0.0061560194
182	0xbd69a2e4	-0.05704011
183	0x3c0b78bd	0.008512673
184	0xbd57bd90	-0.052671015
185	0xbd090069	-0.033447657
186	0xbd321121	-0.043473367
187	0xbd30a6cd	-0.043127824
188	0xbd1b5e23	-0.037931573
189	0xbd3461d4	-0.04403861
190	0x3c965958	0.01835315
191	0xbd806d0a	-0.062707976
192	0xbc0708ec	-0.008241873
193	0xbd8e2c99	-0.069421
194	0xbd7eccf7	-0.06220719
195	0x3cc516b6	0.024058681
196	0xbd194cf9	-0.037426922
197	0xbc1bc171	-0.009506569
198	0xbd09e767	-0.033667948
199	0x3cccf48b	0.02501895
200	0x3d7aa133	0.061188888
201	0x39d6278a	0.0004084672
202	0x3d4f96e0	0.050680995
203	0x3cfea3ff	0.031084059
204	0x3ce318c5	0.027721772
205	0x3d158bc4	0.036510244
206	0x3ba66e2d	0.005079052
207	0xbd0a11e7	-0.03370848
208	0xbd2eb2ca	-0.042650975
209	0x3be4efc3	0.0069865896
210	0x3a7a557c	0.00095494813
211	0x3c858fbc	0.01630389
212	0x3d22972f	0.03969496
213	0x3c1f4bf0	0.009722695
214	0x3d8ce71c	0.06880018
215	0xbd049273	-0.032366227
216	0xbcd6026a	-0.026124198
217	0xbd2d5abf	-0.04232287
218	0x3ce8fdad	0.028441275
219	0x3d7c1e07	0.061552074
220	0x3d5bd7f9	0.053672764
221	0x3cfa9c5c	0.030592136
222	0x3b80d52d	0.0039316625
223	0x3c9cf142	0.01915801
224	0x3d02e8f0	0.031960428
225	0xbd84319b	-0.06454774
226	0xbd82446c	-0.06360707
227	0xbd7f715f	-0.06236398
228	0xbd8722cf	-0.06598436
229	0xbd3dca23	-0.04633535
230	0xbd8a3a1d	-0.067493655
231	0x3d2d914f	0.042374905
232	0x3ce932f5	0.028466681
233	0xbd7850a2	-0.060623772
234	0x3d17c2ec	0.037051126
235	0xbd1ec15b	-0.038758617
236	0x3c50d953	0.012747127
237	0x3c38f25d	0.011288253
238	0x3cd238d1	0.025661858
239	0xbcfc325e	-0.030785736
240	0xbd0137cf	-0.031547364
241	0xbce0fd3d	-0.027464503
242	0x3d1f90a4	0.0389563
243	0xbd45baa9	-0.048273716
244	0x3d82c24f	0.06384718
245	0x3b70ccf4	0.0036743255
246	0xbd10c1b9	-0.035341
247	0xbd0be1b8	-0.03415081
248	0xbb56957c	-0.0032742908
249	0x3cb656a4	0.02225811
250	0x3d7b295a	0.061318733
251	0x3d4c5a61	0.04989088
252	0x3c7b111e	0.015323905
253	0x3d88d94b	0.0668207
254	0x3c46adf7	0.012126437
255	0x3c0b3ef6	0.008498898

bias f4 [64]
0	0xbbd4ec1c	-0.006497873
1	0x3d0e282c	0.03470628
2	0x3b9cbf30	0.0047835335
3	0x3d1fe17a	0.03903339
4	0x3c99df03	0.018783098
5	0x3d2274e3	0.039662253
6	0xbcab82c1	-0.020936372
7	0x3b465c2b	0.0030267339
8	0xbd439699	-0.047751043
9	0x3d3f7a98	0.046747774
10	0x3cdf1c2a	0.02723511
11	0xbcead383	-0.02866531
12	0x3b11a01c	0.0022220677
13	0x3c9d1f93	0.019180095
14	0xbd1ba35a	-0.03799758
15	0x3bc5c5c5	0.006035539
16	0x3d0c079f	0.034186956
17	0xbd46c7c3	-0.04853035
18	0x3c51bc06	0.012801176
19	0xbd02302f	-0.031784233
20	0x3c90cb52	0.017675076
21	0xbb3ea6d3	-0.0029091134
22	0x3b392caa	0.0028255382
23	0x3cc84c34	0.024450399
24	0xbbe7062f	-0.0070502977
25	0xbd42d5a8	-0.04756704
26	0x3cc09dde	0.023512777
27	0xbd37df18	-0.044890493
28	0xbc0634fd	-0.008191344
29	0xbd52d0bc	-0.051468596
30	0x3d4c8b9a	0.049937822
31	0x3ca05395	0.019571105
32	0x3d3d828f	0.04626709
33	0x3d49f40c	0.049305007
34	0x3d2f664d	0.04282217
35	0x3d6bc3f3	0.05755992
36	0x3d05d5ad	0.03267448
37	0x3d254f91	0.040359084
38	0x3d06c4b3	0.03290243
39	0xbd7a883f	-0.06116509
40	0xbd6d5e61	-0.057951335
41	0xbcacc846	-0.021091592
42	0x3b4ca90d	0.0031228692
43	0x3d21ae7b	0.03947304
44	0xbd7e13e4	-0.062030688
45	0xbca6565a	-0.020304848
46	0xbcd9d237	-0.026589496
47	0x3cc9ff79	0.024657952
48	0xbc9b4c50	-0.018957287
49	0x3b07ffe7	0.0020751895
50	0xbcb756f3	-0.022380328
51	0xbc36ca71	-0.011156664
52	0x3bc08534	0.005875254
53	0xbcecd142	-0.028908376
54	0xbd0d7438	-0.034534663
55	0x3ca436b8	0.020045623
56	0x3c90e157	0.017685575
57	0xbc739c5d	-0.014868823
58	0x3d254cb0	0.040356338
59	0xbd4f8f42	-0.05067373
60	0x3b2443f3	0.0025064915
61	0xbb7ff3db	-0.0039055261
62	0x3ce7e21a	0.028306056
63	0xbc3b31e2	-0.011425467

weight f4 [64, 64, 3, 3]
0	0xbcb9a130	-0.022659868
1	0x3cdc5e1f	0.02690035
2	0xbd10cdd2	-0.035352536
3	0xbb89b50f	-0.004202492
4	0x3c868cb0	0.016424507
5	0xbd234b70	-0.039866865
6	0xbc13f8e2	-0.009031506
7	0x3c498170	0.012298927
8	0x3cbefa3c	0.02331268
9	0x3c96fd6c	0.018431388
10	0x3cf01df4	0.029311158
11	0xbc25c7b2	-0.010118412
12	0xbcd5f296	-0.02611665
13	0xbc95f2bd	-0.018304223
14	0x3d0dd366	0.034625433
15	0xbad3b1f8	-0.0016151061
16	0xbc29c798	-0.010362528
17	0xbbab7d31	-0.00523343
18	0x3c90d7bd	0.017680997
19	0x3d2a6918	0.04160413
20	0x3cee8cc0	0.02911985
21	0xbc2ce35a	-0.010552252
22	0xbc8858c0	-0.016643882
23	0x3d0d7d09	0.03454307
24	0x3c5b832e	0.013397975
25	0x3cab84fc	0.020937435
26	0x3bb687ea	0.0055704014
27	0xbceca8f0	-0.02888915
28	0xbc40558c	-0.011739146
29	0x3cf614aa	0.03003915
30	0xbbdb4ddd	-0.0066926316
31	0x3cb59ef9	0.02217053
32	0xbd03af82	-0.0321498
33	0xbbc417ec	-0.005984297
34	0x3c66a4d2	0.014077382
35	0xbc2c06df	-0.010499685
36	0xbc258303	-0.010102036
37	0x3ab897f0	0.0014083367
38	0x3c144621	0.009049923
39	0x3cc50dc2	0.024054412
40	0x3c8b8977	0.017033322
41	0x3ca115e3	0.019663757
42	0xbcd11f12	-0.02552751
43	0x3c02d0a7	0.007984317
44	0x3bb1013b	0.005401758
45	0xbc904dfb	-0.017615309
46	0xbc105cee	-0.008811219
47	0x3c0c9009	0.0085792625
48	0xbd161439	-0.03664038
49	0x3d430b05	0.04761793
50	0x3d425ef7	0.047453847
51	0x3c8c1951	0.017101916
52	0xbcb98d21	-0.022650303
53	0xbceb82db	-0.02874892
54	0xbb08abb1	-0.002085429
55	0x3d2c7a76	0.042108975
56	0x3d0ef24a	0.034899034
57	0x3c272f72	0.010204183
58	0x3cf51212	0.029915843
59	0x3ca04b0c	0.019567035
60	0x3ce75596	0.028239053
61	0xbce0e20a	-0.027451534
62	0x3b044743	0.0020184077
63	0x3b859be0	0.0040774196
64	0xbd449a34	-0.047998622
65	0x3cf5ac20	0.029989302
66	0x3b07b740	0.002070859
67	0xbbc41dd0	-0.0059849992
68	0xbc308d7e	-0.010775922
69	0x3c26b20e	0.0101742875
70	0xbcb40cb1	-0.021978708
71	0xbcbc9091	-0.023018153
72	0xbc400a8b	-0.011721264
73	0xbc3db575	-0.011578907
74	0xbaa353bb	-0.0012460867
75	0x3c97583d	0.018474692
76	0xbd26ca57	-0.04072031
77	0x3cacb94a	0.021084446
78	0xbd1ce6d4	-0.038306072
79	0x3af773be	0.0018879098
80	0xbcbf2366	-0.023332309
81	0xbd124953	-0.03571446
82	0x3cc86e79	0.02446674
83	0xbb7c981b	-0.003854281
84	0xbc25e96a	-0.010126451
85	0xbcd7da07	-0.02634908
86	0x3d01cbf4	0.031688645
87	0xbc0865c8	-0.008325048
88	0x3cf2a795	0.029620925
89	0x3cb89301	0.022531034
90	0xbc22e251	-0.009941653
91	0xbbb7a12e	-0.005603931
92	0x3cd69887	0.026195778
93	0xba6ab688	-0.0008953591
94	0xbc4d058f	-0.012513532
95	0x3d303015	0.043014605
96	0x3c525db9	0.012839728
97	0xbc7511b7	-0.014957837
98	0x3ceea8f3	0.029133296
99	0xbc7f906d	-0.015598399
100	0x3c97e06c	0.01853963
101	0xbd0b6989	-0.034036193
102	0xbd0e434f	-0.03473216
103	0x3d0cf1ce	0.03441029
104	0x3c0acacc	0.008471202
105	0xbd152c95	-0.03641947
106	0x3ceb012a	0.028687079
107	0x3d1d53fd	0.038410176
108	0x3c87c587	0.01657368
109	0x3c9c95ba	0.019114364
110	0x3cfdf305	0.03099967
111	0x3ca0144c	0.019540928
112	0xbd2338d1	-0.039849106
113	0xbd05ddcf	-0.032682236
114	0xbd38a117	-0.045075502
115	0x3cdbb868	0.02682133
116	0xbc21f1b2	-0.009884285
117	0xbc416edf	-0.011806219
118	0x3d0529f8	0.032510728
119	0xbcdcabcd	-0.02693739
120	0x3d1c43ab	0.03815047
121	0xbcd41122	-0.025887076
122	0x3cfa1394	0.030526914
123	0xbca61cbf	-0.02027738
124	0x3cbb7051	0.022880705
125	0xbc932042	-0.017959718
126	0x3cfbed81	0.0307529
127	0xbc90dfcf	-0.017684845
128	0xbc75e7e4	-0.0150089
129	0x3c2555aa	0.010091225
130	0x3b9a7c1d	0.0047145025
131	0x3cb94012	0.022613559
132	0x3b9bd82d	0.004755995
133	0xbcd66bbb	-0.026174417
134	0x3d072318	0.032992452
135	0x3b96868b	0.0045936755
136	0xbc18212d	-0.0092852535
137	0xbd052a32	-0.032510944
138	0x3c7681f7	0.0150456345
139	0x3cd9a84f	0.026569514
140	0xbcd1a90e	-0.025593307
141	0x3c4e9c47	0.012610502
142	0xbb87ca46	-0.004143986
143	0xbb9c655f	-0.0047728266
144	0xbcea2a28	-0.028584555
145	0x3ba433df	0.0050110663
146	0xbd079128	-0.033097416
147	0x3d448e05	0.047987003
148	0xbbbb50ae	-0.005716405
149	0xbc3fe4b4	-0.011712242
150	0x3d23c5d6	0.039983593
151	0x3d3cf3d9	0.04613099
152	0x3c30c7d4	0.01078983
153	0xbd19f258	-0.037584633
154	0x3d1c0f7c	0.038100705
155	0xbc483283	-0.012219074
156	0x3d348cc0	0.044079542
157	0x3d34c699	0.04413471
158	0x3b18bd21	0.002330609
159	0xbca68774	-0.020328261
160	0x3d140194	0.036134318
161	0x3cf5d537	0.030008895
162	0xbd423ca2	-0.047421105
163	0xbcb66b51	-0.02226797
164	0xbc1f535b	-0.009724463
165	0xbc9abcf1	-0.018888922
166	0xbcb4e30a	-0.022080917
167	0x3ccd9b8e	0.025098588
168	0xbb1f502a	-0.0024309256
169	0xbcf48831	-0.029850097
170	0xbd1f8905	-0.03894903
171	0x3cac4019	0.021026658
172	0xbc890f2d	-0.01673087
173	0xbd045387	-0.03230622
174	0x3cea3a40	0.028592229
175	0x3c5535d0	0.013013318
176	0xbc7b6ee2	-0.015346261
177	0x3c600ccf	0.013674929
178	0x3d1d25f8	0.038366288
179	0xbd015db3	-0.0315835
180	0x3cd50d02	0.02600718
181	0x3cb5fc13	0.022214925
182	0x3cd9eb4b	0.026601454
183	0x3d05195a	0.03249488
184	0xbcf0eee6	-0.02941079
185	0xbd18750a	-0.037220992
186	0xbcfb924f	-0.030709414
187	0xbbe2ec44	-0.0069251377
188	0x3c229182	0.009922387
189	0x3c955bc5	0.018232236
190	0xbc10cb1f	-0.00883749
191	0xbd0deaac	-0.03464763
192	0x3d1676e3	0.036734473
193	0x3c801b67	0.015638066
194	0xbd13540b	-0.03596882
195	0xbb0f7233	-0.0021888136
196	0xbcfa628e	-0.030564573
197	0x3ba18962	0.0049297074
198	0x3b9bd2fc	0.004755376
199	0xbc966bad	-0.01836189
200	0x3bc173ec	0.0059037115
201	0xbbdf00b1	-0.0068055023
202	0xbc2c8733	-0.010530281
203	0xbccab7fe	-0.024745937
204	0x3c3c30cd	0.011486244
205	0x3c71412c	0.014725011
206	0x3c8167cf	0.01579657
207	0xbd1281e5	-0.03576841
208	0xbc411703	-0.011785272
209	0x3ceb701c	0.028739981
210	0x3ccb2f8e	0.02480295
211	0xbcc13824	-0.02358634
212	0xbcf0d9e7	-0.029400779
213	0x3c35c60d	0.011094582
214	0x3cf8e876	0.030384284
215	0x3cd609b4	0.026127674
216	0x3d063e95	0.032774527
217	0xbc9f6fa8	-0.019462422
218	0x3d158dba	0.036512114
219	0x3cf09135	0.029366115
220	0x3d1b853e	0.037968867
221	0x3cc8c340	0.024507165
222	0xbcc2fca1	-0.023802103
223	0xbbb6f864	-0.0055838097
224	0xbd20dd8f	-0.039273795
225	0xbc62898c	-0.013826739
226	0x3cae3c72	0.021269057
227	0x3c5e0abc	0.013552364
228	0x3cccd79a	0.02500515
229	0x3ca250e6	0.019813966
230	0xbc8fafd6	-0.0175399
231	0x3c86ece6	0.016470384
232	0x3d217751	0.03942043
233	0x3bb9d6a0	0.0056713372
234	0x3b638c2d	0.0034721002
235	0x3d0c5026	0.034256123
236	0xbcbf5b13	-0.023358857
237	0xbafbbe6e	-0.0019206533
238	0x3c8e124d	0.01734271
239	0x3d631f40	0.055449724
240	0xbb6b6a8c	-0.0035921661
241	0x3c54e559	0.012994134
242	0x3c263c0f	0.010146155
243	0xbd30a61c	-0.043127164
244	0xbc7ac1bc	-0.015304979
245	0xbc135a68	-0.0089937225
246	0x3ba1a371	0.004932814
247	0xbc72db39	-0.014822775
248	0x3cf9ffa0	0.0305174
249	0x3cf80ca0	0.030279458
250	0x3d11c573	0.035588693
251	0x3c1faf5a	0.009746397
252	0x3bd7a9ba	0.0065815123
253	0x3ceeca26	0.029149126
254	0xbc8e803f	-0.017395137
255	0x3cdc1280	0.02686429

bias f4 [64]
0	0xbcfaf3f3	-0.030633902
1	0xbadf5e75	-0.00170417
2	0x3cbfd499	0.023416804
3	0x3d2da87f	0.04239702
4	0x3cd3bf2c	0.025847994
5	0xbc82de34	-0.015975095
6	0x3bda10ad	0.00665482
7	0xbca20fa4	-0.019782849
8	0xbcff44fb	-0.031160822
9	0x3cb6246b	0.022234162
10	0xbcea44e6	-0.028597306
11	0xbbcbb8a7	-0.0062170806
12	0xbcf8dc4c	-0.030378483
13	0x3ca49ae6	0.020093393
14	0xbca4c072	-0.020111296
15	0xbc02a12f	-0.0079729995
16	0x3d1ca7b5	0.038245875
17	0xbcabd8f7	-0.02097748
18	0xbb3d9108	-0.0028925557
19	0x3cdc00ad	0.026855791
20	0x3d08377c	0.03325604
21	0x3c16133c	0.009159859
22	0xbc1c741e	-0.009549169
23	0xbd0c4de6	-0.034253977
24	0x3d64b340	0.05583501
25	0xbbcfd76f	-0.0063428204
26	0xbc50c4b1	-0.012742207
27	0x3d0f5aae	0.03499859
28	0xbc6fa504	-0.014626745
29	0x3ca35a83	0.01994062
30	0xbc12f006	-0.008968359
31	0x3cc7e172	0.024399493
32	0xbd1cadd7	-0.038251724
33	0x3c054db8	0.008136205
34	0x3d25aa1c	0.040445432
35	0xbd2a0610	-0.041509688
36	0x3c94d8b9	0.018169748
37	0x3d2bd593	0.041951727
38	0xbb93ae11	-0.0045068343
39	0x3d28933e	0.041156046
40	0xbd1658d4	-0.036705807
41	0xbcd959b8	-0.026532039
42	0xbb8cd8fa	-0.0042983266
43	0x3ba89eb0	0.00514587
44	0x3b4066c7	0.0029358135
45	0x3d11e06b	0.035614412
46	0xbc7aae11	-0.01530029
47	0xbcab576e	-0.020915713
48	0xbc2254a1	-0.009907872
49	0x3c672171	0.014107094
50	0x3cf8a456	0.030351799
51	0xbcf845a3	-0.030306643
52	0xbd1d090d	-0.03833871
53	0x3d19b102	0.037522323
54	0xbd0c843a	-0.03430579
55	0x3bac41ec	0.005256882
56	0x3d00ff65	0.031493563
57	0xbca824b3	-0.020525312
58	0xbc5b5d7f	-0.01338899
59	0xbc6c6701	-0.014428855
60	0xbb80b713	-0.003928074
61	0xbcd8adfe	-0.026450153
62	0xbcb044e9	-0.021517234
63	0x3c8e2bac	0.017354809
